cushion/h2_cushion_rom.pt (torch, 106659 bytes, 38 tensors)

layers.0.weight f4 [32, 12]
00000000: e6f7 3dbe 57de 46be f3cb 7a3e b3e2 5cbe
00000010: a478 1e3e 387f 8dbe 28eb 683d a7a0 73be
00000020: e060 8a3e cf57 ae3b bb10 2abe 617a 3e3e
00000030: e2e8 ce3c 841f 633e 7fb4 74be 71eb 79be
00000040: 3e8a 83be 372c 7bbe 852c dd3d 2d35 0dbe
00000050: dd0d 81be 8f88 b73a 8a1a a8bb 7a85 893e
00000060: 5bce 783e fecc 2fbe a436 833e 47a9 7ebd
00000070: 755d ba3d 621e 30be e3e4 f8bd 0630 63be
00000080: 978b 91be ce3a db31 0c48 13be 88f9 933e
00000090: 7da4 ebbc 0d20 43bd 3faa efbb a702 6f3d
000000a0: 4fa0 5e3c 32b6 4b3c 7cde 85be 994d 1c3d
000000b0: ad38 7abe 65bb c1b3 417b 59be 06a4 253d
000000c0: 3b47 36be bec9 403e 9392 e0bd d530 c43d
000000d0: 8a07 dbbd 43ce 23be 8262 843e dde6 3e3d
000000e0: 7e47 1a3d c922 f0bc 7105 efbd 0917 59be
000000f0: fa50 273e 5153 7cbe 4303 46be 31c0 653e
00000100: 56b2 84be 77c3 14be c251 93be 2c25 12be
00000110: 7b90 a33c 77cc 2abc fa04 f9bd 086c 563e
00000120: 4396 e23d adeb 43be c515 39bd 7dfe 79bd
00000130: 8be3 4dbe 0ad7 cb3d d130 fbbd 1367 49bb
00000140: 1c98 8c3e 32e6 90bd a2cf 69bb 6e37 1fbc
00000150: 24cb 2a3e 584b d23d 847e 883e 4e5f 74be
00000160: 1a3a 6c3e a7af cbbd f64f 003e 006b 74be
00000170: ef05 bd3d c1d1 a4b4 01a4 41bd 847a 19be
00000180: 3640 763e 032a cfbd 56d2 a83d 0d56 563d
00000190: 551f 28bd f84d 46be 8b30 b23c 550c c13d
000001a0: 3201 2cbd 8bf6 26bd 0763 873d 860f 883e
000001b0: 4ae7 30be 2c28 54bd 62f9 763e 0ad3 0dbe
000001c0: 758e 5a3e 4e71 8bbe 2886 8e3e a09c 5c3e
000001d0: 59f2 5d3e 87a4 a2b6 6316 083e 3e33 0d3e
000001e0: 334b 98bd b441 42bd 84d7 5e3d 0220 513e
000001f0: 7e8f 0cbe 608e 243e d722 843e afa3 38be
00000200: aba2 c6bd ab44 c8b8 34f1 a03d ca93 8bbd
00000210: ccf9 42be 6b4c 213e b0ec 5bbe fc3e 47be
00000220: 1143 c03d bb01 3f3e f34e 5b3e 723f 6abc
00000230: 65ac 113e 6eb2 29bc 6fbf 523e c8ca bbbe
00000240: edd0 70be 06c8 84be 94b9 6c3e d39e 90be
00000250: 86a9 f1bd 84c1 543e a416 dd3d b1dd 8d3e
00000260: 0115 4c3e 42fb eabc 8cd8 89bd 93ae 183e
00000270: 603b fa3d 043c 183e 53cd 1a3e 0e93 14be
00000280: e5e3 97be 19ff 763e 0745 263e a8cb e33d
00000290: d6d2 073d 2729 afb6 2a47 4d3e 13f7 403e
000002a0: ae59 81bd 50ba 4d3e daf6 92bc e7da 84bd
000002b0: 7cd2 d33c 7818 833d f1c2 ac3d 34cb e7bc
000002c0: bdb0 543a ec1a c031 c670 09be 83b6 3dbe
000002d0: c9ec 7c3e 1cb1 573e eb5c 40be de17 0bbe
000002e0: 313c 43bd 5066 b13d 8ae9 d13d 989f 40be
000002f0: 5d99 963c 04a5 edbc c536 113e 6384 70be
00000300: ca85 923e ce20 7cbe 409b 13bd 1f92 80be
00000310: 194b 793e 9a5d 9abe 0eca 86bc f05a 303d
00000320: 4348 903e 2be3 51b9 529a 463e 191f 02be
00000330: d4b7 8d3e 794d 923e 9890 573e 1803 73be
00000340: 0384 0b3e ebcd 843e 58db 1a3d 17a8 f83d
00000350: f07b 403e 1f22 f1b4 1c58 f33b 81af 8a3e
00000360: 707a f23d be82 bf3d 9f5c ed3d 1855 30be
00000370: dcae 44be ad67 883e 96f4 66bd e6c1 063d
00000380: a9f9 483e 8b62 a136 7a9b 933e 9c4a 323e
00000390: 3964 243e 3102 0c3e 075a 863c 52b8 5c3d
000003a0: 18a4 553b 112f d33c 71a4 063d db89 d3bd
000003b0: 0a68 85be 6417 87bd b895 933c cc98 4abd
000003c0: d740 63be 1ac4 6cbd 6eb4 5abe 6a5a cdbd
000003d0: 132a 0cbe acba 44be 4935 a3be 5ba1 38be
000003e0: 502e 723e 9b5d 30bd 77f5 403e a0eb 66be
000003f0: 30ee 81bd e4a6 1e3e bf1b b93c a7ba b33d
-0.18551597 -0.19420753 0.24491863 -0.21570854 0.15475708 -0.27636123 0.056864887 -0.23791753
0.27027035 0.005320526 -0.16607945 0.18601371 0.025257532 0.22179991 -0.23896979 -0.2440622
-0.25691408 -0.24528585 0.10799507 -0.13789816 -0.2520589 0.001400249 -0.005130117 0.26859647
0.24297468 -0.17168042 0.25627625 -0.062173154 0.09099857 -0.1719909 -0.12153032 -0.22186288
-0.2842681 6.380424e-09 -0.14382952 0.28901315 -0.028764958 -0.047637988 -0.007313996 0.05835214
0.013588025 0.0124335755 -0.26146305 0.03815994 -0.24435683 -9.02135e-08 -0.21238424 0.040439628
-0.1780061 0.18826959 -0.10965457 0.095796265 -0.10694797 -0.15996651 0.25856405 0.046606887
0.037665837 -0.029313462 -0.1167096 -0.21200193 0.16339484 -0.24641158 -0.19337182 0.22436596
-0.2591731 -0.14527689 -0.28773314 -0.14271992 0.019966355 -0.010424725 -0.12159152 0.20939648
0.110638164 -0.19132872 -0.045186777 -0.061033715 -0.20106332 0.09953125 -0.1226517 -0.0030731603
0.274598 -0.07075156 -0.0035676737 -0.009717805 0.16679054 0.10268277 0.26659024 -0.23864481
0.23069039 -0.099456124 0.12530503 -0.23868942 0.09229647 -3.0699997e-07 -0.047275547 -0.14988142
0.24047932 -0.10115435 0.082432434 0.05232816 -0.041045506 -0.1936568 0.021751663 0.0942618
-0.041993327 -0.040762465 0.06610685 0.26574343 -0.1727573 -0.051796123 0.2411857 -0.13850036
0.21343406 -0.27234882 0.27836728 0.21544123 0.2167448 -4.8471297e-06 0.1328979 0.13789079
-0.07436218 -0.04742594 0.05440475 0.20422366 -0.13726613 0.16069937 0.2580783 -0.1803119
-0.09698995 -9.5495336e-05 0.07858506 -0.06815298 -0.19040602 0.15751807 -0.21477008 -0.1945762
0.09387792 0.18653004 0.21416835 -0.014297353 0.1422592 -0.010357482 0.20580839 -0.36678147
-0.23517199 -0.25933856 0.23117667 -0.28246173 -0.11799912 0.20776945 0.10795334 0.277082
0.19929887 -0.028684262 -0.06730756 0.14910345 0.12218356 0.14866644 0.15117387 -0.14509222
-0.29666057 0.2412075 0.1623727 0.11122829 0.033160053 -5.220197e-06 0.20046678 0.18844251
-0.06315933 0.20090604 -0.017939974 -0.06487065 0.025857203 0.064011514 0.084356196 -0.028295137
0.0008113494 5.590996e-09 -0.13421926 -0.18526654 0.24699701 0.21063656 -0.18785445 -0.13583323
-0.047664825 0.08662093 0.10249622 -0.1881088 0.018383676 -0.02900935 0.14181049 -0.23488002
0.28617698 -0.24621889 -0.03603673 -0.25111482 0.24345054 -0.30149537 -0.016453769 0.043055475
0.2818013 -0.0002001642 0.19394806 -0.12707175 0.27679312 0.28574732 0.21051252 -0.23731649
0.13624577 0.25938353 0.03780684 0.121414356 0.18797278 -4.4914574e-07 0.007426275 0.27087024
0.11839759 0.09351109 0.11589932 -0.1721996 -0.19207329 0.26641598 -0.0563856 0.03289976
0.19626488 4.809646e-06 0.28829557 0.17411274 0.16053857 0.13672711 0.01640035 0.05388672
0.0032599028 0.025779279 0.032871667 -0.10329028 -0.26055938 -0.06596258 0.018015727 -0.049462125
-0.22192703 -0.057804205 -0.21357891 -0.10027011 -0.13687925 -0.19211835 -0.3187659 -0.18030302
0.2365048 -0.04305802 0.18843637 -0.22550821 -0.06344259 0.15493351 0.022596238 0.087758355

layers.0.bias f4 [32]
00000000: a8e7 66be 4430 fbbc e96a 71be 5d4a 073e
00000010: 7921 663d 4bcd 81be 43f6 34be cff1 c8bd
00000020: f97b 91bd ffac 6d3e 884e 67bd 95d6 13be
00000030: 9f3c c5bd 9582 64be 94b1 81be 607a 993d
00000040: 2b91 793e 9a3a 8d3e e201 32be 7297 213e
00000050: 1b7f 553d 5371 f23d cef3 393d 5a2c 283d
00000060: ac7c e4bc faa2 cdbd 5e02 4ebe 7406 783d
00000070: cf16 4ebe 73a3 35be 49df 4e3e 8e35 bbbd
-0.22549307 -0.030662663 -0.23575939 0.13211961 0.056184266 -0.2535194 -0.17672066 -0.09811746
-0.07103724 0.23210524 -0.056471378 -0.14437325 -0.09630703 -0.22315438 -0.25330794 0.07494044
0.24371783 0.27583772 -0.1738353 0.15780428 0.05212317 0.11838021 0.045398526 0.041057922
-0.02789148 -0.10040851 -0.2011809 0.06055303 -0.20125888 -0.17738132 0.20202364 -0.09141074

layers.3.weight f4 [32]
00000000: 6df3 783f f1d3 7a3f 4220 773f 8bc4 803f
00000010: 471c 863f c2b3 7c3f aaef 7c3f 883c 813f
00000020: a63a 813f 1d8d 7e3f 400c 803f fab7 803f
00000030: 36ba 843f 904e 813f 8a2f 7b3f df52 793f
00000040: 5305 813f ec92 783f 9e95 793f 0d0f 803f
00000050: 722b 7d3f b691 813f 48bc 7c3f 5323 803f
00000060: dea7 833f 566c 823f f5a6 803f 5996 823f
00000070: 5255 803f 91a3 7d3f 8819 7d3f 48d3 823f
0.9724644 0.97979647 0.96533597 1.005998 1.047738 0.9871179 0.988032 1.0096598
1.0096023 0.9943407 1.0003738 1.0056145 1.0369327 1.01021 0.98119414 0.97392076
1.007975 0.97099185 0.9749392 1.0004593 0.9889442 1.0122592 0.98724794 1.001078
1.0285604 1.0189312 1.0050951 1.0202132 1.0026038 0.9907771 0.9886708 1.0220728

layers.3.bias f4 [32]
00000000: e0b1 7ebc f09e 4a3c 3bd0 3b3c 6b72 ca3c
00000010: b19e 87bb 563d 65bb ca0a 5bbb 679c 72bc
00000020: 2cc3 60bb d9df c33c aed6 153c 7e98 fcbc
00000030: 9f70 e13c 87f5 073c f79e a23b 5136 f5bb
00000040: 1f98 b7bb 5569 75bc 3638 40bc 13a1 d43a
00000050: b71e 40bc bed9 9ebb 4f60 353c f71a 34bc
00000060: fc88 ae3c 690c 463c a2a5 b6bc 27eb 2bbd
00000070: 859a b13b 8b5d 82bc 01ca 49bc b819 afbc
-0.015545338 0.012366995 0.01146322 0.024712762 -0.0041387905 -0.0034979186 -0.0033423179 -0.014807797
-0.003429602 0.02391045 0.009145422 -0.030834433 0.027519522 0.008298284 0.0049627977 -0.0074832817
-0.005602851 -0.014978726 -0.011732152 0.001622232 -0.011726073 -0.0048477342 0.011070325 -0.010992757
0.021305554 0.01208792 -0.022295777 -0.041972306 0.0054200315 -0.015913745 -0.012316228 -0.021374568

layers.3.running_mean f4 [32]
00000000: 09f9 0dbe 215f ffbd 334c 01be 3507 73bd
00000010: ef4b 40bc 5277 5ebe 4b1d b6bd 6764 2e3d
00000020: 87eb 283e aca2 233f 24c7 733d ac0f f6bc
00000030: c0f8 7a3d 8929 7a3e b6f1 ddbd 9be7 b93d
00000040: bca8 873e ab57 873f 54ab 823e d8c5 463e
00000050: 52cd 47be 7eb1 883e 260d b6bd dfb1 343c
00000060: d464 1a3d 1db6 693e e539 edbb 7f34 b83d
00000070: a61e 253d 2340 01be bd23 b73d ae87 45bd
-0.1386453 -0.12469316 -0.12626724 -0.059333045 -0.011736854 -0.21725205 -0.08892306 0.04257622
0.16496097 0.6392009 0.059516087 -0.03003677 0.061272383 0.24429907 -0.10837118 0.09077378
0.26495922 1.0573629 0.25521338 0.19411409 -0.19511917 0.26697916 -0.088892266 0.011028736
0.037693813 0.22823377 -0.0072395676 0.08994388 0.04031243 -0.12622122 0.089423634 -0.048225097

layers.3.running_var f4 [32]
00000000: 0bd3 1b3c dbf3 dd3b 4107 c53b 629c f73a
00000010: 3db8 f13b b966 183c 8805 4f3b 77d3 713c
00000020: d66e b33c af8f ad3d cef4 483c 67db 333c
00000030: f43a c63c 3fd6 003d df64 253b 6f62 a23c
00000040: a509 303d f13c 263e a357 043d a356 923c
00000050: a293 e03b 8499 d23c d4d0 953b fe0a 203c
00000060: 2a60 303c a224 203d 2d89 723c 2fac a53c
00000070: 5d23 863c 37b4 8d3b 70a4 7a3c 156a 353c
0.009510766 0.0067734546 0.0060128276 0.001889121 0.0073766992 0.009301835 0.003158899 0.01475989
0.021903437 0.08474671 0.012265397 0.010977603 0.024198033 0.03145432 0.0025237126 0.019822327
0.042977948 0.16234185 0.03231014 0.017863577 0.0068535367 0.025707968 0.0045720134 0.009768246
0.010765115 0.039097436 0.014803213 0.020223705 0.016374284 0.004324462 0.015297994 0.011072655

layers.4.weight f4 [64, 32]
00000000: 0a68 553d 45d8 53bc 2e72 5cbd 651e 4f3d
00000010: 2493 a3bd bfa5 f03c 6cf6 cbbd 35e5 3cbc
00000020: 2072 1e3e aee9 3ebd 47f7 92bd fa3a cbbc
00000030: e33f 773b 1c18 fabc cb72 89bd e022 e63d
00000040: 3deb 21bd acd6 37bd d18b f1bb 819a d1bd
00000050: 5505 b3bd dfe2 28be 9481 6d3d 1008 ebbd
00000060: 6e87 58be eaa1 da3d cf59 c73d 0d6a 7cbc
00000070: e98b e83c fc02 f03d a123 12be e739 c23c
00000080: 48df 343e f69d f63d 201b 253e 14fe c13d
00000090: c6da 46be 895e 763b 5038 e03c 72f7 8bbd
000000a0: b56c ef3c d2ad 503e 7d48 83bd 8c52 22be
000000b0: 4f1c d63d b87a 383d 9663 643c 9b79 f6bc
000000c0: c2a0 e93c 9b55 15be 5166 363c a5d4 3cbd
000000d0: 49c3 013e dbfa 163d ee5d 32be 836d 1c3e
000000e0: eb89 3abe 62c3 133e 8e45 a33d c412 eabc
000000f0: 6321 21be d6e9 373e fc50 57bd 9140 e93d
00000100: 84ff a9bd c82e 093d 4533 11bd 9fdf bebb
00000110: 3767 cb3c 53be f13d c7dd 91bc eb3e d93d
00000120: d5f0 1f3e 3dd1 00be d264 5b3d 7bdb 41bd
00000130: 36b7 f0bd 2a10 d9bd 11fd 23be 68c4 5f3b
00000140: b8c3 a8bc 5a6b 3cbd 0a41 f43d e3be c3bd
00000150: dbc7 89bd 1cf5 2bbe 083e 273e 8073 97bd
00000160: 9452 eebd c6b1 18be a33b d2bd ea52 35bd
00000170: a412 9c3d b0d5 9abc b150 3abd b59f 513d
00000180: f35a bd3d de68 d7bc 8cce 0bbe eb4a 373d
00000190: e88e 2a3e fe37 2dbe d18c e7bd cafe 243e
000001a0: 3926 143d 7b1c e73c bcf7 f6bd d97f 1e3e
000001b0: 2e6d bd3d 1d09 003e 947d b2bd 673d 96bd
000001c0: 4f77 3e3e ecc6 713d e460 1bbe f42e d1bb
000001d0: d60e 4d3d 8256 d8bc 4483 d43d f157 79bd
000001e0: 38f7 6cbd f226 d83d c781 c43c 75a9 033e
000001f0: 155a b4bd ffed be3d 5d0c a7bd 8dad 033e
00000200: bcc1 f93d 3ca5 293e b52f 17bd ee11 9bbc
00000210: a4a3 023e 2777 e0bd 6bba c1bc 21b2 63bc
00000220: ac57 a03d 6fba 08be 6542 153e 7452 86bd
00000230: 7f4b 2fbe d0b4 dbbc 2fa1 edbc 5298 943d
00000240: 9dc5 cf3d 41f1 f8bc 626b d23d 31d7 35be
00000250: b662 523d 3740 113d ad9d bfbd c930 da3d
00000260: 2914 b6bc 053f 9a3d 27ab 143c 76e6 0e3e
00000270: 29f9 41bd b386 99bd 3209 13be bfdd 3bbe
00000280: debf 1fbe 250f 17be ff68 95bd 10e8 2abe
00000290: 9910 cd3d 75cb 813d 32f3 e33d 6e47 29be
000002a0: c474 40be 5e84 453c 3203 413d 33c5 b0bd
000002b0: acee a13d 8535 0abe d648 293e b8ad 88bb
000002c0: f7d7 613d a1f8 1dbe 8863 5a3c d794 abbd
000002d0: 5dab 123e 9ce0 363d f09f 173e 0402 043e
000002e0: 4ec9 01bd 7b51 d43d 3e08 c2bd 3418 693d
000002f0: 1f84 883d de3b 8c3d fbbd ddbd 82c2 9bbd
00000300: 3fc1 113d 11a9 d13d 8908 c3bd c7a2 17be
00000310: 0fe9 b5bd 01b9 8ebd b04d 00be 1c26 00be
00000320: d91e 3d3e a841 8abd c0cb 50bd e6bb 5f3d
00000330: 82ff ebbd 1566 f23d 7210 ad3d c05e 23be
00000340: 56f2 3f3d 044a b23d 3a6d 183e f827 31bd
00000350: 9508 30be 75dc 753d 08ff d93c 949f 653d
00000360: bb7a 42bd cd77 133d 3e37 06bc 7c07 213e
00000370: 80ec 1a3e b4ec a23d 0b82 e83d 9eaf 9f3c
00000380: 99f9 d93d 102d dfbd 94d5 093d 5eac 8dbc
00000390: 27b3 75bd c5a4 803d 0f43 cb3b e1fd 50bd
000003a0: 301e e43d f182 a3bd c4df d83c ab14 27bd
000003b0: 1b46 f53c 82e2 78bd 0b00 c63c f5dc 9ebd
000003c0: ec5f 20be 6643 e63c 3ac0 ffbd 7ca4 873a
000003d0: 99c1 f33d 7bbf a4bd eb96 c5bc 630e d83d
000003e0: 1251 ebbd bf90 633d 9da7 c6bd 5c8d 553d
000003f0: e47d 533e 6d3b 143d 3535 00be b25c 963c
0.052101173 -0.012929981 -0.053819828 0.050566096 -0.07987049 0.029375909 -0.099591106 -0.011529257
0.15473223 -0.046609573 -0.07176071 -0.024808396 0.0037727288 -0.030529074 -0.06711348 0.11237121
-0.03953098 -0.04488246 -0.0073714037 -0.102345474 -0.087412514 -0.16492794 0.057984903 -0.11476147
-0.21145412 0.10675414 0.097339265 -0.015406144 0.028387027 0.11719319 -0.14271404 0.02370925
0.176633 0.120418474 0.16123629 0.0947229 -0.19419393 0.0037592968 0.027370602 -0.06834306
0.02922664 0.20378807 -0.064103104 -0.15851802 0.10454618 0.04503891 0.013939759 -0.030087283
0.028519038 -0.14583437 0.011132793 -0.04610123 0.12672152 0.03686033 -0.17418644 0.1527615
-0.18216674 0.14430001 0.07972251 -0.028573401 -0.15735392 0.17960295 -0.052567467 0.11389268
-0.08300689 0.03349188 -0.035449285 -0.0058249976 0.02482949 0.118038796 -0.017805947 0.10607704
0.15619214 -0.12579818 0.053562947 -0.047328454 -0.11753695 -0.10598786 -0.16014506 0.0034144167
-0.020601138 -0.046000816 0.11926468 -0.09557893 -0.067275725 -0.1679272 0.16332257 -0.07395077
-0.11636844 -0.14911565 -0.10265281 -0.044268526 0.07620743 -0.018900722 -0.04548711 0.0511777
0.09245863 -0.026295122 -0.1365301 0.04474918 0.16656077 -0.1691589 -0.113061555 0.1611282
0.036169264 0.028211823 -0.1205897 0.15478458 0.0924934 0.12503476 -0.087153584 -0.0733593
0.186002 0.059027597 -0.1517368 -0.006383771 0.050062977 -0.026408438 0.103765994 -0.060874883
-0.057852954 0.10554303 0.023987664 0.12857611 -0.08806244 0.09322738 -0.08156655 0.12859173
0.12195155 0.16566938 -0.03691073 -0.018929448 0.12757736 -0.109602265 -0.023648461 -0.01389745
0.07829222 -0.13352369 0.14576109 -0.065586954 -0.17118643 -0.026819617 -0.029007522 0.07255615
0.101451136 -0.030388476 0.10274388 -0.1775787 0.05136367 0.03546163 -0.09356246 0.10653836
-0.02222641 0.07531551 0.009074009 0.13955101 -0.04735676 -0.07496395 -0.14358976 -0.18346308
-0.15600535 -0.14751871 -0.07295417 -0.16690087 0.100129314 0.063376345 0.1113037 -0.16531155
-0.18794543 0.012055485 0.047122188 -0.08631363 0.07906851 -0.13496979 0.16531691 -0.0041710995
0.0551376 -0.15426876 0.013329394 -0.08377998 0.14323182 0.044647798 0.14807105 0.12891394
-0.03168612 0.10367104 -0.09474228 0.056907848 0.06665825 0.06847356 -0.108272515 -0.07605459
0.035584684 0.10237325 -0.09523112 -0.14808188 -0.08882343 -0.069688804 -0.12529635 -0.12514538
0.18468799 -0.06750804 -0.05097556 0.054622553 -0.115233436 0.11835877 0.08450402 -0.15954113
0.04686197 0.087055236 0.14885417 -0.043251008 -0.17190774 0.060024697 0.026610866 0.05606039
-0.047480326 0.036002923 -0.008191882 0.15725511 0.1512928 0.07955304 0.11352929 0.01949292
0.1064331 -0.10897267 0.03365095 -0.017294105 -0.059985306 0.06281427 0.0062030624 -0.051023368
0.1113857 -0.079839595 0.026473887 -0.040791195 0.029940655 -0.06076289 0.024169942 -0.07756988
-0.15661591 0.02810831 -0.12487836 0.0010348703 0.1190216 -0.080443345 -0.024119815 0.10549619
-0.11490072 0.055557963 -0.096999384 0.052136764 0.20653492 0.036189485 -0.12520297 0.018354747

layers.4.bias f4 [64]
00000000: 0168 523d 8baf c73d fe5c 203e 5030 fdbd
00000010: 2264 6abd 53e7 41be 8fbc 103e f939 fa3d
00000020: 3e3a 223e 4cef 253e 0d6d b13d a718 f83d
00000030: eb4d 0ebe a9e4 e9b9 4271 073e 3c77 93bd
00000040: ae47 803d fdb2 eabd f755 bdbd ca77 37bd
00000050: 6f72 67bd 6c02 a33d 5d73 63bd c948 833d
00000060: 0398 2e3e 3beb ef3d 6676 82bd b63f 103d
00000070: bfae b8bd 9c95 363d 7b4e 1b3e 3bd6 09be
00000080: 7aa8 143e f306 03be 7559 a63d 4d72 1dbe
00000090: 52ad 21bd bc1c f4bd 220a e0bd 1941 063e
000000a0: 3315 ce3d cad8 0ebe b1e3 a73d 9131 0cbe
000000b0: 16b8 d4bd 4973 a03d 9948 1a3d dd30 c53d
000000c0: 579c ba39 ba6f 0bbc 125d a4bc eb0f 303e
000000d0: 7815 603c 9045 783c b303 abbd ad0d ac3c
000000e0: 0889 8abd f76d 273d e7fe 96bd abb2 8f3c
000000f0: 92c7 20be fe88 5a3d 389c 3dbd eaa9 99bb
0.051368717 0.09750279 0.15660474 -0.123627305 -0.0572244 -0.189359 0.1413443 0.12218089
0.1584253 0.16204566 0.08663378 0.12114077 -0.13896911 -0.00044611588 0.13226798 -0.072004765
0.06263672 -0.114599206 -0.09244912 -0.044791974 -0.056505617 0.07959446 -0.05552994 0.06410367
0.17050175 0.117147885 -0.06370239 0.03521701 -0.09017705 0.044576272 0.15166657 -0.13460629
0.14517394 -0.1279562 0.08122531 -0.15375634 -0.03947193 -0.11919543 -0.10939433 0.1311077
0.10062637 -0.13949886 0.081977256 -0.13690783 -0.10386674 0.07834489 0.03766689 0.096284606
0.00035593167 -0.008510524 -0.02006391 0.17193572 0.013676994 0.015153304 -0.08350315 0.021002615
-0.06764418 0.040876355 -0.073728375 0.01754125 -0.1570113 0.053353302 -0.04629156 -0.004689445

layers.7.weight f4 [64]
00000000: 9836 813f ceda 823f 4c41 803f f1d1 833f
00000010: fd54 7c3f 2646 803f a02a 7c3f cf74 7e3f
00000020: 4f54 7d3f 54eb 7f3f d763 813f 0015 833f
00000030: 09fb 793f 7b35 7a3f b879 803f 47f0 7c3f
00000040: afac 7c3f a895 813f 2fe8 803f 47bc 7b3f
00000050: ace1 7c3f 92f4 803f c257 793f 3aba 7c3f
00000060: 1cd4 7e3f 4e37 7d3f afc6 803f bd43 833f
00000070: c3e2 7d3f a00b 7f3f 009d 803f 9880 7b3f
00000080: b058 7e3f 1e55 7e3f 6969 813f 7de2 7a3f
00000090: b30d 7d3f d89a 7e3f 7efc 823f eb46 803f
000000a0: c5fb 7a3f dfdc 813f 0ba2 7c3f 5697 7a3f
000000b0: 2491 7e3f cf17 803f c6af 833f a1a8 803f
000000c0: 7ab6 813f 05b2 793f cc49 803f f0d5 823f
000000d0: e961 833f 8ba2 7e3f 03c9 7c3f 0aa5 7a3f
000000e0: 2623 7c3f 88b8 7c3f a0fb 813f d537 7d3f
000000f0: 2674 7b3f aaf9 803f fb1d 813f ecb0 823f
1.0094786 1.0223024 1.0019927 1.0298444 0.9856718 1.0021408 0.9850254 0.99396986
0.9895677 0.9996846 1.0108594 1.0240784 0.97648674 0.97737855 1.0037146 0.98804134
0.98700994 1.0123796 1.0070857 0.98334163 0.9878185 1.0074637 0.9739953 0.9872166
0.99542403 0.98912513 1.0060633 1.0255047 0.99174136 0.99627113 1.0047913 0.98243093
0.99354076 0.9934863 1.0110294 0.98001844 0.9884903 0.9945502 1.0233305 1.0021642
0.9804042 1.014553 0.9868476 0.9788717 0.99440217 1.0007266 1.0288017 1.0051461
1.0133812 0.9753726 1.0022521 1.0221539 1.0264255 0.9946677 0.9874422 0.9790808
0.9849113 0.9871907 1.0154915 0.9891332 0.98224103 1.0076191 1.0087274 1.0210242

layers.7.bias f4 [64]
00000000: 7828 edbb 7f02 1ab9 f638 9b3c 4ac2 31bc
00000010: 20c3 013c 33d9 ae3c c28e 193c b0a1 5d3c
00000020: dba4 7cbc 7df1 613c a3ff 0f3c c453 8b3c
00000030: 3502 55bb 4808 843b 0968 6d37 3e76 05bc
00000040: 406d e1bc 07eb c9ba 7c77 153a d7e5 34bc
00000050: ed61 5f3c 6a53 1e3b c947 1cbb 919d 1d3c
00000060: 3442 d83b 534c b33c 7d4e cf3b d648 4bba
00000070: dba5 f23b 79ff 883b 3538 ab3c d5e5 6cbb
00000080: d9b2 06b9 7277 8d3b 59f5 3ebb dd79 463c
00000090: 17dd c4bc 183a 2abb 6cb9 d33b a946 ba3b
000000a0: 359a 79bb 6b6d d6bb 2b30 0dbc 6731 afbc
000000b0: 9ea7 98bb 5098 9ab9 3e47 fabb 29c9 89bb
000000c0: 5472 803c 5728 ccbc 2c3b 6dba 5c58 013c
000000d0: 9393 a4bc 9f4f 173a b793 bebc f365 983c
000000e0: e497 0dba 646b d23c 59b6 8ebc 3080 febb
000000f0: b18c df3a 45f1 93bc 8856 33ba 0994 2dbc
-0.0072374903 -0.00014687514 0.01894806 -0.010849545 0.007920057 0.021343803 0.009372415 0.013527319
-0.015420164 0.013790485 0.008788976 0.017007716 -0.0032502536 0.0040293075 1.4150523e-05 -0.008145867
-0.027517915 -0.0015405127 0.00057017035 -0.011041126 0.013634187 0.0024158605 -0.0023846498 0.009620086
0.006599689 0.02188698 0.006326495 -0.0007754689 0.0074050254 0.0041808453 0.020900825 -0.0036147733
-0.00012845862 0.0043172175 -0.0029137938 0.012114015 -0.024031205 -0.0025974568 0.006461313 0.005684693
-0.00380863 -0.0065438054 -0.008617441 -0.021385862 -0.0046586534 -0.0002948665 -0.0076378873 -0.0042048884
0.015679516 -0.02492158 -0.000904965 0.007894602 -0.0200899 0.00057720573 -0.023263795 0.0186033
-0.00054013566 0.025685973 -0.017420935 -0.007766746 0.0017055479 -0.018059382 -0.0006841202 -0.010594376

layers.7.running_mean f4 [64]
00000000: c316 403e 9389 8f3e 7884 863e 1d5c d53d
00000010: 5364 c43d bf84 233d 0506 763e 1638 4c3e
00000020: 5bcb 8f3e c62f 873e 2120 813e fcf7 a33e
00000030: 22cd 8d3d 9a88 053e b3de 813e 7233 b13d
00000040: 7df0 6d3e a679 cf3d 8751 da3d dc68 d73d
00000050: 0bee 0f3e 04a1 3c3e fefe 0b3e 97a5 633e
00000060: 7e34 763e 9641 883e 251a fe3d 679d 7d3e
00000070: 8f66 813d fc20 213e 5b49 833e b956 fa3d
00000080: 68b8 8c3e a162 6d3d 6ad5 413e c58a 763d
00000090: a945 043e 91aa 033d ac02 b13d 3e14 823e
000000a0: b057 443e aba6 303d a805 683e b96d 8c3d
000000b0: 2249 c13d c9aa 7f3e 6a59 5a3e 3268 6a3e
000000c0: 2b99 443e 6b46 0d3e 2b07 0e3e dbeb 9b3e
000000d0: 5e07 493e 80da 343e dfcc 853d 724b 143e
000000e0: ab55 f73d 152e 613e d7fe df3d 517f 6c3e
000000f0: 983e 3f3d 7fbc 563e 2c90 033e d436 1a3e
0.18758683 0.28034648 0.2627294 0.1041796 0.09589448 0.03992152 0.24025734 0.1994327
0.28084835 0.26403636 0.25219825 0.32025135 0.069238916 0.1304039 0.2536522 0.086523905
0.2323627 0.101306245 0.10660081 0.10518047 0.1405565 0.18420798 0.1367149 0.22231136
0.24043462 0.26612538 0.124073304 0.24767075 0.063183896 0.15735239 0.25641903 0.12223572
0.2748444 0.057955388 0.18929067 0.060190935 0.12917198 0.032145087 0.08643088 0.2540607
0.19174075 0.043127697 0.22658408 0.068568654 0.09437777 0.24967493 0.21323171 0.2289131
0.19199054 0.13796394 0.13869922 0.3045338 0.19631717 0.17661476 0.06533217 0.14481905
0.12076887 0.21990235 0.10937279 0.23095442 0.046690553 0.20970343 0.12847966 0.15059978

layers.7.running_var f4 [64]
00000000: b9a3 333e e27a b83e ee23 633e 63fa 703e
00000010: a6d0 013e 7114 0b3e 11d6 623e 4125 0b3e
00000020: 81c1 863e f054 563e 931b 963e a12d d33e
00000030: 90c5 183e 5f1b d53d 103f 8a3e 7835 d73d
00000040: 528e 9a3e 0c07 5f3e 1588 2c3e 1f48 1b3e
00000050: 532c 743e e88f 223e 6f6d 633e fa8b 963e
00000060: 90c1 053e b9c9 8c3e 153c 483e ee2f d43e
00000070: 3efc c83d 8400 113e 22f2 523e 1503 8c3e
00000080: 4e6a 843e 6925 fa3d 8867 4c3e f57a 223e
00000090: 2a37 3d3e 591e aa3d af04 3b3e 13c9 813e
000000a0: 3a85 163e 7aa3 dc3d 5133 7d3e 4dcb 313e
000000b0: 3a1a 283e b6a0 a03e 7842 943e 0e93 5f3e
000000c0: a79f 8f3e 0afa 083e cc3f 3b3e 8f47 9a3e
000000d0: 9bc8 8e3e 7b68 313e f963 ed3d 983c 283e
000000e0: 0f55 423e 88df 873e 2288 2a3e 4fba a83e
000000f0: 00a6 103e 49a3 553e ace3 593e 76bb 603e
0.17542924 0.36031252 0.22181675 0.23533015 0.1267725 0.13582017 0.22151972 0.1358843
0.26319507 0.20930839 0.29317912 0.4124575 0.14919114 0.10405611 0.27001238 0.10508245
0.30186707 0.21780032 0.16848786 0.15164231 0.23845033 0.15875208 0.22209714 0.2940367
0.1306212 0.27497652 0.1955417 0.41442817 0.098137364 0.14160353 0.20600179 0.273461
0.25862354 0.12214167 0.19961369 0.15867217 0.18478075 0.083065696 0.18263505 0.2534872
0.1469926 0.10773368 0.24726607 0.1736271 0.16416255 0.31372613 0.28956962 0.2183344
0.28051493 0.13376632 0.18286055 0.3013272 0.27887425 0.17325012 0.11591334 0.16429365
0.1897776 0.26537728 0.16653493 0.32954642 0.14125824 0.2086307 0.21278256 0.2194651

layers.8.weight f4 [128, 64]
00000000: 34cc 60bd bc32 8f3d 23f4 97bd b61a a33d
00000010: d74e 8cbc 2d82 ea3d a55f a6bd c28a 893d
00000020: 3075 5a3d f09a 1f3c 044f e03d 4c97 adbd
00000030: 5994 cb3d 3d8f 8ebd cc71 433c b6ff bdbd
00000040: c1bf 6dbd e754 62bc 00bc 15bd 5eb8 9abd
00000050: de6d d23d a923 ac3d e6a0 18bd 678f b0bd
00000060: 9d60 883d 48f0 a33d 1d1d bb3d 8cd8 1abc
00000070: 4ac2 59bd e048 c23c c840 a7bb 1219 a93d
00000080: dd4f 023e 67f5 143d 3243 b23d d2c4 d0bc
00000090: 6b5e 66bd e7d9 023d 2d4a 873a c5b6 5a3d
000000a0: 11bc e63d e3dd a23c 3eb9 fe3d 2f57 b43b
000000b0: 7728 cabd fc99 563b 3643 30bd 16fd ab3d
000000c0: bfe5 8a3d cfc9 8e3d 29c8 803c 1404 c03d
000000d0: 668d b4bd 4bc1 e53c 67c1 51bd 2fdf d33c
000000e0: c8ca a1bd 498f db3d 2ddd d53d bf63 71bd
000000f0: 630d cfbc ad6e aa3d fcb4 2ebd 3efd f0ba
00000100: 8a68 98bd 14dd 52bd 76b9 8a3c 2b13 8a3c
00000110: 2d23 f8bd 8a63 dcbc aa91 a33d 334d b2bd
00000120: d3ba c23b f881 db3d 9926 a8bd f125 52bd
00000130: 8898 2e3d 4cd5 513d 3be1 b6bd 6d73 ba3d
00000140: 97ab ec3c f831 66bb 2e52 d4bd 70df 68ba
00000150: efcc e1bd 6334 173e a6ba 7b3d 9f3e 4d3d
00000160: 79cf 563d 03f5 febd 4423 02bd a095 d6bc
00000170: 62a7 82bd 0ef3 ec3d 4889 e83c 705d d13d
00000180: 49bd 9b3d 310c bdbc 6211 ce3d e1dc 203d
00000190: 22b6 3abd de84 113d 1c1f fcb9 40d7 a93d
000001a0: 1d42 b5bd 691a 813b 74cc 80bd 16f9 b4bd
000001b0: bf48 a83d c123 f2bd 014d df3d 5af7 8a3d
000001c0: 2f27 dbbd ce04 eb3b da97 39bb 0f8f 03be
000001d0: e6ad 20bd e343 8d3d 6e70 91bb 93a8 743d
000001e0: 78ea 3b3d 64ae fabd 4385 c93d f1c0 a53c
000001f0: 2ecf 493c 0c37 eabd 5942 b7bb f394 8a3d
00000200: f105 5d3c fcf7 853b 3481 c1bd 1f23 7fbc
00000210: 9393 ec3d 596f 87bc 718a 843c baa9 943d
00000220: 2c07 adbd 0a03 4dbd 3e0a 38bb 0b83 893d
00000230: ff0f efbd 447a 77bd 2e2f ee3d 9c09 4dbc
00000240: fc7e e53d a777 2a3c fd59 e7bd f633 b43d
00000250: 399a 98bd 5d3b 92bd 2384 94bd 0ac9 513d
00000260: 1878 8b3d df59 9b3d d521 a6bc 0709 b8bb
00000270: 4c4e 5ebd 770e a3bd 7d7e 083e 51de 94bd
00000280: e3cd 94bd d583 9a3d 748a bebd 8e27 78bd
00000290: 85da b5bd 9c1b 51bd 4024 a23d ea33 8ebc
000002a0: 986d 41bd 4fc3 ff39 2f3e d13d 27a7 44bd
000002b0: 5a9e 03bd 781a bdbd 49b1 2e3c fccb 0fbd
000002c0: 2541 29bd 056b fc3d 545c 0e3e 4498 b23d
000002d0: aa33 a0bd 89ee 233d ab1d d8bc bad0 97bc
000002e0: eb97 b33d 8117 bc3d d229 b83d 5717 833c
000002f0: 0c8b fb3c 9828 39bd f211 143c 9c06 823d
00000300: 7d71 3ebd ff26 cfbd 409d fb3d d196 e6bd
00000310: c46a 08bd 0358 ddbd a4e5 d73d fcdd e93d
00000320: 7b8a 193d 8136 40bd dc71 e1bd 3300 f2bc
00000330: 1ff9 9fbd f584 b0bc f00a 15bb 18cc da3d
00000340: 4d7a a4bd 77a1 fdbc 11a1 9e3d 324c c5bd
00000350: 8802 b93c 2038 e0bd ad63 4f3d b691 4c3c
00000360: 55e1 0ebd 160b cdbd 03e2 693d a9a4 0e3c
00000370: e3ee 27bd 40ee 023e 3999 b13d aa0c f4bc
00000380: 7f87 0dbd 50d6 e73c c883 ec38 0cb8 75bd
00000390: ea14 f1bc c9eb 713c 5be9 9ebd 67e3 a53d
000003a0: ddbc 5d3d f78c d8bd 9363 e7bd d5c5 fe3d
000003b0: d65e b63d 4274 1cbc c8cf ccbd 06de 4fbc
000003c0: 37c2 6d3d e087 8abd 2eb0 94bd 4982 e43c
000003d0: 7b45 5fbc 657c 733c 3c0f 2bbd 9dc0 d93d
000003e0: 3fef bebd 6245 803d 29d5 93bc 8863 ccbd
000003f0: 6044 2e3d d49b 873c fbb3 3dbd 19de a7bd
-0.054882243 0.06992099 -0.07419612 0.07964079 -0.017127438 0.1145061 -0.081237115 0.06715919
0.053334415 0.00974153 0.10952571 -0.08476123 0.099404044 -0.06960914 0.011928987 -0.092772886
-0.0580442 -0.013814188 -0.036556244 -0.075546965 0.10274862 0.08405239 -0.03726282 -0.08621102
0.066590525 0.080048144 0.09136412 -0.009451043 -0.053163804 0.02371639 -0.005104158 0.08256735
0.12725778 0.036366846 0.08704223 -0.025484476 -0.056242388 0.03194609 0.0010321789 0.05339696
0.112663396 0.019881194 0.12437676 0.005503557 -0.09870999 0.003274559 -0.043032847 0.08397882
0.06782102 0.06972086 0.015720444 0.09375778 -0.08816032 0.02804627 -0.051209833 0.025863258
-0.079000056 0.10720689 0.104425766 -0.058933016 -0.025274938 0.08321891 -0.04265307 -0.0018386019
-0.07441814 -0.051480368 0.016934138 0.016854843 -0.12116084 -0.026902933 0.079867676 -0.08706131
0.0059426813 0.10718149 -0.08210487 -0.051305715 0.042625934 0.051228806 -0.08929678 0.09104047
0.028890414 -0.0035124999 -0.10367237 -0.00088833924 -0.11025416 0.14766078 0.0614573 0.05010855
0.052443955 -0.12449076 -0.031771913 -0.026194394 -0.06379582 0.115697965 0.028385773 0.102229
0.07604463 -0.023077102 0.10061909 0.039273147 -0.04558385 0.035527103 -0.00048088364 0.08293009
-0.08850501 0.003939916 -0.06288996 -0.08836572 0.08217 -0.11823226 0.10903359 0.0678546
-0.10700833 0.0071722036 -0.002831927 -0.12847541 -0.039228342 0.06897714 -0.0044384515 0.059731077
0.045877904 -0.122402936 0.09839871 0.020233603 0.012317462 -0.114362806 -0.005592626 0.06766691
0.013490186 0.0040884 -0.09448472 -0.015572338 0.11551585 -0.016532587 0.016179295 0.07258935
-0.084486336 -0.050051726 -0.0028082277 0.067144476 -0.11672973 -0.060419336 0.116300926 -0.012514498
0.11205861 0.010404504 -0.11296461 0.08798973 -0.07451291 -0.07140229 -0.072517656 0.051217116
0.068100154 0.07585501 -0.020279804 -0.0056163105 -0.05427389 -0.07961743 0.13329501 -0.07268966
-0.07265832 0.07544676 -0.093037516 -0.060584597 -0.0887957 -0.05105172 0.079170704 -0.017358739
-0.047223657 0.00048782906 0.10216939 -0.04801097 -0.032133438 -0.09233564 0.010662385 -0.035106644
-0.041321892 0.123251 0.13902408 0.087204486 -0.07822354 0.040022407 -0.026381334 -0.018532146
0.087692104 0.091841705 0.089923516 0.01600234 0.030705951 -0.04520473 0.009037482 0.06348917
-0.04649495 -0.1011486 0.122858524 -0.11259235 -0.033304945 -0.108078025 0.10541847 0.11419293
0.03748558 -0.04692698 -0.11008045 -0.02954111 -0.07811188 -0.021547774 -0.0022742115 0.10683459
-0.080311395 -0.030960781 0.07745565 -0.09633674 0.022584215 -0.10948205 0.050632168 0.012485912
-0.034882862 -0.1001188 0.057100307 0.00870625 -0.040999305 0.12786198 0.08671803 -0.029791195
-0.034553047 0.028300434 0.00011277903 -0.059989974 -0.029428918 0.014765688 -0.07759353 0.08100014
0.054135192 -0.10573762 -0.11298289 0.12440077 0.08904807 -0.009549202 -0.10000569 -0.012687212
0.058046546 -0.06764197 -0.07260166 0.027894156 -0.013627405 0.014861201 -0.041762576 0.10632441
-0.09322976 0.06263234 -0.018045979 -0.099799216 0.042545676 0.016553797 -0.04631422 -0.08196659

layers.8.bias f4 [128]
00000000: e621 72bd 8a22 b2bd 2646 efbd e929 3fbd
00000010: ef15 bfbd ce5a bebb e334 c63d 8615 ebbd
00000020: 83fc 7eba fddd 743d c308 a7bd e947 e83d
00000030: cbe8 85bd f78e bd3d 0075 3b3d 4250 01be
00000040: eed6 ef3d f18d 7c3c 55dd cebd 5456 c33d
00000050: 0053 463d 082d 55bd 8731 da3d 76b7 c8bd
00000060: fe2e e5bd 9ac4 dabb dfce 97bd 8a22 dc3d
00000070: 00fb b8bc 198a 353d 6018 b3bd b61d 773d
00000080: 9a77 debd 830f a83d f7c8 89bc 407e a73d
00000090: 55a8 8dbc d7b2 1bba 2012 44bc 3c34 27bd
000000a0: 9583 f4bd dac1 ba3a 7251 9a3b f885 3dbd
000000b0: 7f4d 6d3d 2b90 b93d 648e 813d 6ef7 90bd
000000c0: 9734 233d 8ccc 613d 4db9 21bd 1ab3 ca3d
000000d0: a567 bc3d 85eb fbbc 976d e73c 0428 a33d
000000e0: 44d2 be3a c084 583d 9a9d 7ebd 553b 68bd
000000f0: 777c c33d 2e85 6d3d 7d6f 25bd d40a fabd
00000100: 33ac 503d 726b 503d 0744 023e 11b5 c6bb
00000110: 439a 743d bea4 be3d d4fa b33c b9c1 a0bd
00000120: 9aa2 5bba 1ff9 03bd 49f0 22bc c3f9 b6bd
00000130: 223f 923d ea5e 55bd b8cc 6bbc 6602 87bc
00000140: e52c c5bb db3c fe3d 780a 403d 0dac c13c
00000150: 1cb9 bcbc 717c f1bd 31ca 993d 5403 0d3e
00000160: 6cca acbd 91db a7bd 1d5a 3c3c 3b81 a73d
00000170: 9225 a1bd 7710 793b 5d9e 20bd ca39 f2bc
00000180: 50db b8bd bec0 b9bd 2ee1 983b 5fdd 6a3c
00000190: 8c63 cdbd 2857 41bc 91b2 7fbd 8415 4ebd
000001a0: fe73 e4ba 59b1 b73c f901 203d f2f7 b93d
000001b0: 48ac e03d ee3b f63d 6e94 593d 0d9d c2bd
000001c0: 13ac 863d 8c87 62bd a4ab a63d b6a8 923d
000001d0: 29cb 21bc 8e84 913d 7b5d c03d 2c8b acbd
000001e0: 50cf b03d 2966 d63c 5f3f 6f3b 00ce ebbd
000001f0: 452e aabd 2723 533b be17 523c a1a9 c4bd
-0.05911436 -0.08697994 -0.11683302 -0.046670828 -0.093303554 -0.0058091646 0.09678056 -0.11478715
-0.0009726958 0.059782017 -0.08155968 0.11341841 -0.06538542 0.09255784 0.045765877 -0.12628272
0.117109165 0.015414701 -0.101008095 0.0953795 0.048419 -0.0520449 0.10653978 -0.098006174
-0.11190604 -0.0066762688 -0.074125044 0.10748775 -0.022580624 0.044321153 -0.087448835 0.06033107
-0.10862656 0.082060836 -0.01681946 0.08178377 -0.017292181 -0.000593943 -0.011967212 -0.0408213
-0.1193916 0.0014248446 0.004709416 -0.04627034 0.057935234 0.09060701 0.06325987 -0.070784435
0.039845075 0.05512671 -0.039483357 0.09897442 0.09199456 -0.030751953 0.028250499 0.07966617
0.0014558514 0.052860975 -0.06216202 -0.05669721 0.09545224 0.05798834 -0.040389527 -0.122090966
0.050945472 0.050883718 0.12721263 -0.0060640653 0.059717428 0.09308766 0.02197019 -0.0784945
-0.00083784165 -0.032220002 -0.009944984 -0.08934357 0.07140948 -0.05209247 -0.0143920705 -0.016480636
-0.0060173147 0.12413951 0.046884984 0.02364161 -0.023037486 -0.117913134 0.07509268 0.13770801
-0.084370464 -0.08196176 0.011496094 0.08178946 -0.07868494 0.0038004199 -0.039213527 -0.029568572
-0.090262055 -0.09069966 0.0046655154 0.014335006 -0.10028753 -0.011800565 -0.062426154 -0.050313488
-0.0017429588 0.022423433 0.03906438 0.09080495 0.1097036 0.120231494 0.05312007 -0.09502611
0.06575789 -0.05530505 0.081382066 0.07161085 -0.009875097 0.07105361 0.0939283 -0.084249824
0.08633292 0.02617176 0.0036506278 -0.11513901 -0.083096065 0.0032216997 0.012823043 -0.09602667

layers.11.weight f4 [128]
00000000: e898 7b3f 2a16 833f b547 7f3f 2c11 7f3f
00000010: 9667 7c3f 0c09 823f f3e1 803f 17a2 803f
00000020: e96e 7c3f 46bc 803f 74d6 7f3f e962 7a3f
00000030: 78a2 853f d00c 7d3f fac1 7f3f e761 813f
00000040: 8d48 793f dbe6 803f 6c0e 813f 4752 7a3f
00000050: 21cf 793f a342 7e3f adaa 813f f9eb 803f
00000060: c729 843f 1838 7a3f b8b7 793f c86d 813f
00000070: 0579 7e3f 21ab 803f 27fd 7c3f e83c 7f3f
00000080: 291b 7f3f 774e 7f3f e5be 7f3f 0817 7f3f
00000090: b9b0 813f 1f6a 813f 6b0c 833f 0c9c 803f
000000a0: 9e17 7e3f 8103 803f 7cfe 7d3f 0b88 7d3f
000000b0: 0ebb 7e3f 7ff7 803f 023f 7e3f 3e5f 843f
000000c0: e6b7 803f b468 813f 0e37 7e3f 78d4 7e3f
000000d0: 7e0d 7c3f d7a6 823f 6d7e 803f 63c9 853f
000000e0: ecab 7a3f 26b2 7c3f d8d4 763f a9ee 803f
000000f0: 574e 7e3f 96c1 7e3f 40e6 7c3f 3fca 793f
00000100: e252 7b3f 5a59 803f 1151 833f 1c64 803f
00000110: fcd3 783f b74a 803f 1409 7c3f f4e5 803f
00000120: a324 803f c9fb 7f3f 8e99 813f e3e5 803f
00000130: 6ea1 7f3f 36b5 7d3f 5455 803f e95d 7a3f
00000140: dbe5 833f 055c 7d3f bcbc 7e3f aba0 7e3f
00000150: 7a4b 7f3f 5995 803f 764c 7e3f 9c61 803f
00000160: 8c3b 7e3f 9a9f 7f3f 324c 7c3f 2553 7c3f
00000170: 09ae 833f ced0 803f de94 7d3f ff00 763f
00000180: 9ccb 833f dc5d 823f a6df 7c3f 3ba0 813f
00000190: e332 803f cdf7 7b3f df78 7e3f 89a6 803f
000001a0: e93d 813f d65e 813f 5680 803f 9144 7b3f
000001b0: 9171 7d3f e9c3 833f 5c34 803f 0a44 7a3f
000001c0: e33a 7a3f 2e7f 7c3f 0c9a 7c3f 61fe 803f
000001d0: 204a 813f 50bc 7a3f 535d 7f3f 3c1f 7e3f
000001e0: 2963 7d3f 9867 7f3f 782b 843f c7ce 7d3f
000001f0: 585e 7d3f 83d0 803f 3612 783f 3882 773f
0.9828019 1.0241139 0.9971879 0.9963558 0.9859556 1.0159011 1.0068954 1.0049466
0.98606735 1.0057456 0.99936604 0.97807175 1.0440207 0.98847675 0.9990536 1.0108002
0.9737633 1.0070451 1.0082526 0.97781795 0.9758168 0.9932043 1.0130211 1.0072013
1.032525 0.9774184 0.9754596 1.0111628 0.9940341 1.0052224 0.9882378 0.9970231
0.9965082 0.997291 0.99900657 0.9964452 1.0132056 1.011051 1.0238165 1.0047622
0.99254787 1.0001069 0.9921644 0.9903571 0.9950417 1.007553 0.9931489 1.0341566
1.0056121 1.0110078 0.99302757 0.9954295 0.9845809 1.0207165 1.0038582 1.0452083
0.9791858 0.9870933 0.96418524 1.0072833 0.9933829 0.9951414 0.98788834 0.9757423
0.98173344 1.0027268 1.0259115 1.0030551 0.9719846 1.0022801 0.9845135 1.0070176
1.0011181 0.9999357 1.0124986 1.0070156 0.998557 0.9910463 1.002604 0.97799546
1.0304521 0.98968536 0.99506736 0.9946391 0.99724543 1.0045577 0.9933542 1.0029788
0.9930961 0.9985291 0.98553765 0.9856437 1.0287486 1.0063722 0.9905528 0.9609527
1.0296512 1.0184894 0.9877876 1.0127023 1.0015529 0.9842499 0.99403185 1.0050822
1.0097018 1.0107067 1.0039165 0.981515 0.99001414 1.0294162 1.0015979 0.9776007
0.97746104 0.9863156 0.98672557 1.007763 1.0100746 0.9794359 0.99751776 0.9926641
0.9897943 0.99767447 1.0325766 0.9914364 0.9897208 1.0063633 0.9690279 0.96683073

layers.11.bias f4 [128]
00000000: 9f4d 6b3c 7ad9 fb3b b942 0a3d 869b 1fbd
00000010: d7b4 c53b 9006 c13c 2ef3 763a 4e07 ac3c
00000020: 3567 f33b cf25 873c a2fb 99bc 23a3 df3c
00000030: 59a9 93bc 84e5 1bbc d3b2 8e3a f367 72bc
00000040: 810c 903c 8042 183c ff56 6abc a75a 2fbc
00000050: 9266 da3c fb52 d6bc 3a0d f8bb 0d99 b0bc
00000060: a79c b2ba 0db9 5f3c 9ef4 b0ba b89f a2bc
00000070: 2e0d 683c 1065 453b b3a3 5cba 902a 9dbc
00000080: 8079 c2bb 254f 91bb 651d 18bc 5c6a 11bc
00000090: 2c34 6fbb 28b1 443b bde6 92ba 7b94 bbbb
000000a0: 6141 643a b6e0 31bc de0c 173d 327e 39bc
000000b0: 1556 1abb 69dd f03c 0459 393b f735 eebc
000000c0: c45a ccb9 9092 163b ead8 e539 4280 58bc
000000d0: 8d5c ca3b 6f2f cbbc e754 82bc 51ae 8ebc
000000e0: c8e3 c039 a03f 51bc 4056 43bc d5a1 0d3a
000000f0: 8de5 963c 3458 903c 4d08 6a3c 93f4 e6ba
00000100: ea25 1a3c 7b65 c5bc 671a 973c c01a afbc
00000110: e82e a43a db72 523c f99d 40bc 787f 7b3b
00000120: 8c7a 153c c2ef 1b3c 8977 6cbb d901 df3b
00000130: 0df5 393b d604 9d3b 0657 333b 607b 24bc
00000140: d7b1 cbbc af52 053c 51f6 b93c 0f38 c33c
00000150: 0708 95bc e34a 773c 9cfc dcbc bbcc fe3c
00000160: 5336 823a c869 98bc 5a86 c93b 76ac 63bb
00000170: d4e9 2fbc 6bd0 7ebb fdf1 913b c973 92bb
00000180: ffe7 8b3c 0770 cc3c a569 7fbc 1eb8 bebc
00000190: be48 0cbd 56bc 7a39 aeb8 863b 01b2 133b
000001a0: 079b ef3b aa74 7abc 99c1 1b3b a491 353c
000001b0: 8396 733b 0ca2 3a3a 3d8b a13c 065f 5a3c
000001c0: 0d99 383c 0f73 483b f0b9 c73c d4db 943c
000001d0: 8194 48bc 96e6 993c 6ebf 32bb d382 f3ba
000001e0: 06c5 76bc bbba f5bc dc55 82bc 86e8 e43c
000001f0: 2262 a1bc 1bd2 bdbc 0823 ae3b 7746 94bc
0.014361768 0.0076858373 0.033755038 -0.038966678 0.0060335207 0.0235627 0.0009420392 0.020999577
0.0074280747 0.01649752 -0.018796746 0.02729947 -0.018025087 -0.00951517 0.0010887034 -0.014795291
0.017584087 0.009293199 -0.014302968 -0.010702766 0.026660237 -0.026162615 -0.007569936 -0.021557355
-0.0013627008 0.013654959 -0.0013500636 -0.01985155 0.0141632985 0.0030120052 -0.0008416727 -0.019185334
-0.005934894 -0.0044344836 -0.009284352 -0.008875456 -0.0036499603 0.003001282 -0.0011207681 -0.0057244874
0.0008707252 -0.010856798 0.036877505 -0.011321591 -0.0023549844 0.029402452 0.0028281817 -0.029078467
-0.00038977538 0.0022975542 0.00043839897 -0.013214173 0.0061755837 -0.024802892 -0.015909625 -0.017417105
0.00036790804 -0.012771517 -0.011922419 0.0005402838 0.018420005 0.017620184 0.014284206 -0.0017620496
0.0094084535 -0.024096241 0.018445207 -0.02137506 0.0012526186 0.0128447665 -0.011756414 0.0038375538
0.009123456 0.009517612 -0.003608199 0.00680564 0.0028374821 0.0047918363 0.0027365102 -0.0100391805
-0.024865074 0.008137389 0.02270046 0.023830442 -0.018192304 0.015093538 -0.026975922 0.031103482
0.0009934403 -0.018605128 0.006150049 -0.0034740246 -0.010736901 -0.003888155 0.004453896 -0.004469369
0.017078398 0.024955763 -0.015589152 -0.023281153 -0.03424906 0.00023912019 0.004111371 0.0022536519
0.007312182 -0.015286604 0.0023766516 0.011082087 0.003716857 0.0007119484 0.019719714 0.013328319
0.011266959 0.0030586158 0.024380654 0.018171228 -0.012242437 0.01878671 -0.0027274746 -0.0018578417
-0.0150616225 -0.029996267 -0.015910082 0.027942907 -0.019700114 -0.023171475 0.0053142346 -0.018100007

layers.11.running_mean f4 [128]
00000000: 5619 ef3d 0892 223e 9ee9 c13d 79b5 2f3e
00000010: a319 9f3d 9675 563e 6bab 563e 1862 af3d
00000020: b430 573e 3ea3 7f3e 9568 e33d 1da6 7f3e
00000030: 1858 173e 5cd9 5d3e d2d7 343e 2ab4 c83d
00000040: c019 5a3e 7d96 4a3e 5b24 e03d da01 783e
00000050: 84db 5c3e d7aa d23d be1b 7a3e 1352 c83d
00000060: d1ee 023e 94fa 2b3e fd2b 1e3e 78b3 893e
00000070: 25ba 163e b5ba 413e 3a1d d63d 2f11 243e
00000080: 00c2 083e 3305 5e3e 0aa6 2c3e 7680 483e
00000090: 9363 133e c8ae 053e 4335 1c3e 8651 103e
000000a0: 2c4f c33d 0fa5 0d3e 326e 4d3e 72ac c23d
000000b0: cad3 443e a88c 683e 9914 3d3e a873 ff3d
000000c0: d8b7 733e 94d7 303e 878d 3a3e e5a6 633e
000000d0: d232 673e 8b3c 4c3e 2381 403e 97ed 683e
000000e0: 189a 723e 2ba7 483e 89ed c33d 16b3 363e
000000f0: a3dd 303e 948d 593e 5659 ea3d 4f2e ce3d
00000100: e73d 4d3e 447b 8f3e 1f11 8a3e beb5 143e
00000110: f699 553e afc7 483e f92a 3e3e bbf4 4a3e
00000120: c897 673e 4241 633e 7bea 203e 54aa c23d
00000130: c6c6 6d3e 0b0c ff3d 23c7 413e 113f 573e
00000140: e2cb 863e 3e66 883e 2cda 233e 6a69 5a3e
00000150: fd10 4e3e b7d0 b33d 3629 813e d21d 743e
00000160: 5d58 ff3d 637a 043e 628a 243e 2f8b 393e
00000170: ba3c 003e 3e83 2b3e 0535 a03d 2d66 043e
00000180: 30a3 223e 17c2 0a3e 33ee 533e 9ec9 913e
00000190: bc60 cf3d e4f0 193e 1309 fc3d cb4f 1f3e
000001a0: e776 1a3e 8254 2d3e 3748 413e c12a 533e
000001b0: 4d06 793e 6809 853e ff75 803e f1d8 ef3d
000001c0: ca09 4d3e 6fd0 1a3e 85e6 8d3e 396a 8f3e
000001d0: 8301 233e b12b 843e c4b9 643e c8ab 193e
000001e0: 00ad 633e 32dd 543e e0ca 303e 1705 8a3d
000001f0: 64f3 be3d 3d3e 0a3e 911c 383e bcfd fe3d
0.11674754 0.15876019 0.09468387 0.1715907 0.07768562 0.20943293 0.20963828 0.08563632
0.21014673 0.24964616 0.11103932 0.24965711 0.14779699 0.21664947 0.17660454 0.097999886
0.21298885 0.19783969 0.10944434 0.24219456 0.21568114 0.10286491 0.24424645 0.097812794
0.12786414 0.16794807 0.15446468 0.26894736 0.14719446 0.1891888 0.10454793 0.1602218
0.13355255 0.21681671 0.16860214 0.19580254 0.14393453 0.13054955 0.15254693 0.14093599
0.09536585 0.13832496 0.20061567 0.095055476 0.19221416 0.22709906 0.18464889 0.124732316
0.238006 0.17269737 0.18218051 0.22231634 0.2257798 0.1994497 0.18799262 0.22746883
0.23691595 0.1959502 0.095667906 0.17841753 0.17272048 0.21245414 0.11442821 0.100674264
0.20043145 0.28023732 0.26966187 0.14522454 0.20859513 0.19607423 0.1857108 0.1981992
0.22616494 0.22192863 0.15714447 0.09505144 0.23220357 0.12453469 0.18923621 0.21020152
0.26327425 0.26640505 0.16001195 0.21329275 0.20123668 0.087800436 0.25226754 0.238395
0.12468026 0.12937312 0.16068414 0.181195 0.12523165 0.16749284 0.07822613 0.12929602
0.15882564 0.13550602 0.20696335 0.28474134 0.101258725 0.15033299 0.12306418 0.15557782
0.1508442 0.16926768 0.18875204 0.20621778 0.2431881 0.2598374 0.25090024 0.117113
0.20023265 0.15118574 0.27714935 0.2801073 0.15918545 0.25814584 0.22336489 0.15006936
0.22233963 0.20787504 0.1726489 0.06739252 0.09323767 0.13500305 0.17979647 0.1245074

layers.11.running_var f4 [128]
00000000: c0ad 173e f7b3 b73e bc18 4d3e 9d64 933e
00000010: 1bff 103e 15a2 993e 99cf 213e 9c1a 3e3e
00000020: fa72 973e 0ac0 cc3e 1450 553e 86aa 6a3e
00000030: 7cf5 9c3e 3e98 533e a5dd 5c3e 4f81 6d3e
00000040: 35af 373e 2417 943e 5a56 803e e7eb 973e
00000050: 50a8 a63e 8cfe fb3d 6c4c 9c3e 8709 2f3e
00000060: 3676 993e b0c8 7b3e 0e53 833e cda7 933e
00000070: a0de 4f3e 4d35 3b3e 9bf2 273e c73b 0a3e
00000080: 1f74 913e 07a4 913e 697a 803e e92c 353e
00000090: f690 3d3e f607 0d3e fb16 503e 8074 443e
000000a0: 2c27 413e ca4b 3f3e 8503 ac3e d208 eb3d
000000b0: 922e 663e ac71 893e 6bc8 3e3e 3ae5 5c3e
000000c0: 3653 a03e f1b8 1d3e 3bad 923e 63b1 863e
000000d0: c443 7f3e 7080 d73e aa68 673e c605 853e
000000e0: 47e1 c63e 1861 663e c92b d93d bd30 b03e
000000f0: 7382 1b3e a547 693e 41b5 1c3e 756b 843e
00000100: e4d3 443e 2d3c f03e f077 943e a780 303e
00000110: 4657 703e 755d 333e 5b78 823e 488d cb3e
00000120: 41a0 d53e 652d da3e 7591 713e d324 1c3e
00000130: af05 753e d5c4 413e b67a 9b3e ad36 b93e
00000140: 537c 1e3f 5f8a 8b3e 44ef 1d3e dec6 903e
00000150: 6317 c03e d9a7 4c3e ea0b a33e 7a90 323e
00000160: 0268 563e 97cf 8a3e 6ec4 4f3e 24b2 1c3e
00000170: 7156 5c3e 9d21 5d3e b740 943d e4bf 233e
00000180: 05fb a73e 93f3 773e 7f23 bb3e 9e6e 073f
00000190: 00ff 583e cdc2 363e 98f6 383e e818 843e
000001a0: 0748 593e 8b07 5c3e b5cf 6d3e 17e6 353e
000001b0: bea9 713e cde8 913e 4eab d73e 4d1a 5c3e
000001c0: fd5e 413e 9b93 8f3e 2007 bb3e f0b9 d83e
000001d0: fbce 833e 185f a03e 6623 733e 1b9b 9e3e
000001e0: b0ce 5e3e 031a 733e 060f 683e 80f0 e43d
000001f0: 8526 2c3e ac97 103e 4030 5b3e d4d1 883e
0.14812374 0.3587949 0.20028967 0.287877 0.14159815 0.3000647 0.15801848 0.18564838
0.29579908 0.39990264 0.20831329 0.22916612 0.3065604 0.20663545 0.21568926 0.23193859
0.1793793 0.28923905 0.2506588 0.29672167 0.32550287 0.1230441 0.30527055 0.17093478
0.29973 0.24588275 0.25649303 0.2883896 0.20299768 0.18282051 0.1640114 0.13499366
0.28408906 0.28445455 0.25093392 0.17692913 0.1851233 0.13772568 0.20321266 0.19185066
0.18862599 0.18681255 0.33596435 0.11476292 0.22478703 0.26844537 0.18631141 0.21571818
0.31313485 0.15402581 0.2864779 0.2630721 0.24928194 0.42090178 0.2259852 0.25980967
0.38843748 0.22497976 0.106040545 0.34412184 0.15186481 0.22781236 0.15303518 0.25863233
0.19221455 0.4692091 0.28997755 0.17236577 0.23470792 0.1751612 0.2548245 0.39756227
0.41723827 0.42612758 0.23590644 0.15248422 0.2392795 0.18922742 0.3036706 0.36174527
0.61908454 0.27254006 0.15423304 0.28276724 0.37517843 0.19985904 0.31845027 0.17437926
0.20938113 0.27111503 0.20289776 0.1530233 0.2151735 0.21594854 0.07238906 0.15991169
0.328087 0.2421401 0.3655052 0.52903163 0.21191025 0.17847748 0.18062818 0.25800252
0.21218883 0.21487252 0.23223765 0.17763554 0.23599908 0.28497925 0.42122883 0.21494408
0.18883891 0.28042302 0.36528873 0.4232936 0.2574385 0.3132255 0.23743972 0.3097771
0.21758533 0.23740391 0.22661981 0.11178684 0.16811569 0.14120358 0.21405125 0.26722586
