cushion/h2_cushion_rom.pt (torch, 377131 bytes, 26 tensors)

layers.0.weight f4 [300, 12]
-0.16924414 -0.70518076 0.2719654 0.0629125 0.033209138 0.024160154 0.03788502 0.10504249
-0.2081835 0.04726994 -0.12166453 0.17734177 -0.21167208 0.039865345 0.030890813 -0.6159869
0.016511822 -0.14971906 0.13331994 -0.2300537 0.25053537 0.2822193 -0.004630882 0.09718643
0.032381076 0.2650888 0.072816 0.14550662 -0.28891873 -0.03520822 0.46035144 0.111894526
-0.34859386 0.06908813 0.07406997 0.1652578 -0.025012504 -0.017547432 0.014445123 -0.02156828
-0.004187364 1.1225311e-05 -0.07862684 -0.027702678 0.11529582 -0.14506516 -0.0015808304 -1.1402022
-0.749496 0.2252947 0.21599098 -0.1639472 -0.19230983 0.2075881 0.07448376 0.2012928
0.040989373 -0.10054585 0.08046413 0.08903376 -0.27082342 0.21131997 0.5913047 -0.43154752
0.12642875 0.08486732 -0.15375072 0.005906246 0.08856287 0.004959911 -0.02619034 0.22031373
-0.046950992 -0.05882895 -0.16814172 0.08210159 0.05134471 0.071821645 -0.21633618 -0.039058182
-0.6550075 -0.04777503 -0.15640749 -0.12865743 0.12877168 -0.18138918 0.24091655 -0.21269685
0.08012856 -0.05627786 -0.79991287 -0.107774265 0.03329291 0.061662883 0.12139313 0.03433678
0.1526059 -0.10799718 0.3691425 0.20613323 0.02445601 -0.13940121 -0.45628884 0.0900006
-0.37428162 0.2457537 -0.08596065 -0.18963042 0.02306094 -0.038403824 0.024598567 0.008918233
0.0020624448 -0.017914992 -0.052178957 9.853901e-05 0.13586044 0.096119344 0.04434406 -1.2825688
0.0520455 -0.02774281 -0.009947428 -0.015919192 -0.047267456 -0.0065127197 -0.09477957 -0.07021341
0.055683486 0.054234147 -0.87346697 -0.26830325 -0.0762985 -0.17922099 -0.12636566 -0.4641559
0.15769276 0.33752176 0.31766585 0.13159865 -0.14378998 0.21414363 -0.0109211905 0.1203601
-0.13080128 -0.03578974 -0.008252515 0.007509072 0.02989669 -0.023170805 0.0045417827 0.039456505
0.07811073 -0.2813428 0.55475307 -0.32296708 -0.078655705 0.082428396 0.044616364 0.121886164
0.42249337 -0.016907588 0.3179552 0.026090212 0.26831898 0.030284822 -0.114525855 0.13204361
0.036476545 -0.03430198 0.037350815 -0.0099677285 0.024445586 0.017083138 0.033634555 0.014823588
0.06102164 -0.23126057 -0.017070176 -1.3025148 -0.06967605 -0.021777198 -0.035531 0.021099815
0.033293914 -0.0022906673 -0.050206557 -0.0238744 -0.70071924 -0.13913384 0.31810987 -0.31078577
-0.3611053 0.24326308 -0.08444999 0.18844841 0.14557652 0.06547323 -0.62415576 0.15545556
-0.044842053 -0.07506356 -0.081840396 0.08998545 -0.22907579 0.23836198 0.3609587 -0.12818985
-0.019519446 -0.03320981 0.3220117 0.29249465 0.16799104 0.21107131 0.069571726 0.20347394
0.40974876 0.23744059 -0.32412803 0.12133354 0.057772398 -0.118823044 0.13393874 0.02328692
0.38556615 -0.021936059 -0.13827321 0.07039854 0.21948498 -0.29560766 -0.19156183 0.3923169
0.027775092 -0.05537369 -0.12020758 -0.28667197 0.30505994 -0.17830199 -0.21716169 0.3177874
0.10824654 -0.19180298 0.2607405 -0.6942219 -0.13905492 0.025719335 -0.010588929 0.05399825
0.15346488 0.047555894 0.07324566 0.25195888 0.21133535 -0.05539942 0.29985484 0.010711612
00000000: 564e 2dbe ba86 34bf 0d3f 8b3e 45d8 803d
00000010: 4e06 083d 84eb c53c 532d 1b3d 8420 d73d
00000020: 0e2e 55be 209e 413d 412b f9bd 1599 353e
00000030: 91c0 58be d849 233d bb0e fd3c 51b1 1dbf
00000040: cd43 873c f44f 19be 0685 083e 3293 6bbe
00000050: 2c46 803e 0c7f 903e a7be 97bb ae09 c73d
00000060: 05a2 043d b8b9 873e 8e20 953d b0ff 143e
00000070: 28ed 93be 7f36 10bd 2fb3 eb3e f528 e53d
00000080: e57a b2be 147e 8d3d ffb1 973d 5739 293e
00000090: 06e7 ccbc a2bf 8fbc 3dab 6c3c f6af b0bc
000000a0: 2836 89bb 5854 3c37 1c07 a1bd baf0 e2bc
000000b0: 3720 ec3d f68b 14be de33 cfba 25f2 91bf
000000c0: f8de 3fbf a7b3 663e bd2c 5d3e c6e1 27be
000000d0: deec 44be fa91 543e f18a 983d b31f 4e3e
000000e0: 79e4 273d fcea cdbd 61ca a43d 5557 b63d
000000f0: 5ea9 8abe 4364 583e bf5f 173f ccf3 dcbe
00000100: 8a76 013e ebce ad3d d470 1dbe 2f89 c13b
00000110: 7360 b53d c086 a23b 208d d6bc ec99 613e
00000120: af4f 40bd a0f6 70bd 582d 2cbe e124 a83d
00000130: d54e 523d 3a17 933d 3b87 5dbe 79fb 1fbd
00000140: 92ae 27bf c0af 43bd 4929 20be c6be 03be
00000150: b9dc 033e 16be 39be d4b2 763e 34cd 59be
00000160: 711a a43d 9d83 66bd 17c7 4cbf c1b8 dcbd
00000170: 255e 083d 3892 7c3d f69c f83d b9a4 0c3d
00000180: b944 1c3e a02d ddbd 3f00 bd3e 9714 533e
00000190: f857 c83c 31bf 0ebe b19e e9be 3c52 b83d
000001a0: d7a1 bfbe dca6 7b3e 230c b0bd 7a2e 42be
000001b0: 4cea bc3c 544d 1dbd ef82 c93c c81d 123c
000001c0: 152a 073b 76c2 92bc 9ab9 55bd baa6 ce38
000001d0: 001f 0b3e 38da c43d 1ea2 353d 372b a4bf
000001e0: aa2d 553d e444 e3bc 89fa 22bc f768 82bc
000001f0: 859b 41bd a768 d5bb cb1b c2bd 0ccc 8fbd
00000200: 5e14 643d a024 5e3d 889b 5fbf 0b5f 89be
00000210: 6342 9cbd b585 37be 0066 01be d8a5 edbe
00000220: 367a 213e a7cf ac3e 19a5 a23e ccc1 063e
00000230: ae3d 13be 7848 5b3e cbee 32bc 5b7f f63d
00000240: c5f0 05be 4398 12bd 8f35 07bc a90e f63b
00000250: e7e9 f43c b3d0 bdbc 3cd3 943b 259d 213d
00000260: 85f8 9f3d 2a0c 90be 4c04 0e3f f15b a5be
00000270: 3e16 a1bd 38d0 a83d a6bf 363d 749f f93d
00000280: 0d51 d83e c881 8abc 06cb a23e 24bb d53c
00000290: 1b61 893e e017 f83c 888c eabd 7136 073e
000002a0: 6e68 153d 3c80 0cbd 2bfd 183d af4f 23bc
000002b0: 1c42 c83c f0f1 8b3c 63c4 093d a2de 723c
000002c0: d4f1 793d 92cf 6cbe c1d6 8bbc ceb8 a6bf
000002d0: 51b2 8ebd 1866 b2bc f488 11bd 85d9 ac3c
000002e0: 335f 083d 051f 16bb 64a5 4dbd 3f94 c3bc
000002f0: 5662 33bf 1a79 0ebe 4cdf a23e 501f 9fbe
00000300: cbe2 b8be f519 793e 1ef4 acbd 9ff8 403e
00000310: 0312 153e d416 863d acc8 1fbf be2f 1f3e
00000320: 4dac 37bd ecba 99bd f09b a7bd 4b4a b83d
00000330: d892 6abe 2a15 743e 94cf b83e 3344 03be
00000340: 3fe7 9fbc 0207 08bd b8de a43e dcc1 953e
00000350: d805 2c3e 1423 583e 9f7b 8e3d 795b 503e
00000360: 97ca d13e a023 733e 1cf4 a5be b87d f83d
00000370: c0a2 6c3d 7f59 f3bd 3d27 093e 36c4 be3c
00000380: ed68 c53e 40b3 b3bc 7e97 0dbe 1c2d 903d
00000390: acc0 603e e359 97be c928 44be c3dd c83e
000003a0: 9788 e33c 86cf 62bd 642f f6bd abc6 92be
000003b0: d130 9c3e cc94 36be a25f 5ebe 08b5 a23e
000003c0: 5db0 dd3d 0068 44be c77f 853e 87b8 31bf
000003d0: 6a64 0ebe 5bb1 d23c 307d 2dbc 452d 5d3d
000003e0: e625 1d3e f8c9 423d d201 963d c100 813e
000003f0: 4b68 583e 81ea 62bd 9386 993e c27f 2f3c

layers.0.bias f4 [300]
0.13552265 0.2924668 -0.39015228 0.14320554 -0.19244978 -0.25162527 0.47472584 0.16332917
0.09754697 0.046271916 0.24737754 0.00061693485 -0.20468117 -0.62691885 0.050453365 0.22071777
-0.026729675 -0.5631225 -0.4133134 0.043660354 -0.048025135 -0.33225256 -0.54244965 -0.23269294
-0.6175684 0.27640396 0.11343052 -0.053366136 0.28998154 0.40490577 -0.32194307 0.16042037
-0.27085277 0.08645234 0.07345701 -0.21343149 -0.15075612 0.018297458 0.3585155 0.012960976
0.11560425 0.12214053 -0.10031478 -0.016156588 -0.058462217 -0.0016282756 0.25058776 0.22854741
-0.26880217 0.023848275 -0.36316952 -0.12162141 0.09325407 -0.1078447 -0.07096384 -0.17071405
-0.19853932 -0.34239438 0.070006594 -0.023895364 -0.11721319 -0.51113814 0.06827287 -0.13557212
0.38641798 0.21561405 -0.5788017 0.17362681 0.29964644 -0.060929436 0.13269609 -0.43501812
-0.07433113 -0.120018706 -0.064152166 -0.50423396 -0.21717924 0.27288106 -0.35105464 0.15555431
-0.45819896 0.25969884 -0.3092946 -0.009180405 -0.03317337 -0.19370477 -0.09503932 -0.13568814
-0.430375 0.10937402 0.17810924 0.039507765 0.40150222 -0.20742936 0.20591597 0.20536873
-0.095550634 -0.028760998 0.04630205 0.013914244 -0.0658176 0.116391085 -0.30611274 -0.26285115
0.014620557 -0.47085276 0.16977334 -0.1697625 -0.32205862 -0.2637013 -0.24723059 -0.45350423
0.103425734 -0.5108431 -0.1545122 -0.11056717 0.022254556 0.31341222 -0.18097684 -0.08299792
0.041747324 0.14895074 0.020586351 -0.49052927 0.18312317 0.11355289 0.012091886 0.08491171
0.17953393 -0.01748265 0.36027056 -0.16842644 0.12151359 0.34178153 0.007515539 -0.010290971
0.18435462 0.045625877 -0.0018209978 0.16190922 0.061694648 0.14863898 0.2846766 -0.053346112
0.31995198 -0.46795037 0.2502392 -0.057805017 0.043695357 0.09311332 -0.6454732 -0.045019973
0.25467882 -0.18466134 0.17880163 0.086579904 -0.0026751217 0.24078125 0.23382795 -0.38253552
0.017529903 0.1555245 -0.54741955 0.15259895 0.1717404 -0.23239519 -0.051174216 -0.063677184
-0.3990508 -0.52320534 0.023728795 -0.01476811 -0.10884642 -0.16596837 -0.24024276 0.23698774
-0.08042015 0.3519647 -0.08821818 -0.0741332 0.10562621 -0.17631127 0.15805033 -0.30323428
-0.009144451 -0.5114353 -0.0632217 -0.28402415 0.2742667 0.08283491 -0.1105234 0.10927306
0.057162087 0.14693959 0.1680874 0.20745277 -0.032631937 -0.09791929 -0.16945302 0.039462656
-0.5913349 -0.44935888 -0.24369298 -0.46001545 -0.476596 -0.36533034 -0.16432208 -0.20694345
-0.017882839 -0.13634014 -0.04039353 0.10007358 -0.04989673 0.042594466 -0.39806366 0.36319038
0.1798443 0.0908359 -0.24033661 -0.0006602535 -0.15854338 0.266891 -0.03669949 -0.3667701
-0.20230578 0.13718116 -0.23463254 -0.29845858 0.121488646 -0.272147 0.21512349 0.3921109
0.29162386 -0.015985802 0.05886504 0.10339741 -0.5060615 -0.22016184 -0.089585744 0.4116859
0.13180125 -0.15353979 -0.6910194 0.34660992 0.051035073 0.16105917 0.3427561 -0.10369718
0.09774283 0.1850934 0.3213017 0.3611539 0.18095312 0.0053081578 0.14546625 0.1598405
00000000: 73c6 0a3e 35be 953e 0ac2 c7be 79a4 123e
00000010: 8e11 45be 07d5 80be 440f f33e c33f 273e
00000020: b5c6 c73d 9f87 3d3d 8a50 7d3e ccb9 213a
00000030: f197 51be c17d 20bf 30a8 4e3d d703 623e
00000040: 31f8 dabc cc28 10bf d09d d3be 33d5 323d
00000050: 01b6 44bd 021d aabe fbdd 0abf 0f47 6ebe
00000060: f618 1ebf d284 8d3e 434e e83d 7396 5abd
00000070: 7678 943e cf4f cf3e b9d5 a4be 3d45 243e
00000080: 37ad 8abe ed0d b13d a170 963d c98d 5abe
00000090: d05f 1abe 8de4 953c 588f b73e 465a 543c
000000a0: ecc1 ec3d d024 fa3d d671 cdbd d25a 84bc
000000b0: 1476 6fbd dd6b d5ba 0a4d 803e 5508 6a3e
000000c0: 70a0 89be 755d c33c 5bf1 b9be a514 f9bd
000000d0: fdfb be3d afdd dcbd 7d55 91bd aacf 2ebe
000000e0: e44d 4bbe 514e afbe 9e5f 8f3d 36c0 c3bc
000000f0: 780d f0bd f3d9 02bf a5d2 8b3d 6bd3 0abe
00000100: 94d8 c53e eec9 5c3e 592c 14bf 3acb 313e
00000110: 426b 993e 2591 79bd 7ce1 073e b2ba debe
00000120: eb3a 98bd 5ecc f5bd 3662 83bd 7a15 01bf
00000130: 3c64 5ebe 11b7 8b3e 6fbd b3be a149 1f3e
00000140: 0e99 eabe 3ff7 843e dd5b 9ebe 6969 16bc
00000150: cde0 07bd 8b5a 46be faa3 c2bd d5f1 0abe
00000160: 1d5a dcbe 7cff df3d 4562 363e e5d2 213d
00000170: b391 cd3e 5d68 54be a3db 523e 2e4c 523e
00000180: 0db0 c3bd 2f9c ebbc 38a7 3d3d 92f8 633c
00000190: 61cb 86bd 735e ee3d cfba 9cbe 6d94 86be
000001a0: 108b 6f3c 9d13 f1be 10d9 2d3e 39d6 2dbe
000001b0: dee4 a4be db03 87be 042a 7dbe b531 e8be
000001c0: dfd0 d33d 9dc6 02bf 7238 1ebe 0a71 e2bd
000001d0: 304f b63c 9177 a03e fe51 39be d0fa a9bd
000001e0: 3eff 2a3d 8b86 183e b5a4 a83c a726 fbbe
000001f0: a484 3b3e 6b8e e83d 0c1d 463c 31e6 ad3d
00000200: bed7 373e c637 8fbc 6275 b83e fb77 2cbe
00000210: 1edc f83d fdfd ae3e e944 f63b 769b 28bc
00000220: 75c7 3c3e 33e2 3a3d 8cae eeba 88cb 253e
00000230: 87b3 7c3d d134 183e 22c1 913e 7481 5abd
00000240: bfd0 a33e 3197 efbe 5a1f 803e f4c4 6cbd
00000250: e7f9 323d 32b2 be3d bb3d 25bf dd66 38bd
00000260: 4365 823e dd17 3dbe c617 373e ce50 b13d
00000270: 1851 2fbb 5c8f 763e 9870 6f3e b2db c3be
00000280: df9a 8f3c d141 1f3e b023 0cbf e642 1c3e
00000290: b7dc 2f3e 01f9 6dbe 0e9c 51bd 2f69 82bd
000002a0: 6350 ccbe c9f0 05bf e462 c23c f1f5 71bc
000002b0: dfea debd 9df3 29be 3302 76be eaac 723e
000002c0: 52b3 a4bd b834 b43e bcab b4bd 26d3 97bd
000002d0: 8e52 d83d f18a 34be f2d7 213e 8641 9bbe
000002e0: 9bd2 15bc 6ced 02bf 617a 81bd 9d6b 91be
000002f0: af6c 8c3e 59a5 a93d 185a e2bd 8eca df3d
00000300: cb22 6a3d 5577 163e 1a1f 2c3e 806e 543e
00000310: 11a9 05bd e989 c8bd 1885 2dbe 98a3 213d
00000320: b961 17bf 5e12 e6be a78a 79be 2587 ebbe
00000330: 6404 f4be 940c bbbe 0c44 28be fce8 53be
00000340: 087f 92bc c09c 0bbe b073 25bd 61f3 cc3d
00000350: 8360 4cbd 8977 2e3d 00cf cbbe 17f4 b93e
00000360: 1b29 383e 2c08 ba3d cd1a 76be dd14 2dba
00000370: 3259 22be f0a5 883e 3452 16bd 4ac9 bbbe
00000380: 3f29 4fbe 3879 0c3e 8343 70be 90cf 98be
00000390: 0acf f83d da56 8bbe 5549 5c3e c3c2 c83e
000003a0: b94f 953e a8f4 82bc 781c 713d 05c2 d33d
000003b0: 3f8d 01bf 1b72 61be bb78 b7bd 7fc8 d23e
000003c0: e8f6 063e 8939 1dbe a6e6 30bf db76 b13e
000003d0: 270a 513d b2ec 243e ba7d af3e 305f d4bd
000003e0: 652d c83d 2089 3d3e a881 a43e 2ae9 b83e
000003f0: c64b 393e 0ef0 ad3b 1bf5 143e 3aad 233e

layers.2.weight f4 [300]
0.86345094 0.85198826 0.6399271 0.9496159 0.75964844 0.74472624 0.8968304 0.85894907
0.65222305 1.0759377 0.9029524 0.73171866 1.044093 0.81901556 1.0772642 0.7874416
0.5395133 0.76257956 0.7390395 0.63249564 0.99056584 0.63975006 0.77064705 0.6957246
0.6326865 0.69497603 0.7980765 0.77871823 0.78697956 0.6676101 0.7402064 0.82089627
0.79721546 0.8708406 0.79518235 0.6989324 0.44002807 0.87980825 0.76862353 0.86218345
0.7852215 0.94628656 0.7906116 0.81751627 0.770123 1.0732163 0.89946127 0.67185974
0.7778924 0.9851646 0.7331544 0.59974635 0.8630647 1.0175616 0.7685427 0.81771964
0.6927938 0.6812589 0.885153 0.791026 0.7765999 0.7829329 0.878932 0.6667624
0.8016955 0.91100204 0.75548947 0.71815336 0.798379 1.0702975 0.99752903 0.6441531
0.75331324 0.7253086 0.56029516 0.7821291 0.38004184 0.6608607 0.72713006 0.71356684
0.78580636 0.79479796 0.64754796 0.73535115 0.7462988 0.7617831 0.60323 0.763147
0.7207413 0.7494289 0.73451126 0.6362355 0.7351911 0.5818615 0.85142595 0.84960854
0.7706285 0.7237362 0.84781134 0.8176001 0.87972414 0.9630192 0.9608844 0.9797512
1.0365199 0.8109867 0.8104561 0.736523 0.9014143 0.62471336 0.6386223 0.7675986
0.82839006 0.81207776 0.8389061 0.81382316 0.89242697 0.6723505 0.706618 0.7123249
0.83422434 0.9154893 0.78034574 0.7810312 0.84593034 0.6997306 0.6922895 0.5257005
0.7210674 0.722939 0.8211054 0.8662965 0.8209615 0.7245114 0.8395675 0.8723539
0.7634536 0.93643725 0.76037 0.78391534 0.7163353 0.93175966 0.7553394 0.7409055
0.8254798 0.80806404 0.85565597 0.6935132 0.6972972 1.0870697 0.7607966 0.7848849
0.800872 0.7678713 0.62340784 0.6102369 0.70535094 0.7771651 0.92763835 0.704618
0.8610267 0.65223545 0.4965648 0.76843685 0.90233004 0.56551206 0.61877173 0.7869363
0.40822306 0.67756414 1.0553384 1.0882647 0.58116955 0.7240855 0.39917606 0.73042303
0.81727844 0.93863654 0.9048355 0.7752689 0.99567854 0.83640397 0.8005104 0.68877816
0.6245586 0.7475047 0.68431246 0.6112945 0.7950471 0.5506421 0.6565495 1.040007
0.92861986 0.9525871 0.7522029 0.7846149 0.5653751 0.68211466 0.8176761 0.78575456
0.6480054 0.44633856 0.86496955 0.6757399 0.763286 0.9261099 0.6420723 0.72671765
0.73551536 0.7185912 0.7638466 0.88519084 0.8628626 0.6712614 0.67630446 0.8261489
0.84637684 0.5787641 0.7270928 0.8572404 0.8100228 0.7622083 0.8527428 0.8887063
0.9148478 1.115593 0.81322044 0.77398986 0.7884799 0.4838227 0.9656052 0.8854621
0.8247029 1.0053729 0.9537315 0.6903549 0.53798145 0.9345138 0.8400426 0.8310918
0.7876738 0.67352676 0.52705413 0.6945659 0.8538334 0.9574905 0.74884504 0.9208848
0.89411867 0.8508847 0.9378982 0.74236846 0.74933666 0.6432189 0.8392489 0.8846363
00000000: 1f0b 5d3f e71b 5a3f 43d2 233f 071a 733f
00000010: 5278 423f 61a6 3e3f ad96 653f 16e4 5b3f
00000020: 17f8 263f 54b8 893f e327 673f ea51 3b3f
00000030: d7a4 853f 01ab 513f cbe3 893f c695 493f
00000040: 8b1d 0a3f 6a38 433f b131 3d3f 3ceb 213f
00000050: b995 7d3f a9c6 233f 2049 453f 021b 323f
00000060: bef7 213f f3e9 313f be4e 4c3f 145a 473f
00000070: 7e77 493f 7fe8 2a3f 2b7e 3d3f 4226 523f
00000080: 5016 4c3f 69ef 5e3f 1291 4b3f 3ced 323f
00000090: 5c4b e13e 1d3b 613f 83c4 443f 0eb8 5c3f
000000a0: 4704 493f d63f 723f 8665 4a3f bf48 513f
000000b0: c826 453f 275f 893f 1843 663f 00ff 2b3f
000000c0: f523 473f bf33 7c3f 02b0 3b3f fa88 193f
000000d0: cff1 5c3f 753f 823f 37bf 443f 1356 513f
000000e0: ef5a 313f fc66 2e3f 6399 623f ae80 4a3f
000000f0: 40cf 463f 4a6e 483f b001 613f f1b0 2a3f
00000100: eb3b 4d3f 6e37 693f c267 413f e6d8 373f
00000110: 9162 4c3f 82ff 883f 105e 7f3f 38e7 243f
00000120: 23d9 403f d3ad 393f 816f 0f3f 9d39 483f
00000130: d894 c23e 2b2e 293f 3225 3a3f 51ac 363f
00000140: 9b2a 493f e177 4b3f b4c5 253f f93f 3c3f
00000150: 700d 3f3f 3804 433f 486d 1a3f 9a5d 433f
00000160: 8082 383f 93da 3f3f ee08 3c3f 54e0 223f
00000170: 7c35 3c3f e0f4 143f 0df7 593f f27f 593f
00000180: e947 453f c746 393f 2a0a 593f 3d4e 513f
00000190: 9a35 613f 6d88 763f 85fc 753f fad0 7a3f
000001a0: afac 843f d39c 4f3f 0d7a 4f3f c58c 3c3f
000001b0: 16c3 663f 37ed 1f3f c07c 233f 5881 443f
000001c0: 5f11 543f 54e4 4f3f 8dc2 563f b756 503f
000001d0: 1876 643f 2a1f 2c3f ebe4 343f ed5a 363f
000001e0: ba8f 553f 825d 6a3f bdc4 473f a9f1 473f
000001f0: e48e 583f 8b21 333f e239 313f 4f94 063f
00000200: e097 383f 8812 393f f733 523f 9cc5 5d3f
00000210: 882a 523f 9479 393f e5ed 563f 9652 5f3f
00000220: b271 433f 5aba 6f3f 9ca7 423f adae 483f
00000230: c061 373f cd87 6e3f ec5d 413f fcab 3d3f
00000240: a552 533f 49dd 4e3f 450c 5b3f 158a 313f
00000250: 1282 323f 1a25 8b3f 91c3 423f 38ee 483f
00000260: f305 4d3f 3793 443f a897 1f3f 7c38 1c3f
00000270: e191 343f 4bf4 463f b579 6d3f d861 343f
00000280: 3f6c 5c3f e7f8 263f be3d fe3e 47b8 443f
00000290: 1aff 663f 66c5 103f d367 1e3f a874 493f
000002a0: 9d02 d13e d874 2d3f 5415 873f 424c 8b3f
000002b0: 87c7 143f ab5d 393f ce60 cc3e 01fd 3a3f
000002c0: 2939 513f 7c4a 703f 4da3 673f 0678 463f
000002d0: cae4 7e3f 921e 563f 40ee 4c3f c453 303f
000002e0: 13e3 1f3f 785c 3f3f 1a2f 2f3f cc7d 1c3f
000002f0: 3588 4b3f e1f6 0c3f a113 283f f31e 853f
00000300: 08ba 6d3f c0dc 733f 5f90 403f 86dc 483f
00000310: 6cbc 103f 119f 2e3f 3953 513f 3627 493f
00000320: afe3 253f 7d86 e43e a56e 5d3f 4afd 2c3f
00000330: b666 433f 8a15 6d3f da5e 243f 2b0a 3a3f
00000340: bc4a 3c3f 98f5 373f 738b 433f de9b 623f
00000350: 90e4 5c3f cad7 2b3f 4a22 2d3f 7f7e 533f
00000360: 27ac 583f e229 143f c122 3a3f 1b74 5b3f
00000370: a75d 4f3f 1520 433f 5a4d 5a3f 4282 633f
00000380: 7733 6a3f c0cb 8e3f 372f 503f 3324 463f
00000390: d2d9 493f 9cb7 f73e e731 773f a5ad 623f
000003a0: bb1f 533f 0fb0 803f bf27 743f 19bb 303f
000003b0: 27b9 093f 4c3c 6f3f 080d 573f 6fc2 543f
000003c0: fda4 493f 406c 2c3f 05ed 063f 12cf 313f
000003d0: d394 5a3f 191e 753f 4fb4 3f3f 1bbf 6b3f
000003e0: f6e4 643f 94d3 593f 191a 703f dc0b 3e3f
000003f0: 87d4 3f3f fea9 243f 04d9 563f 8677 623f

layers.2.bias f4 [300]
-0.5300481 -0.6098418 -0.22157755 -0.83054674 -0.5258409 -0.3952428 -0.6219821 -0.647811
-0.44529596 -1.2087275 -0.6614459 0.0022969188 -0.64089936 -0.2847286 -1.306413 -0.8389873
-0.31959063 -0.050728068 -0.33362135 -0.10357081 -0.6520774 0.027522422 0.0205419 -0.3808073
0.11885191 -0.61534965 -0.60145235 0.33642215 -0.3042694 -0.30656877 -0.14880052 -0.55242586
-0.4757396 -1.0195405 -0.30873337 -0.21691003 -0.3661269 -0.46112022 -0.74893904 -0.81338274
-0.13264203 -1.1650431 -0.25684458 -0.79574656 0.006286465 -1.0084634 -0.32548186 -0.26792705
-0.6819397 -0.8310495 -0.28868014 -0.11868249 -0.49418217 -0.9738393 -0.5715016 -0.64680576
-0.38205105 -0.17092769 -0.98287296 -0.9671265 -0.5551125 -0.33196065 -0.9579024 -0.48286337
-0.7689826 -0.70288867 -0.23086418 -0.69153494 -0.5625294 -0.40521976 -1.0401226 -0.42925143
-0.8814999 -0.14380664 -0.21549934 -0.24096407 -0.07175873 -0.3972335 -0.42813715 -0.5836316
-0.08445475 -0.32039076 -0.29171002 -0.71947765 -0.47478867 -0.7727593 -0.4574574 -0.10084021
-0.36767426 -0.20787328 -0.70846486 -0.4163561 -0.5993734 -0.018310241 -0.72821283 -0.24179393
-0.6313485 -0.6842855 -0.84222454 -0.6386108 -0.64447874 -0.800693 -0.5808828 -0.30934018
-0.9869941 -0.24317525 -0.601991 -0.48177865 -0.11398527 0.15041643 -0.19205698 -0.07441101
-0.47065416 -0.18751402 -0.7443091 -0.7532908 -0.6147698 -0.028197013 -0.11833704 -0.31082505
-0.6849214 -0.9142765 -0.5295538 0.0010537129 -0.6160197 -0.61553663 -0.25093794 0.25960097
-0.13227722 -0.47653836 -0.14744547 -0.20848486 -0.8010162 -0.36845517 -0.2607991 -0.45684138
-0.65937996 -0.83511114 -0.39689875 -0.6348915 -0.63085693 -0.5898108 -0.55358243 -0.30593595
-0.16866711 -0.25643283 -0.7291688 -0.26471287 -0.118615285 -1.168832 -0.20067967 -0.17506528
-0.80796087 -0.34999117 -0.053861897 -0.30016455 -0.39818648 -0.62631714 -0.72243136 -0.07438076
-0.32457343 -0.53622264 0.16617219 -0.5919624 -0.9117092 -0.34935534 -0.40917668 -0.4361693
-0.17131172 -0.26101306 -1.099185 -1.1008377 -0.45422676 -0.5851066 0.0054039513 -0.668786
-0.7906676 -0.75521135 -0.6841557 -0.36180615 -1.2016208 -0.6607641 -0.43519542 -0.12554929
-0.10750617 -0.10111813 -0.32953367 -0.29269028 -0.48005033 0.0035858196 -0.32099074 -1.12724
-0.43685725 -0.41098303 -0.68293834 -0.45619428 -0.06015617 -0.4053038 -0.3818383 -0.4220394
-0.31224868 -0.09946338 0.5020949 -0.35577166 -0.044728518 -0.43245766 -0.08851013 -0.26684147
-0.7532644 -0.26736957 -0.69658995 -0.8766654 -0.5307613 -0.50918 -0.18879329 -0.7216558
-0.70205647 -0.20169067 -0.6086409 -0.6531652 -0.7747482 -0.4963233 -1.1036714 -0.47987103
-0.5055596 -1.2428719 -0.4137504 -0.7175783 -0.3877054 -0.16541609 -0.33483744 -0.85513794
-0.93717504 -0.9646322 -0.9515645 -0.2715721 -0.10889132 -0.54824805 -0.42459878 -0.6411916
-0.5685796 -0.3653228 -0.1706554 -0.3016375 -0.90558 -0.9109723 -0.14756139 -0.89390224
-1.0548878 -0.71491843 -1.0523576 -0.5222496 -0.48585522 -0.3264108 -0.6427724 -0.75206
00000000: 3bb1 07bf 981e 1cbf 3ae5 62be b69e 54bf
00000010: 829d 06bf 445d cabe 383a 1fbf f1d6 25bf
00000020: d5fd e3be 95b7 9abf 8554 29bf e787 163b
00000030: fb11 24bf f2c7 91be 8b38 a7bf dfc7 56bf
00000040: 62a1 a3be 3cc8 4fbd 6bd0 aabe ef1c d4bd
00000050: 8bee 26bf b476 e13c 7d47 a83c 2df9 c2be
00000060: a168 f33d 8e87 1dbf c8f8 19bf 863f ac3e
00000070: 33c9 9bbe 95f6 9cbe 2a5f 18be c86b 0dbf
00000080: 2494 f3be 4e80 82bf 4d12 9ebe aa1d 5ebe
00000090: fc74 bbbe f317 ecbe 78ba 3fbf da39 50bf
000000a0: 50d3 07be 2220 95bf 2281 83be 0cb6 4bbf
000000b0: b1fe cd3b 5415 81bf 8fa5 a6be bc2d 89be
000000c0: 9a93 2ebf a9bf 54bf e2cd 93be ce0f f3bd
000000d0: 7205 fdbe 884d 79bf ee4d 12bf 1095 25bf
000000e0: 329c c3be ab07 2fbe 909d 7bbf 9a95 77bf
000000f0: da1b 0ebf bff6 a9be 1739 75bf de39 f7be
00000100: 0bdc 44bf 83f0 33bf a967 6cbe 6f08 31bf
00000110: ed01 10bf f778 cfbe bd22 85bf d8c6 dbbe
00000120: faa9 61bf 0c42 13be dcab 5cbe 49bf 76be
00000130: 3ef6 92bd 3062 cbbe cb34 dbbe e168 15bf
00000140: 9df6 acbd 420a a4be 045b 95be b02f 38bf
00000150: 8017 f3be 8ed3 45bf db37 eabe 5085 cebd
00000160: cd3f bcbe bcdc 54be f45d 35bf a02c d5be
00000170: 8970 19bf 5cff 95bc 286c 3abf d498 77be
00000180: 0ea0 21bf 562d 2fbf 079c 57bf ff7b 23bf
00000190: 8ffc 24bf 37fa 4cbf bcb4 14bf d661 9ebe
000001a0: a5ab 7cbf ef02 79be 151c 1abf b1ab f6be
000001b0: 1c71 e9bd c406 1a3e 96aa 44be cd64 98bd
000001c0: 95f9 f0be ad03 40be 0b8b 3ebf aad7 40bf
000001d0: 8e61 1dbf 6cfd e6bc b15a f2bd 7624 9fbe
000001e0: 0257 2fbf 060e 6abf d690 07bf bd1c 8a3a
000001f0: 78b3 1dbf cf93 1dbf f07a 80be 6bea 843e
00000200: ae73 07be d6fc f3be f2fb 16be 0e7d 55be
00000210: 660f 4dbf 28a6 bcbe 7687 85be 1de7 e9be
00000220: 20cd 28bf d8c9 55bf 5036 cbbe 4088 22bf
00000230: d77f 21bf d7fd 16bf 94b7 0dbf a3a3 9cbe
00000240: 12b7 2cbe 2a4b 83be ceaa 3abf 7288 87be
00000250: 92ec f2bd 499c 95bf f97e 4dbe 5044 33be
00000260: 86d6 4ebf 0b32 b3be 4b9e 5cbd 2baf 99be
00000270: 19df cbbe 5256 20bf 43f1 38bf f154 98bd
00000280: 7d2e a6be e345 09bf 0b29 2a3e d98a 17bf
00000290: c665 69bf b4de b2be 9b7f d1be 9551 dfbe
000002a0: 576c 2fbe 81a3 85be 18b2 8cbf 40e8 8cbf
000002b0: 6990 e8be 8cc9 15bf a113 b13b 8f35 2bbf
000002c0: 3169 4abf 8855 41bf d424 2fbf a83e b9be
000002d0: b6ce 99bf d627 29bf efd1 debe fe8f 00be
000002e0: 322c dcbd 0617 cfbd a3b8 a8be 80db 95be
000002f0: 28c9 f5be 1200 6b3b e658 a4be 6649 90bf
00000300: c1ab dfbe 5e6c d2be 0cd5 2ebf 4c92 e9be
00000310: 5166 76bd fb83 cfbe 4f80 c3be 8c15 d8be
00000320: 0fdf 9fbe 75b3 cbbd 4b89 003f b427 b6be
00000330: 4035 37bd 176b ddbe cd44 b5bd 729f 88be
00000340: f0d5 40bf aae4 88be b853 32bf 256d 60bf
00000350: f9df 07bf 9f59 02bf 0753 41be 6fbe 38bf
00000360: f9b9 33bf 0088 4ebe e4cf 1bbf d635 27bf
00000370: e655 46bf 161e febe 1b45 8dbf a8b1 f5be
00000380: 5b6c 01bf 6d16 9fbf 18d7 d3be 36b3 37bf
00000390: 5281 c6be d662 29be d06f abbe 52ea 5abf
000003a0: b4ea 6fbf 23f2 76bf bb99 73bf 800b 8bbe
000003b0: 6a02 dfbd fc59 0cbf 0365 d9be 2225 24bf
000003c0: 6f8e 11bf 970b bbbe 4ac0 2ebe 3b70 9abe
000003d0: 17d4 67bf 7b35 69bf 551a 17be c7d6 64bf
000003e0: 9006 87bf e504 37bf a7b3 86bf 26b2 05bf
000003f0: 04c2 f8be 511f a7be bb8c 24bf 0187 40bf

layers.2.running_mean f4 [300]
-0.08878219 -0.041481256 -0.02414424 -0.48470724 -0.1774566 -0.03567374 -0.12514345 -0.19139957
-0.13436316 -0.5724732 -0.41217726 0.049987584 -0.11980501 -0.029245155 -0.57149076 -0.17884828
-0.16942047 0.06974007 -0.015282172 0.07499226 -0.10060855 0.12339213 0.06291486 -0.12518655
0.07399382 -0.098168425 -0.12850384 0.11173247 -0.1799364 -0.10219005 0.028884098 -0.1388132
-0.027683293 -0.38647613 -0.10378448 0.03465963 0.26138943 -0.11922087 -0.17061612 -0.27434614
-0.21951438 -0.59452105 -0.09907422 -0.4625052 0.23956272 -0.62041104 -0.1913045 -0.07504222
-0.106208526 -0.4842225 0.027850289 -0.020531427 -0.068188645 -0.22893146 -0.47289842 -0.09054219
-0.17423345 -0.0018425256 -0.5062972 -0.21492267 -0.15161753 -0.058070168 -0.5364223 -0.13154502
-0.36255127 -0.40963817 0.0054990267 -0.21114726 -0.31381536 -0.09776983 -0.75009793 -0.091685414
-0.29871526 0.04198471 -0.16902119 -0.037095185 -0.12174692 -0.15989695 -0.04753523 -0.19174917
-0.059628367 -0.01778814 -0.06855373 -0.22954686 -0.08125715 -0.3149866 -0.1507945 0.007016578
-0.06743503 -0.09937593 -0.31077233 -0.121308096 -0.14875107 -0.009218508 -0.23969005 -0.029793937
-0.093238875 -0.21170136 -0.30942294 -0.15548368 -0.2709474 -0.4799699 -0.14741023 -0.032930706
-0.6138613 -0.085638344 -0.33001572 -0.029598543 0.02116501 0.027165316 -0.03260885 0.17962253
-0.1843291 -0.004803087 -0.35163257 -0.28390938 -0.05791212 0.038804464 0.084779486 -0.23662972
-0.39140698 -0.73917997 -0.54152465 0.028286224 -0.44863766 -0.21583645 -0.0677667 0.071805835
-0.033432063 -0.1380118 -0.06841319 0.04307353 -0.23439147 -0.114888124 0.024678001 -0.02185724
-0.4142937 -0.5769628 -0.2560507 -0.22228988 -0.17992222 -0.13579077 -0.14515091 -0.12825
-0.024806425 -0.008623368 -0.17578246 -0.043608464 0.060408212 -0.7568656 0.00096476905 0.0225829
-0.2506254 -0.04727355 0.07453339 -0.07347216 -0.1726268 -0.16070923 -0.4295379 -0.08191447
-0.04736624 -0.2516777 0.11292784 -0.34147713 -0.28304812 -0.05225778 -0.081375234 -0.09467954
0.31720188 0.039500248 -0.53585166 -0.58227503 -0.3102217 -0.18103643 0.056332037 -0.39975825
-0.26124796 -0.30559427 -0.16425104 -0.05873459 -0.58280647 -0.15106548 -0.11104973 -0.005544128
-0.03139961 0.055562474 -0.21070792 0.0089031635 -0.123069674 -0.07601915 -0.1396541 -0.7063811
0.0050580227 -0.030657744 -0.2950183 0.00359558 0.03655425 -0.26682684 -0.21286751 -0.18209355
-0.050739635 0.001885707 0.24697782 -0.019720787 0.11200908 -0.04968324 -0.027717711 0.12544455
-0.2399512 0.04565638 -0.481378 -0.26262465 -0.14732486 -0.10907571 -0.11406465 -0.334757
-0.53193796 -0.04257181 -0.13344054 -0.13798898 -0.24541724 -0.120785534 -0.45478618 -0.07284916
0.016064724 -0.806282 -0.12802407 -0.3577087 -0.14971441 -0.03804986 -0.13959469 -0.25278342
-0.3452803 -0.56521 -0.6573997 -0.100751765 0.008469648 -0.12759367 0.06490758 -0.23974161
-0.35573 -0.123911195 -0.07075764 -0.08110275 -0.27684605 -0.30777356 -0.03766582 -0.48049766
-0.51377416 -0.18310688 -0.36219573 -0.12684585 -0.199289 -0.111226596 -0.13370126 -0.3455359
00000000: 70d3 b5bd 40e8 29bd 24ca c5bc 8c2b f8be
00000010: 2fb7 35be a11e 12bd 9b25 00be 40fe 43be
00000020: 7f96 09be 9b8d 12bf e608 d3be c8bf 4c3d
00000030: 545c f5bd 8993 efbc 384d 12bf 0124 37be
00000040: 8f7c 2dbe e2d3 8e3d 1362 7abc 8b95 993d
00000050: db0b cebd 03b5 fc3d 82d9 803d e730 00be
00000060: 128a 973d 870c c9bd 8396 03be fed3 e43d
00000070: 3f41 38be 0449 d1bd 589e ec3c 0c25 0ebe
00000080: 13c8 e2bc 33e0 c5be f58c d4bd 42f7 0d3d
00000090: d6d4 853e 122a f4bd feb5 2ebe 1977 8cbe
000000a0: 61c8 60be 8832 18bf 6de7 cabd 7bcd ecbe
000000b0: ee4f 753e 42d3 1ebf 54e5 43be bcaf 99bd
000000c0: db83 d9bd 03ec f7be 4a26 e43c 8631 a8bc
000000d0: 7da6 8bbd 026d 6abe be1f f2be 2f6e b9bd
000000e0: 416a 32be e680 f1ba b19c 01bf b014 5cbe
000000f0: a041 1bbe fcda 6dbd f952 09bf bdb3 06be
00000100: 52a0 b9be 18bc d1be 2e31 b43b fd36 58be
00000110: 68ac a0be 8c3b c8bd 6b06 40bf 90c5 bbbd
00000120: 35f1 98be 29f8 2b3d e413 2dbe 1ff1 17bd
00000130: 7356 f9bd 07bc 23be 4db4 42bd e559 44be
00000140: e03c 74bd 6fb8 91bc e665 8cbd 550e 6bbe
00000150: 266a a6bd ec45 a1be e069 1abe 53eb e53b
00000160: 611b 8abd 9c85 cbbd 8d1d 9fbe 6170 f8bd
00000170: 3352 18be 3a09 17bc 4f71 75be 6a12 f4bc
00000180: 06f4 bebd 3ec8 58be af6c 9ebe 1d37 1fbe
00000190: 9eb9 8abe 9dbe f5be b5f2 16be 59e2 06bd
000001a0: 0426 1dbf 2863 afbd d2f7 a8be a578 f2bc
000001b0: 3e62 ad3c cc89 de3c dc90 05bd f8ee 373e
000001c0: c5c0 3cbe 3763 9dbb 2f09 b4be 925c 91be
000001d0: 4235 6dbd 6ef1 1e3d dea0 ad3d 104f 72be
000001e0: 7f66 c8be e63a 3dbf 5ca1 0abf 83b8 e73c
000001f0: d6b3 e5be 3b04 5dbe 45c9 8abd f00e 933d
00000200: 0ff0 08bd f752 0dbe 371c 8cbd df6d 303d
00000210: 5104 70be 774a ebbd 8529 ca3c f40d b3bc
00000220: 4e1e d4be d6b3 13bf 1419 83be f59f 63be
00000230: 883d 38be bc0c 0bbe 71a2 14be f853 03be
00000240: d836 cbbc 0749 0dbc 5100 34be ca9e 32bd
00000250: 9a6e 773d f2c1 41bf 8ee8 7c3a c6ff b83c
00000260: f951 80be e9a1 41bd f6a4 983d 9278 96bd
00000270: 14c5 30be f690 24be 64ec dbbe c6c2 a7bd
00000280: 1a03 42bd e6db 80be b646 e73d 17d6 aebe
00000290: afeb 90be 410c 56bd 0fa8 a6bd 59e7 c1bd
000002a0: 4968 a23e 03cb 213d 932d 09bf fa0f 15bf
000002b0: 61d5 9ebe 9d61 39be 6cbc 663d 1dad ccbe
000002c0: 4bc2 85be da76 9cbe 6d31 28be ae93 70bd
000002d0: ce32 15bf e9b0 1abe 0a6e e3bd 84ab b5bb
000002e0: e19c 00bd 7a95 633d d1c3 57be 93de 113c
000002f0: f40b fcbd eeaf 9bbd 7c01 0fbe 64d5 34bf
00000300: c5bd a53b f325 fbbc a30c 97be d3a3 6b3b
00000310: e9b9 153d 879d 88be f1f9 59be bb76 3abe
00000320: 5dd4 4fbd d429 f73a c1e7 7c3e 7d8d a1bc
00000330: 0465 e53d a780 4bbd 4110 e3bc 8974 003e
00000340: c4b5 75be 2f02 3b3d 2d77 f6be bd76 86be
00000350: 54dc 16be 1663 dfbd ba9a e9bd 4565 abbe
00000360: 162d 08bf c75f 2ebd a3a4 08be fc4c 0dbe
00000370: a84e 7bbe 685e f7bd bcd9 e8be f131 95bd
00000380: 2b9a 833c 7f68 4ebf be18 03be 9825 b7be
00000390: bc4e 19be 2cda 1bbd e9f1 0ebe d46c 81be
000003a0: 94c8 b0be 9ab1 10bf 594b 28bf f156 cebd
000003b0: 47c4 0a3c eaa7 02be 44ee 843d d37e 75be
000003c0: 3e22 b6be 27c5 fdbd 62e9 90bd 3319 a6bd
000003d0: c4be 8dbe 7f94 9dbe 7a47 1abd ca03 f6be
000003e0: b486 03bf 5f80 3bbe b871 b9be e1e3 01be
000003f0: 6a12 4cbe c5ca e3bd fce8 08be 15ea b0be

layers.2.running_var f4 [300]
0.06495314 0.055057548 0.05831719 0.17615451 0.08430214 0.07346902 0.052322414 0.08704572
0.062417727 0.22698645 0.16223054 0.05021639 0.057422083 0.05230767 0.23122111 0.13794656
0.06848005 0.049320247 0.07094975 0.08491836 0.06488507 0.079788856 0.051553544 0.073176265
0.04888506 0.035367496 0.06349431 0.06029366 0.06171273 0.05289539 0.04654275 0.061048467
0.05461907 0.14420454 0.07995495 0.04555959 0.059789974 0.079443276 0.07033768 0.09769681
0.11234953 0.293707 0.11607804 0.15431647 0.063211404 0.23940851 0.13038754 0.060424976
0.04496579 0.16410293 0.04411384 0.054562405 0.10055166 0.08500113 0.16343045 0.044277612
0.089390896 0.050026957 0.18949214 0.11886719 0.07801983 0.04374073 0.20914982 0.09845309
0.068962775 0.18572517 0.05763431 0.07879576 0.09402448 0.056070905 0.35274753 0.08224648
0.10015481 0.053272806 0.053926684 0.06346565 0.0768702 0.06934548 0.05384684 0.065495685
0.06691689 0.11288507 0.06854659 0.09183343 0.10735864 0.10497611 0.0687599 0.058481224
0.04821883 0.050547916 0.08987368 0.069939144 0.05605294 0.0803526 0.11389247 0.055755045
0.04505758 0.05782094 0.1044134 0.06514947 0.1121227 0.18840532 0.045612827 0.080776684
0.24595487 0.086383075 0.11646125 0.06462264 0.04212171 0.06574942 0.062124655 0.046514727
0.087734096 0.022581328 0.09909762 0.109302446 0.12133603 0.07058703 0.03655669 0.080726944
0.13103731 0.30341086 0.20329317 0.044651814 0.15126114 0.08958947 0.06550838 0.056259047
0.055942725 0.061194275 0.042557877 0.11291025 0.12846011 0.06342771 0.060126834 0.16543134
0.14982985 0.19933413 0.10431929 0.07436782 0.061000336 0.05749512 0.053985093 0.086193115
0.042564724 0.052809812 0.06467133 0.057049822 0.07770873 0.34935397 0.03378366 0.09073192
0.052190986 0.05649693 0.06639298 0.052207053 0.085965335 0.063439585 0.1252177 0.062839046
0.05778883 0.063775666 0.040793505 0.13002829 0.15435737 0.050510503 0.058038116 0.058057204
0.06268019 0.03157076 0.2015984 0.2030773 0.06103767 0.0599381 0.04729052 0.1233388
0.102610506 0.0871841 0.0760549 0.077741586 0.2393105 0.073500894 0.10954761 0.09144968
0.06873617 0.03988651 0.048794482 0.06360291 0.07716209 0.050970484 0.05602714 0.31369486
0.06420199 0.06205835 0.11078092 0.060708094 0.060800634 0.08932695 0.066111304 0.10327443
0.046229735 0.04160907 0.071312495 0.044475567 0.05060819 0.040442925 0.05431477 0.050985582
0.096089885 0.044039544 0.14957935 0.16259868 0.08267568 0.07490819 0.07253923 0.062346708
0.18366136 0.055265088 0.08052761 0.0553758 0.07758294 0.060870636 0.13790472 0.03429212
0.10449531 0.3954137 0.08640676 0.08815938 0.07962538 0.044696383 0.12600112 0.045098793
0.100523785 0.19078201 0.25634927 0.048447657 0.068472505 0.08756643 0.044375613 0.049646705
0.13088953 0.052003205 0.05870201 0.046353847 0.12664478 0.112159245 0.047480952 0.1601618
0.21772607 0.074807994 0.0809003 0.056070138 0.082945004 0.056438286 0.08136683 0.10533385
00000000: 2706 853d 0684 613d 01de 6e3d d961 343e
00000010: 9aa6 ac3d ed76 963d 0750 563d 0745 b23d
00000020: bba9 7f3d 236f 683e c31f 263e b4af 4d3d
00000030: 6b33 6b3d 9140 563d 3ac5 6c3e dd41 0d3e
00000040: 453f 8c3d 0704 4a3d 1a4e 913d ade9 ad3d
00000050: 77e2 843d 5768 a33d cf29 533d 70dd 953d
00000060: b33b 483d 82dd 103d 4e09 823d 7cf6 763d
00000070: 7dc6 7c3d d6a8 583d 9ca3 3e3d f50d 7a3d
00000080: 3fb8 5f3d 5baa 133e 6cbf a33d b19c 3a3d
00000090: 55e6 743d 28b3 a23d 340d 903d 4415 c83d
000000a0: 8317 e63d c460 963e 53ba ed3d 2305 1e3e
000000b0: fb74 813d 8127 753e 5084 053e 2e80 773d
000000c0: 0c2e 383d 990a 283e b7b0 343d d47c 5f3d
000000d0: 07ee cd3d 1315 ae3d 505a 273e 715c 353d
000000e0: 9312 b73d 11e9 4c3d 3a0a 423e a470 f33d
000000f0: dcc8 9f3d 7b29 333d 5f2b 563e c6a1 c93d
00000100: 5b3c 8d3d bd2e 3e3e f411 6c3d ac5f a13d
00000110: e88f c03d 9baa 653d 539b b43e d870 a83d
00000120: f71d cd3d 9634 5a3d 3ae2 5c3d 47fa 813d
00000130: 206e 9d3d 0105 8e3d 818e 5c3d 9a22 863d
00000140: b90b 893d 4a30 e73d 2862 8c3d 2a13 bc3d
00000150: d9de db3d b7fd d63d fed1 8c3d 028a 6f3d
00000160: 1c81 453d 550b 4f3d b10f b83d 413c 8f3d
00000170: c597 653d e78f a43d 7540 e93d 675f 643d
00000180: 4c8e 383d a6d5 6c3d b1d6 d53d 166d 853d
00000190: 96a0 e53d 53ed 403e 84d4 3a3d 3f6e a53d
000001a0: 98db 7b3e 9ce9 b03d 3c83 ee3d e058 843d
000001b0: d087 2c3d a2a7 863d 6c76 7e3d 3a86 3e3d
000001c0: efad b33d 7afc b83c b1f3 ca3d f6d9 df3d
000001d0: 067f f83d ef8f 903d 78bc 153d 2b54 a53d
000001e0: a52e 063e ab58 9b3e 162c 503e d2e4 363d
000001f0: 33e4 1a3e af7a b73d 4229 863d e36f 663d
00000200: 3324 653d d9a6 7a3d 2b51 2e3d 7d3d e73d
00000210: 0c8b 033e 63e6 813d 8e47 763d d566 293e
00000220: ff6c 193e 3f1e 4c3e 5aa5 d53d 284e 983d
00000230: 7ddb 793d 0180 6b3d 791f 5d3d 0486 b03d
00000240: 5958 2e3d 1a4f 583d 6772 843d 13ad 693d
00000250: c125 9f3d 86de b23e bc60 0a3d a8d1 b93d
00000260: 37c6 553d 5369 673d 0bf9 873d 10d7 553d
00000270: 980e b03d 9dec 813d 1239 003e c2b1 803d
00000280: fbb3 6c3d d19c 823d 1717 273d 2326 053e
00000290: dc0f 1e3e 1ae4 4e3d 60b9 6d3d 64cd 6d3d
000002a0: 795e 803d 5750 013d d06f 4e3e 7ff3 4f3e
000002b0: a302 7a3d a781 753d b4b3 413d 0e99 fc3d
000002c0: 7525 d23d 948d b23d acc2 9b3d fb36 9f3d
000002d0: d00d 753e a387 963d 7f5a e03d f849 bb3d
000002e0: 8dc5 8c3d 0a60 233d b9dc 473d 3e42 823d
000002f0: 2807 9e3d 6dc6 503d b77c 653d 9d9c a03e
00000300: 557c 833d e530 7e3d 1be1 e23d 0da9 783d
00000310: 160a 793d 0cf1 b63d 5d65 873d 8b81 d33d
00000320: 645b 3d3d 466e 2a3d 490c 923d 032c 363d
00000330: 894a 4f3d 7ba7 253d 2a79 5e3d 42d6 503d
00000340: c6ca c43d cf62 343d 542b 193e 4580 263e
00000350: de51 a93d 7769 993d 738f 943d 435f 7f3d
00000360: b911 3c3e a55d 623d a9eb a43d bcd1 623d
00000370: cee3 9e3d 7d53 793d e536 0d3e e575 0c3d
00000380: a301 d63d aa73 ca3e 07f6 b03d e88c b43d
00000390: a212 a33d 8e13 373d 7006 013e 83b9 383d
000003a0: 6adf cd3d 5c5c 433e 3640 833e 0d71 463d
000003b0: 503b 8c3d 0756 b33d 34c3 353d 585a 4b3d
000003c0: e807 063e 5001 553d 8571 703d 88dd 3d3d
000003d0: 2baf 013e bfb3 e53d 637b 423d 7401 243e
000003e0: 95f3 5e3e ef34 993d 0eaf a53d cda9 653d
000003f0: 12df a93d d52b 673d a7a3 a63d 46b9 d73d

layers.4.weight f4 [200, 300]
-0.07982282 0.0636908 -0.10561952 -0.086612344 0.076725945 -0.011121287 -0.07354546 -0.22465932
-0.16497633 0.059601422 -0.27458426 -0.08052405 -0.37121725 -0.036340162 0.034703474 -0.026864527
0.23049076 -0.18236195 -0.07955083 -0.080954075 -0.03225258 -0.02517131 0.1405881 -0.010647199
0.06935623 -0.040337313 0.21635912 -0.08874878 -0.105508804 0.05268117 0.09787454 -0.10957351
-0.06878226 -0.11206396 -0.071744174 -0.052250255 0.08263868 0.01443815 0.111506075 -0.084089205
-0.06754684 -0.06251227 -0.14956613 0.037852336 -0.03542537 0.08535503 -0.22930741 -0.020961506
-0.15167962 0.070202895 0.017358832 0.025302585 0.12405186 -0.11072882 0.05114063 0.047868013
0.003846297 -0.2964576 -0.11109776 0.053322356 -0.08602739 0.0027669072 0.04812134 0.13379611
-0.030239519 -0.33664113 0.0015997993 -0.058106482 0.011703949 -0.044772655 -0.128848 -0.0798503
0.09363322 0.06006331 -0.0900358 0.09068219 0.039712142 0.10284645 0.0022983847 -0.023621505
0.13719442 -0.13466975 -0.005431508 -0.08141229 0.047933117 -0.028976934 -0.045368504 -0.061692625
-0.086555235 -0.0069902902 -0.043035887 -0.06578564 -0.050515678 0.023421593 -0.11124754 -0.1347197
0.0015437306 -0.07079086 0.24515411 -0.26315323 0.277455 -0.1676903 -0.3538783 -0.21199392
-0.001967212 0.05757577 0.009818094 0.20404449 0.1525232 -0.0088422485 0.0039453846 -0.020528944
-0.108383484 0.030284861 0.09024477 -0.01578677 -0.04551606 -0.07040563 -0.028166713 0.14266855
-0.19583139 -0.1341565 -0.05740477 -0.052223984 -0.2745274 -0.07842282 0.09484665 -0.040884674
0.043212205 0.09193511 -0.060766328 0.020686038 -0.05771802 -0.0474513 0.02322788 -0.034556773
-0.21440011 -0.0062582004 -0.13230503 0.24427477 0.107975766 -0.049157623 -0.067432426 0.05524492
-0.055115353 0.09503615 -0.13691418 -0.21697444 -0.011907288 -0.02203299 -0.047348842 -0.18541242
-0.11203147 0.17003968 0.08097705 -0.07974371 -0.04528362 0.10097655 -0.14049898 -0.05108007
0.15133838 0.00749226 -0.032717504 -0.0837852 -0.09366125 -0.028922288 -0.025288982 0.028390097
0.016942808 0.13349494 0.037641793 0.113475986 -0.016963596 0.23603687 0.009973125 -0.029925639
0.3358807 -0.106180824 0.1419174 -0.0015732746 -0.028970515 -0.24692766 -0.007104911 -0.26828003
0.03821215 0.02307718 -0.12942542 0.03244473 -0.09616333 -0.15569969 0.02883217 -0.0555638
-0.079598665 -0.052588843 -0.11922011 0.033418097 -0.014670327 0.10006291 -0.09636488 -0.24318461
-0.03245382 0.084166184 -0.01625377 -0.17483012 -0.047368344 -0.3539222 -0.016977435 -0.026424356
-0.00067391497 -0.10846845 -0.19247554 0.001757509 -0.13993216 0.06894251 -0.12588751 -0.13642034
-0.1750844 0.034404777 -0.3475638 -0.12722442 -0.050587 -0.053291157 -0.016817765 0.115863934
-0.100089684 -0.029988999 -0.152529 -0.2171333 -0.12094 -0.050803404 -0.2719594 -0.012346637
-0.0951726 0.015325466 -0.16470301 -0.11381526 -0.011182344 -0.43377903 0.08677615 -0.048894197
-0.12079209 -0.19216928 -0.04321582 0.0299855 0.025774118 0.2900976 -0.0070928736 0.12283567
-0.07952114 0.029661186 0.09725389 0.08833602 -0.16397776 -0.011003105 -0.19870867 0.3008458
00000000: 267a a3bd 5270 823d 0c4f d8bd d061 b1bd
00000010: 7e22 9d3d 0f36 36bc 019f 96bd 180d 66be
00000020: 8eef 28be 9f20 743d 4f96 8cbe cbe9 a4bd
00000030: 3010 bebe 6cd9 14bd 3b25 0e3d ff12 dcbc
00000040: c505 6c3e 17bd 3abe 8ceb a2bd 40cb a5bd
00000050: 481b 04bd 1034 cebc 54f6 0f3e 9771 2ebc
00000060: a40a 8e3d bd38 25bd 3f8d 5d3e ecc1 b5bd
00000070: 0015 d8bd 36c8 573d 7272 c83d 1468 e0bd
00000080: b7dd 8cbd ca81 e5bd 9cee 92bd 5d04 56bd
00000090: 783e a93d fe8d 6c3c 4c5d e43d f636 acbd
000000a0: ff55 8abd 6f06 80bd dd27 19be 0d0b 1b3d
000000b0: 311a 11bd 9ece ae3d 90cf 6abe 77b7 abbc
000000c0: e751 1bbe 89c6 8f3d 1c34 8e3c 5e47 cf3c
000000d0: e70e fe3d cbc5 e2bd d678 513d 4011 443d
000000e0: 2812 7c3b 4ac9 97be 3987 e3bd 8b68 5a3d
000000f0: 212f b0bd 0055 353b e21a 453d d901 093e
00000100: deb8 f7bc 3a5c acbe 5bb0 d13a 1001 6ebd
00000110: ecc1 3f3c 8863 37bd bbf0 03be 8e88 a3bd
00000120: c6c2 bf3d f204 763d b164 b8bd 96b7 b93d
00000130: 33a9 223d 29a1 d23d 7fa0 163b e381 c1bc
00000140: b27c 0c3e dee6 09be cbfa b1bb 7dbb a6bd
00000150: 8455 443d 0961 edbc 53d4 39bd 68b1 7cbd
00000160: df43 b1bd ce0e e5bb 6646 30bd 9fba 86bd
00000170: 87e9 4ebd a4de bf3c c0d5 e3bd f6f3 09be
00000180: 0157 ca3a ccfa 90bd ae09 7b3e 05bc 86be
00000190: 950e 8e3e 02b7 2bbe 892f b5be ef14 59be
000001a0: 57ec 00bb 92d4 6b3d 12dc 203c 0af1 503e
000001b0: 0b2f 1c3e 14df 10bc 4948 813b 512c a8bc
000001c0: 29f8 ddbd f517 f83c 40d2 b83d 4253 81bc
000001d0: 0c6f 3abd d430 90bd e1bd e6bc b417 123e
000001e0: 0688 48be 5260 09be 4421 6bbd d1e8 55bd
000001f0: db8e 8cbe 259c a0bd f63e c23d b076 27bd
00000200: 48ff 303d 7a48 bc3d 1de6 78bd c475 a93c
00000210: bb69 6cbd 4b5c 42bd 6548 be3c 678b 0dbd
00000220: b48b 5bbe 9711 cdbb f87a 07be 2a23 7a3e
00000230: 6622 dd3d 8159 49bd 031a 8abd 7f48 623d
00000240: a3c0 61bd 50a2 c23d 3b33 0cbe 8c2e 5ebe
00000250: c916 43bc 877e b4bc dcf0 41bd c1dc 3dbe
00000260: c170 e5bd e21e 2e3e 4cd7 a53d ac50 a3bd
00000270: 517b 39bd cbcc ce3d f7de 0fbe 5639 51bd
00000280: 73f8 1a3e a281 f53b ca02 06bd 9397 abbd
00000290: 78d1 bfbd 6fee ecbc d72a cfbc 5992 e83c
000002a0: a5cb 8a3c e6b2 083e 482e 1a3d 1966 e83d
000002b0: 3df7 8abc a6b3 713e 5166 233c 9d26 f5bc
000002c0: 8ef8 ab3e 5575 d9bd cb52 113e 5636 ceba
000002d0: 9353 edbc 9bda 7cbe 50d0 e8bb 005c 89be
000002e0: 5884 1c3d 5b0c bd3c 1988 04be c4e4 043d
000002f0: 48f1 c4bd bd6f 1fbe 7131 ec3c de96 63bd
00000300: a004 a3bd 6667 57bd ac29 f4bd 6ae1 083d
00000310: d05b 70bc c8ed cc3d f35a c5bd 6305 79be
00000320: 4cee 04bd 525f ac3d a026 85bc ab06 33be
00000330: 4f05 42bd 4a35 b5be 4314 8bbc e477 d8bc
00000340: aba9 30ba b524 debd 4f18 45be 375c e63a
00000350: 604a 0fbe bb31 8d3d a8e8 00be c6b1 0bbe
00000360: 5349 33be 06ec 0c3d e2f3 b1be 1e47 02be
00000370: 5034 4fbd d447 5abd 69c5 89bc 124a ed3d
00000380: d2fb ccbd 7dab f5bc 9030 1cbe 3158 5ebe
00000390: 64af f7bd 3b17 50bd 433e 8bbe 8d49 4abc
000003a0: dae9 c2bd aa17 7b3c e8a7 28be fa17 e9bd
000003b0: 2636 37bc 4918 debe b2b7 b13d 4845 48bd
000003c0: d861 f7bd 06c8 44be 1203 31bd 27a4 f53c
000003d0: 3e24 d33c ac87 943e 566b e8bb 4591 fb3d
000003e0: fbdb a2bd 04fc f23c 0c2d c73d 84e9 b43d
000003f0: c9e9 27be 5e46 34bc 497a 4bbe 7608 9a3e

layers.4.bias f4 [200]
-0.17894247 0.07012656 -0.12466558 -0.82151574 -0.31877473 -0.29709858 -0.3577481 -0.2852675
-0.036468912 -0.06911621 -0.27733025 -0.17652705 -0.36230612 0.15484953 -0.46648204 -0.0181793
-0.413333 0.20234764 -0.34319282 -0.3323466 -0.057612382 -0.3929521 -0.34731418 -0.5659184
-0.7024007 -0.182649 -0.17657349 -0.076957546 -0.30211726 0.022809906 -0.14227726 -0.5229899
0.028044028 -0.5766897 0.053698335 -0.5023172 -0.38422891 -0.27173045 -0.6528635 -0.5461458
-0.1344129 -0.17998841 -0.41150302 -0.3181641 0.24095683 -0.33978325 0.23724324 -0.3565207
-0.19124041 -0.46272248 -0.21171336 0.17000432 -0.75446415 -0.51496017 -0.8147321 -0.113133244
-0.5910891 -0.07697036 -0.6305511 -0.80653304 -0.17544205 -0.15489404 -0.29461524 -0.28631288
-0.2670353 -0.33536115 -0.2708575 -0.0014618582 -0.3866578 -0.29811826 -0.39188698 -0.1338884
-0.1678813 -0.18339051 -0.19414392 -0.30351612 -0.055310253 -0.32330453 -0.14463222 -0.11967262
-0.05734549 -0.67182636 -0.2723079 -0.14521502 -0.10294693 -0.4048248 -0.24579458 -0.23785032
-0.16055661 -0.1818278 -0.36680758 0.027643442 -0.2914168 -0.039483722 -0.51052684 -0.33276787
-0.10059858 -0.20983323 -0.2992449 -0.62932694 -0.5473637 -0.6330819 -0.30723393 -0.20503153
-0.10579015 -0.24380083 -0.118168235 -0.21541786 -0.2853374 -0.7233822 0.118530706 -0.030906534
-0.2039407 -0.28787634 -0.35167363 -0.6293184 -0.12956321 -0.422095 -0.10013746 -0.3302872
-0.17000481 -0.76910645 -0.28814545 -0.042156972 -0.5678745 -0.28681666 -0.4683908 -0.13573225
-0.52434415 0.0037996538 -0.20664863 -0.57068735 -0.29388508 -0.57469815 -0.30489162 -0.28347328
-0.11896859 -0.3198105 -0.13715918 -0.04744807 -0.115109384 -0.16747154 -0.13972785 0.1716608
-0.088567756 -0.052064165 -0.47649863 -0.37733054 0.057883114 -0.23383752 -0.25577426 -0.4384475
-0.43545407 -0.3274454 -0.14805616 -0.6345551 -0.2075925 -0.14314595 -0.4153407 -0.02087471
-0.65723556 -0.7509433 -0.3096971 -0.020161875 -0.7080288 -0.41404814 -0.037932616 -0.29902786
-0.19614585 0.050922226 -0.14613128 -0.31696683 -0.23967505 -0.070408605 -0.5001958 -0.2761501
-0.08191113 -0.1671138 -0.39829654 -0.16168906 -0.74220926 -0.6665662 -0.06018288 -0.2538048
-0.5161463 -0.34727022 -0.21107179 -0.28579187 -0.009267767 -0.038852904 -0.5347462 -0.09604706
-0.118806735 -0.039242096 -0.6151565 -0.78127307 -0.30428618 -0.08448582 0.13151051 -0.5907867
00000000: b23c 37be 849e 8f3d ab50 ffbd db4e 52bf
00000010: 7136 a3be 4e1d 98be c22a b7be 950e 92be
00000020: 6d60 15bd cd8c 8dbd 3bfe 8dbe 82c3 34be
00000030: 3080 b9be e090 1e3e bcd6 eebe c1ec 94bc
00000040: 62a0 d3be 3834 4f3e f8b6 afbe 5529 aabe
00000050: f6fa 6bbd 0531 c9be 2ad3 b1be 07e0 10bf
00000060: 88d0 33bf 5708 3bbe aecf 34be eb9b 9dbd
00000070: 1daf 9abe d7db ba3c 21b1 11be abe2 05bf
00000080: 97bc e53c f0a1 13bf c9f2 5b3d dc97 00bf
00000090: a7b9 c4be 4120 8bbe 1022 27bf 36d0 0bbf
000000a0: 89a3 09be e24e 38be 86b0 d2be 68e6 a2be
000000b0: 63bd 763e 12f8 adbe e4ef 723e e289 b6be
000000c0: 87d4 43be f6e9 ecbe 63cb 58be 9d15 2e3e
000000d0: 9024 41bf 6ed4 03bf 4892 50bf 67b2 e7bd
000000e0: 9e51 17bf a3a2 9dbd cc6b 21bf f378 4ebf
000000f0: 15a7 33be 8b9c 1ebe cfd7 96be 9a97 92be
00000100: dab8 88be 75b4 abbe d6ad 8abe d29b bfba
00000110: 03f8 c5be f5a2 98be 69a5 c8be 0a1a 09be
00000120: 13e9 2bbe b9ca 3bbe aacd 46be 7766 9bbe
00000130: 018d 62bd 2c88 a5be 781a 14be eb16 f5bd
00000140: 1be3 6abd d0fc 2bbf f16b 8bbe 3fb3 14be
00000150: d7d5 d2bd 3245 cfbe 93b1 7bbe 098f 73be
00000160: f468 24be 1131 3abe 34ce bbbe 8074 e23c
00000170: 9534 95be afb9 21bd e3b1 02bf 8d60 aabe
00000180: a106 cebd 86de 56be a136 99be 921b 21bf
00000190: 0720 0cbf a811 22bf c44d 9dbe c9f3 51be
000001a0: 82a8 d8bd eda6 79be 3002 f2bd 8096 5cbe
000001b0: be17 92be 932f 39bf 3ac0 f23d b32f fdbc
000001c0: d5d5 50be 8764 93be 910e b4be 031b 21bf
000001d0: 38ac 04be d61c d8be de14 cdbd 671b a9be
000001e0: be15 2ebe 29e4 44bf cd87 93be caac 2cbd
000001f0: 3960 11bf a2d9 92be ebd0 efbe 65fd 0abe
00000200: 6b3b 06bf 9d03 793b b39b 53be 9118 12bf
00000210: 1b78 96be 6b1f 13bf c11a 9cbe 6923 91be
00000220: cea5 f3bd 34be a3be 7573 0cbe e858 42bd
00000230: 78be ebbd a97d 2bbe d114 0fbe d9c7 2f3e
00000240: 0363 b5bd 3c41 55bd a1f7 f3be 7831 c1be
00000250: d816 6d3d 1a73 6fbe d8f4 82be 317c e0be
00000260: d6f3 debe eca6 a7be 099c 17be 3472 22bf
00000270: 2193 54be da94 12be 89a7 d4be 7101 abbc
00000280: 9740 28bf d23d 40bf 9e90 9ebe 842a a5bc
00000290: 6041 35bf 1efe d3be 3b5f 1bbd 2e1a 99be
000002a0: 75da 48be d393 503d 70a3 15be 7a49 a2be
000002b0: 606d 75be 6332 90bd d50c 00bf 8c63 8dbe
000002c0: 06c1 a7bd e11f 2bbe 86ed cbbe d191 25be
000002d0: 6d01 3ebf 15a4 2abf 5382 76bd b4f2 81be
000002e0: 2a22 04bf 67cd b1be 3423 58be 5053 92be
000002f0: d5d7 17bc 3924 1fbd 21e5 08bf 52b4 c4bd
00000300: f250 f3bd 52bc 20bd e57a 1dbf 8301 48bf
00000310: 66cb 9bbe e706 adbd b1aa 063e cc3d 17bf
