cushion/h2_cushion_rom.pt (torch, 602603 bytes, 26 tensors)

layers.0.weight f4 [384, 12]
0	0x3e9dcf85	0.30822387
1	0x3e88feb9	0.26756838
2	0x3dbd6af1	0.09248913
3	0x3ea6e73f	0.32598302
4	0x3c20bacb	0.00981016
5	0x3e86edac	0.26353204
6	0x3e5e8242	0.21729377
7	0xbe6727b2	-0.22573736
8	0x3ce0b9a1	0.027432265
9	0xbe1f7b00	-0.15574265
10	0xbc84b6f2	-0.016200516
11	0xbdcfff3d	-0.10156105
12	0xbd5ec7af	-0.054389652
13	0xbda074dd	-0.0783479
14	0x3d8a9d82	0.067683235
15	0x3b792e8e	0.0038022134
16	0xbc0de950	-0.008661583
17	0xbd7688f1	-0.06018919
18	0xbd698174	-0.05700822
19	0xbce8f303	-0.02843619
20	0x3e98046f	0.29690883
21	0xbdc720d0	-0.09723055
22	0xbd41edbf	-0.047345873
23	0xbf8268c0	-1.0188217
24	0x3e14f560	0.14546728
25	0xbe4bdc59	-0.19908275
26	0x3de1b647	0.11021095
27	0xbd58dd3b	-0.052945357
28	0x3cac81ae	0.02105793
29	0xbdf7fb33	-0.12108459
30	0x3be8d5a8	0.007105548
31	0xbd6f5885	-0.05843403
32	0x3ee407a1	0.4453707
33	0x3e2d56e2	0.16927674
34	0xbde0a5eb	-0.10969146
35	0xbf233720	-0.6375599
36	0x3e214c97	0.15751873
37	0x3c95fab5	0.018308023
38	0x3c9042c2	0.017609958
39	0xbb9e8dcc	-0.004838681
40	0xbcebeb88	-0.028798833
41	0x3dd72ad9	0.105062194
42	0xbcb7f906	-0.02245761
43	0x3d34643e	0.04404091
44	0x3d0772e1	0.03306854
45	0x3e74a2b4	0.23890191
46	0xbf82ce21	-1.0219156
47	0xbe47691a	-0.19473687
48	0x3db7f60c	0.089824766
49	0x3c8161c3	0.015793687
50	0xbd845544	-0.064615756
51	0x3d0a00fb	0.03369234
52	0x3d7aec44	0.061260477
53	0x3c479cae	0.012183351
54	0x3e01a89f	0.1266198
55	0xbd8a27cf	-0.06745874
56	0xbf45c2c8	-0.7725034
57	0x3e5b1348	0.21394074
58	0xbe1651d9	-0.1467966
59	0x3c14dd77	0.009086004
60	0x3db247bd	0.08705089
61	0xbdbc257b	-0.09186836
62	0x3d46c6c4	0.0485294
63	0x3bd4d60c	0.006495243
64	0x3d0ed2a6	0.03486886
65	0x3cde499d	0.02713471
66	0xbd52d0f2	-0.051468797
67	0xbd429a3e	-0.047510378
68	0xbc9efc1e	-0.019407328
69	0x3e4e6e2c	0.20159215
70	0x3d9130ff	0.070894234
71	0xbf762e0d	-0.9616402
72	0x3e8e6ba8	0.2781651
73	0xbdb67da8	-0.08910686
74	0x3d051a18	0.032495588
75	0x3e21ce1d	0.15801282
76	0xbdefc6e8	-0.1170786
77	0x3e90bd4b	0.2826942
78	0x3e6c0062	0.23047021
79	0x3dddf7d6	0.108382866
80	0x3e3b18f5	0.18271239
81	0xbd2d575c	-0.04231964
82	0x3e8cce72	0.27501255
83	0x3e14acc0	0.14519024
84	0xbe8074ff	-0.2508926
85	0x3e217255	0.1576627
86	0xbebb66d1	-0.3660188
87	0x3e740ad9	0.23832263
88	0x3ddf1376	0.10892384
89	0xbc7c1b3b	-0.015387352
90	0xbe412020	-0.18859911
91	0x3a392c7a	0.00070638175
92	0x3e00e0c9	0.12585749
93	0xbc91fbd0	-0.017820269
94	0xbec6840d	-0.38772622
95	0x3c8b9a86	0.017041456
96	0x3e5ae9b7	0.21378218
97	0xbe9127f7	-0.28350803
98	0xbe8248f2	-0.25446278
99	0x3df4385c	0.11924812
100	0x3d9463af	0.07245576
101	0x3ea70952	0.32624298
102	0xbf0be79a	-0.5465027
103	0xbe746e10	-0.2387011
104	0xbe37650f	-0.17909645
105	0x3e8e0d2e	0.2774443
106	0x3e6f96e5	0.23397405
107	0xbd2544e4	-0.040348902
108	0x3ec5f3c1	0.38662532
109	0xbe0aab20	-0.13541842
110	0x3e25204b	0.161256
111	0x3de70404	0.11280063
112	0x3d8ad888	0.06779581
113	0x3c0a19d3	0.008429009
114	0x3eeecdd9	0.46641424
115	0x3d41fdb1	0.04736108
116	0x3cd5aa87	0.02608229
117	0xbdcba7b4	-0.09944096
118	0xbd961261	-0.07327724
119	0x3e5307c4	0.20608431
120	0xbe499453	-0.19685487
121	0x3e3cdbc8	0.18443215
122	0x3c3496c7	0.011022276
123	0x3d5ac3c8	0.053409368
124	0xbae9647f	-0.001780644
125	0xbe5bb2c8	-0.21454918
126	0xbf1b4455	-0.6065114
127	0xbe8f94a3	-0.28043088
128	0x3d085c3f	0.033291098
129	0xbe7fac47	-0.24968062
130	0x3e5e323f	0.21698855
131	0xbdd8e638	-0.10590786
132	0x3e6fb349	0.23408236
133	0xbe141c32	-0.1446388
134	0xbedaecc5	-0.42758766
135	0x3e68900a	0.22711197
136	0xbd586c5a	-0.052837707
137	0xbe79cbb2	-0.2439411
138	0x3eb8a36f	0.3606219
139	0xbcfebac8	-0.031094924
140	0xbe925d98	-0.2858703
141	0x3dbb85f4	0.09156409
142	0x3e535f72	0.20641878
143	0xbb176b79	-0.002310483
144	0x3db60ceb	0.08889183
145	0xbe0ce9b4	-0.13761026
146	0xbe927f37	-0.28612682
147	0x3e8011f3	0.25013694
148	0xbbcce3be	-0.006252735
149	0x3e52b63a	0.20577326
150	0xbf0e5d8e	-0.55611503
151	0xbe145295	-0.14484628
152	0x3ef7852f	0.483438
153	0xbe3dc878	-0.18533504
154	0xbe4ea4d9	-0.20180072
155	0xbdaca47b	-0.0842981
156	0x3ca22e2e	0.01979741
157	0xbeeb8e66	-0.4600708
158	0x3e3b2bd1	0.18278433
159	0xbdfa254e	-0.122141466
160	0xbb952f6c	-0.0045527723
161	0xbdf771f1	-0.120822795
162	0xbec112c2	-0.37709624
163	0xbe1067be	-0.14102075
164	0x3e385d49	0.18004335
165	0xbe7beb02	-0.24601367
166	0x3e39e63d	0.18154235
167	0xbcf27f18	-0.029601619
168	0x3d23838a	0.039920367
169	0x3e966de2	0.2938071
170	0x3e941832	0.2892471
171	0xbe7124b3	-0.23549156
172	0xbd020968	-0.03174725
173	0x3dbaba01	0.09117509
174	0x3ee54e69	0.44786385
175	0x3daca152	0.08429207
176	0x3e794bb9	0.24345292
177	0xbe5396f2	-0.2066305
178	0x3e40e120	0.18835878
179	0x3e467187	0.19379245
180	0x3a642d32	0.00087042444
181	0xbded6d5b	-0.115931235
182	0x3d88c200	0.066776276
183	0xbcf98397	-0.030458255
184	0xbcbfe44a	-0.023424286
185	0xbca5ad89	-0.02022435
186	0xbd1e235e	-0.038607948
187	0xbd04ae08	-0.03239253
188	0x3e02061a	0.1269764
189	0xbdb63f18	-0.08898753
190	0xbc9d16ee	-0.019175973
191	0xbf8c80f9	-1.0976859
192	0x3d6f65d7	0.05844673
193	0x3ee14adc	0.44002426
194	0xbec5dcbd	-0.38644972
195	0xbd13d52a	-0.03609196
196	0xbe5af6a7	-0.21383153
197	0x3c94bdea	0.018156964
198	0x3ddfef19	0.10934276
199	0xbe22d989	-0.15903296
200	0xbdbe2cb4	-0.0928587
201	0xbe57ce26	-0.21074733
202	0xbedeca81	-0.43513873
203	0x3dc4560a	0.09586723
204	0x3e8b1b36	0.27169198
205	0x3e6d546a	0.23176733
206	0xbe2482fd	-0.16065593
207	0xbe794976	-0.2434443
208	0x3d9d4ca6	0.07680635
209	0xbde33668	-0.110943615
210	0xbb62afd3	-0.0034589663
211	0xbe8a7e5f	-0.27049538
212	0x3ee540d4	0.44776022
213	0xbcd0afb0	-0.0254744
214	0x3d19ba56	0.03753122
215	0x3d232eae	0.03983944
216	0x3c72703a	0.014797265
217	0xbdea4f75	-0.114409365
218	0xbdf076f4	-0.117414385
219	0x3e321a31	0.17392804
220	0x3d9173c0	0.07102156
221	0xbdf39dae	-0.118953094
222	0xbef18c17	-0.47177193
223	0x3d13c631	0.036077682
224	0xbef1350e	-0.4711079
225	0x3da2db84	0.079520255
226	0xbdadc18b	-0.08484181
227	0xbdfc34e2	-0.12314774
228	0xbd9a6b89	-0.07540042
229	0xbd720ec3	-0.05909611
230	0x3da640a4	0.08117798
231	0xbda5def3	-0.08099165
232	0x3ca6a074	0.020340182
233	0x3b558f7f	0.003258675
234	0x3cfe59fa	0.031048764
235	0xbcd00981	-0.025395157
236	0x3e0fd841	0.14047338
237	0xbe9355e2	-0.2877646
238	0x3f163e87	0.5868916
239	0xbf1d02ff	-0.61332697
240	0x3e2ddced	0.16978808
241	0xbe28442f	-0.1643226
242	0x3e6334b8	0.2218808
243	0xbee28dd7	-0.4424884
244	0xbdc2d072	-0.09512414
245	0xbda77297	-0.08176153
246	0xbe8092e5	-0.25112072
247	0x3d7b738e	0.0613895
248	0xbeac9166	-0.3370468
249	0x3e723610	0.23653436
250	0x3e8c1664	0.27360833
251	0x3ebb540f	0.3658757
252	0x3e03377e	0.12814137
253	0x3b36d455	0.0027897556
254	0xbda8d406	-0.08243565
255	0xbd0a29fb	-0.033731442

layers.0.bias f4 [384]
0	0xbe0750a3	-0.13214354
1	0x3d668167	0.05627575
2	0x3d213f28	0.03936687
3	0x3e5779c7	0.21042548
4	0x3e895a12	0.2682653
5	0x3dc0ee21	0.094204195
6	0xbf221287	-0.6330952
7	0xbdbbfeb8	-0.09179443
8	0x3d851bfd	0.06499479
9	0xbf1aea27	-0.6051354
10	0x3e5c8548	0.21535218
11	0xbdc962df	-0.09833311
12	0x3d6d277d	0.057898987
13	0x3e59adac	0.21257657
14	0xbf2af73f	-0.6678352
15	0x3dc574cc	0.09641418
16	0x3e1a0b2b	0.15043323
17	0xbddb77f1	-0.107162364
18	0x3ec90b1d	0.3926629
19	0xbe5d88e6	-0.21634254
20	0xbcc91a35	-0.02454863
21	0x3e2f6097	0.1712669
22	0x3da1a4e7	0.07892781
23	0x3ea452ef	0.32094523
24	0xbda335e8	-0.07969266
25	0x3e93e603	0.28886423
26	0xbedad1a1	-0.4273806
27	0x3ecc2d38	0.3987825
28	0xbeb6060e	-0.35551494
29	0xbd0a8a21	-0.033823136
30	0xbebf3bf9	-0.37350443
31	0x3e72f771	0.23727204
32	0xbe805736	-0.25066537
33	0xbe6a035a	-0.22852841
34	0xbd1f8dfb	-0.038953763
35	0xbea67acc	-0.32515562
36	0x3e1f7929	0.15573563
37	0xbd307056	-0.043075882
38	0x3cd9f0df	0.026604114
39	0xbeed44c9	-0.4634154
40	0x3e1deb67	0.1542183
41	0xbe8aca8a	-0.2710765
42	0xbd3ee34f	-0.046603497
43	0xbeb8d87f	-0.36102673
44	0xbec05921	-0.37568
45	0x3cd95b38	0.026532754
46	0xbf29c767	-0.6631989
47	0x3da51538	0.08060688
48	0xbc65b97e	-0.014021276
49	0x3d306790	0.043067515
50	0x3e9a8340	0.3017826
51	0x3e2afde1	0.1669841
52	0x3c3f3fac	0.011672895
53	0x3e2067bd	0.15664573
54	0xbe6e5901	-0.2327614
55	0x3d7d4d06	0.061841033
56	0x3e914268	0.28370976
57	0xbf0c6ca7	-0.5485329
58	0x3e04bced	0.12962694
59	0xbd529a2f	-0.051416572
60	0x3c1a1509	0.009404429
61	0x3ea9bee5	0.33153453
62	0x3e3e8b38	0.18607795
63	0xbe7b773d	-0.24557205
64	0x3c83b4d8	0.016077444
65	0x3eb13f81	0.34618762
66	0xbe6602de	-0.22462031
67	0xbe6b9407	-0.23005687
68	0x3daa3a24	0.08311871
69	0xbec3731a	-0.38173753
70	0x3d8ef556	0.06980388
71	0x39f3a2e3	0.00046469932
72	0xbe88a0dd	-0.2668523
73	0x3e3a399c	0.18186039
74	0x3ed054dc	0.40689743
75	0xbe81c986	-0.25349063
76	0xbe83004b	-0.2558616
77	0x3e28751e	0.16450927
78	0xbf0f1e3b	-0.55905503
79	0xbe1693f5	-0.14704879
80	0x3c671321	0.014103682
81	0x3e6d48b3	0.23172264
82	0xbb766682	-0.003759772
83	0xbe952f5b	-0.29137692
84	0x3d12fe0d	0.035886813
85	0xbe8cebe1	-0.2752371
86	0x3e48c84b	0.19607656
87	0xbf1138ff	-0.56727594
88	0x3db33dd9	0.08752031
89	0xbd78e636	-0.06076642
90	0xbc763e04	-0.015029434
91	0xbdf3ecf1	-0.11910427
92	0x3ef98056	0.48730725
93	0x3d9ef23b	0.077610455
94	0xbd9bb557	-0.07602947
95	0xbc0509f1	-0.008120046
96	0x3dc7b0db	0.097505294
97	0xbdcb037b	-0.09912773
98	0x3e739661	0.23787834
99	0xbe5dfacb	-0.21677701
100	0xbed5705d	-0.4168729
101	0x3dfb97f6	0.122848436
102	0xbe7b93dd	-0.24568124
103	0xbe90ad4a	-0.2825721
104	0x3e9ee5da	0.31034738
105	0xbc6baa8c	-0.014383923
106	0xbf03d3ba	-0.51494944
107	0x3e8bc5f5	0.27299467
108	0x3e2e1adf	0.17002438
109	0x3dcf2bd8	0.101157844
110	0xbdc414ba	-0.09574266
111	0x3da1c869	0.07899553
112	0xbebe94b4	-0.37222826
113	0xbe6a2d1b	-0.22868769
114	0x3ea7e155	0.32789102
115	0x3e131947	0.14365111
116	0xbf1e2601	-0.6177674
117	0xbdd15aed	-0.10222421
118	0x3cd4ffd3	0.026000893
119	0x3da850a8	0.08218509
120	0xbcc65d52	-0.02421442
121	0xbebe94cb	-0.37222895
122	0x3d8201be	0.063479885
123	0xbe472091	-0.19446017
124	0xbd0b1f7f	-0.033965584
125	0xbe094d34	-0.13408357
126	0xbe3f95b9	-0.18709458
127	0xbe2c4dfa	-0.1682662
128	0xbea2ee08	-0.31822228
129	0xbed1e9d6	-0.40998715
130	0x3e8a879b	0.27056584
131	0x3a9f846c	0.0012170202
132	0x3e6d63a3	0.2318254
133	0x3d8a6028	0.067566216
134	0xbdeb9dac	-0.11504683
135	0x3d895f7c	0.06707665
136	0x3e5bfa1d	0.2148213
137	0x3eb88db5	0.36045614
138	0x3e18c7e1	0.14919998
139	0x3e7e09de	0.24808452
140	0x3d5cfac0	0.05395007
141	0xbf0cce58	-0.55002356
142	0x3c82f19b	0.015984347
143	0xbe466062	-0.19372705
144	0xbe4c1a3a	-0.1993188
145	0xbdfc9534	-0.12333146
146	0x3d8ed846	0.06974845
147	0x3d3f286c	0.04666941
148	0x3e0de01f	0.13855027
149	0xbccff1c0	-0.02538383
150	0x3c0299db	0.007971252
151	0x3e319459	0.17341746
152	0x3dabc051	0.08386291
153	0xbe70064a	-0.23439899
154	0x3d038d2a	0.032117046
155	0x3c8d614e	0.017258313
156	0xbdb83e00	-0.089962006
157	0xbdad44b9	-0.084603734
158	0x3dabfb2a	0.08397515
159	0xbe488733	-0.19582824
160	0xbe9f5f09	-0.31127194
161	0x3ea9091c	0.33014762
162	0x3df7a369	0.12091715
163	0xbd3aec3a	-0.04563544
164	0xbecb82b8	-0.39748168
165	0x3d3f30db	0.04667745
166	0x3e570318	0.20997274
167	0xbefef271	-0.49794343
168	0xbe42e079	-0.19030942
169	0xbf21d8f2	-0.6322166
170	0xbf0aae20	-0.54171944
171	0x3d2158e8	0.03939143
172	0x3d920b6e	0.07131086
173	0xbecba7a2	-0.3977633
174	0x3d43c63b	0.04779647
175	0xbf02911c	-0.5100267
176	0xbdc8a555	-0.097971596
177	0x3ef9166f	0.48649928
178	0x3e8df34c	0.27724683
179	0xbec06b62	-0.37581927
180	0x3d337c1a	0.043819524
181	0x3ba8bde1	0.0051495885
182	0x3e0d06db	0.13772146
183	0x3e253f0d	0.16137333
184	0x3d268890	0.04065758
185	0x3e511e72	0.2042177
186	0x3e069d42	0.13145927
187	0x3de77e0a	0.11303337
188	0x3df677a0	0.120345354
189	0x3d8716f1	0.065961726
190	0x3ccd2d9b	0.02504616
191	0xbefa1aa1	-0.4884844
192	0xbeb6b57a	-0.3568533
193	0x3e9cc145	0.30616203
194	0xbd92b8be	-0.07164143
195	0x3e385f9b	0.1800522
196	0x3e8fded8	0.28099704
197	0x3d931c5d	0.07183144
198	0xbe2a994c	-0.1666004
199	0xbb7fb53d	-0.0039017939
200	0x3d57468d	0.052557517
201	0x3e7f19f4	0.24912244
202	0x3da62f78	0.08114523
203	0xbec2a90e	-0.38019603
204	0x3e39d065	0.18145902
205	0xbc965dbf	-0.018355248
206	0xbe86496a	-0.26227885
207	0xbcb8a582	-0.022539858
208	0xbdaaff94	-0.08349529
209	0x3ebaa193	0.36451396
210	0xbd4ab2e5	-0.049487013
211	0x3ecb882b	0.39752325
212	0xbe003208	-0.12519085
213	0xbeab54b2	-0.33463055
214	0xbd54b868	-0.051933676
215	0x3eeec874	0.4663731
216	0xbd9612ba	-0.073277906
217	0x3ea4dc7c	0.32199466
218	0xbe2eb297	-0.17060314
219	0xbdc1cc9f	-0.094628565
220	0xbe19a64f	-0.15004848
221	0xbe77ece8	-0.24211466
222	0xbd9e5b55	-0.07732264
223	0xbafa0971	-0.00190763
224	0x3ddb3592	0.10703577
225	0xbe15e9c9	-0.14639963
226	0x3d1d0f2b	0.038344543
227	0xbdcb8e7e	-0.099392876
228	0xbea23b48	-0.31685853
229	0x3f017157	0.5056357
230	0x3e4f41e3	0.20239978
231	0x3d855e94	0.0651218
232	0x3dc8d98a	0.09807117
233	0xbcfa766c	-0.030574046
234	0xbe7d52ba	-0.24738589
235	0xbe7bd23a	-0.24591914
236	0xbe126695	-0.14296944
237	0x3d315d8a	0.043302096
238	0x3d38aaf9	0.045084927
239	0x3dbbe455	0.0917441
240	0xbdcc3a41	-0.099720486
241	0x3e0266d1	0.12734534
242	0xbeb97204	-0.362198
243	0x3cafdc47	0.021467341
244	0xbefd3830	-0.4945693
245	0x3e57cbcb	0.21073835
246	0x3e21ffe3	0.1582027
247	0x3e9c043d	0.30471984
248	0x3e15877e	0.14602467
249	0x3dfca590	0.12336266
250	0x3ee47acf	0.44624946
251	0xbe59cab8	-0.21268737
252	0x3ead0bf2	0.33798176
253	0xbe8690a4	-0.26282227
254	0xbc817862	-0.015804473
255	0xbbb47c9a	-0.0055080177

layers.2.weight f4 [384]
0	0x3ef5a20d	0.47975197
1	0x3f6b5c03	0.91937274
2	0x3f3cbfaa	0.73729956
3	0x3f5ffb9d	0.87493306
4	0x3f463561	0.774252
5	0x3f6ec9cb	0.9327666
6	0x3f2602ff	0.6484832
7	0x3f33fe3e	0.7030982
8	0x3f42e045	0.7612346
9	0x3f239c80	0.63910675
10	0x3f4c434c	0.79790187
11	0x3f37fe08	0.71871996
12	0x3f6ab2a3	0.9167883
13	0x3f46eea1	0.7770787
14	0x3f173549	0.5906568
15	0x3f6f51e3	0.93484324
16	0x3f4d5a7e	0.80216205
17	0x3f07e31b	0.5308091
18	0x3f53dba0	0.82756996
19	0x3f61afa4	0.8815863
20	0x3f54152e	0.8284482
21	0x3f4ef046	0.8083538
22	0x3f3337c9	0.70006996
23	0x3f684f93	0.9074642
24	0x3f4ed795	0.807977
25	0x3f65b70c	0.8973243
26	0x3efa0fb4	0.48840106
27	0x3f4bf4f1	0.79670626
28	0x3f33cea4	0.70237184
29	0x3f478e9c	0.7795198
30	0x3f44f8ce	0.76942146
31	0x3f567fc5	0.8378871
32	0x3f6910e3	0.9104139
33	0x3f72b6fa	0.9481045
34	0x3f75315a	0.9577843
35	0x3f0ffd74	0.56246114
36	0x3f3c4d14	0.7355511
37	0x3f473230	0.77810955
38	0x3f4f0901	0.80873114
39	0x3ebed8c4	0.37274754
40	0x3f5b6507	0.8570103
41	0x3f5746f9	0.8409267
42	0x3f66ab20	0.90104866
43	0x3f35ac63	0.70966166
44	0x3f1c0782	0.60948956
45	0x3f2b08df	0.6681041
46	0x3f1430e6	0.57887113
47	0x3f4d62cc	0.8022888
48	0x3f4a1198	0.78933096
49	0x3f4b6940	0.79457474
50	0x3f57419f	0.84084505
51	0x3f5bf980	0.8592758
52	0x3f2ce3bc	0.67534995
53	0x3f53e087	0.82764477
54	0x3f5e303c	0.8679235
55	0x3f640f9f	0.89086336
56	0x3f520df0	0.82052517
57	0x3f10c42f	0.5654935
58	0x3f370963	0.714987
59	0x3f3d73f9	0.74005085
60	0x3f139ec0	0.5766411
61	0x3f388fb2	0.7209426
62	0x3f785b63	0.97014445
63	0x3f882b05	1.0638129
64	0x3f2a0f4b	0.66429585
65	0x3f5145d5	0.8174718
66	0x3f59e24d	0.8511093
67	0x3f305a7b	0.6888806
68	0x3f8fa84e	1.1223238
69	0x3f2da244	0.6782572
70	0x3f494946	0.7862743
71	0x3f59feab	0.8515422
72	0x3f4bfbc3	0.7968103
73	0x3f551298	0.83231497
74	0x3f499d8f	0.7875604
75	0x3f2eb793	0.6824886
76	0x3ea6f8c2	0.32611662
77	0x3f412662	0.7544919
78	0x3f194c83	0.5988237
79	0x3f11417e	0.5674056
80	0x3f4f9fce	0.8110322
81	0x3f54cd86	0.83126104
82	0x3f4023b9	0.7505451
83	0x3f48c59b	0.7842652
84	0x3f33782b	0.70105237
85	0x3f378b0a	0.7169653
86	0x3f6c46d9	0.92295605
87	0x3f19784e	0.59949195
88	0x3f6469f8	0.89224195
89	0x3f5e8392	0.8691951
90	0x3f27a6ad	0.654887
91	0x3f1c6ad5	0.6110051
92	0x3f59ec51	0.85126215
93	0x3f240630	0.6407194
94	0x3f5ff006	0.8747562
95	0x3f530a59	0.82437664
96	0x3f896798	1.0734739
97	0x3f722a66	0.94595945
98	0x3f2fb1fb	0.6863095
99	0x3f46dc0a	0.776795
100	0x3f5703e8	0.83990335
101	0x3f9fbe33	1.2479919
102	0x3f61fda7	0.8827767
103	0x3f4a9ccb	0.791455
104	0x3f4deb94	0.8043759
105	0x3f6a5826	0.91540754
106	0x3f5b489d	0.85657674
107	0x3f4a280f	0.78967375
108	0x3f2ebf23	0.682604
109	0x3f3c2e6e	0.73508346
110	0x3f64c0dc	0.8935678
111	0x3f532f1c	0.8249376
112	0x3f116362	0.5679227
113	0x3f28db27	0.659594
114	0x3f2f7327	0.68535084
115	0x3f67a544	0.9048655
116	0x3f27464f	0.6534166
117	0x3f4c79ad	0.7987316
118	0x3f3e8fb2	0.7443801
119	0x3f49b91f	0.787981
120	0x3f4a413c	0.7900579
121	0x3f3a97ca	0.7288786
122	0x3f2283fe	0.63482654
123	0x3f5147c1	0.8175011
124	0x3f3cf996	0.7381834
125	0x3f50e12a	0.81593573
126	0x3f4bda19	0.79629666
127	0x3f614d2e	0.8800839
128	0x3f15a10c	0.58448863
129	0x3ea3b1d8	0.31971622
130	0x3f3858ad	0.7201031
131	0x3f6691f2	0.90066445
132	0x3f3827e5	0.71935874
133	0x3f77fc57	0.96869415
134	0x3f50972b	0.81480664
135	0x3f2e65eb	0.68124264
136	0x3f5e74e2	0.868971
137	0x3f442c90	0.76630497
138	0x3f2f965c	0.68588805
139	0x3f3f5a4f	0.74747175
140	0x3f49bd65	0.7880462
141	0x3f0a3a96	0.53995645
142	0x3f2c4933	0.67299193
143	0x3f568d32	0.83809197
144	0x3f4b7eb6	0.7949022
145	0x3f4bdb31	0.79631335
146	0x3f97f4bf	1.1871566
147	0x3f44a531	0.7681456
148	0x3f5bd7fa	0.8587643
149	0x3f5ad414	0.85479856
150	0x3f4d154c	0.8011062
151	0x3f465ef5	0.7748864
152	0x3f391222	0.72293293
153	0x3f793aad	0.9735516
154	0x3f3884cc	0.7207763
155	0x3f399ce0	0.72505
156	0x3f4a0535	0.78914195
157	0x3f2f6ed1	0.6852847
158	0x3f76f05a	0.964605
159	0x3f4ab46e	0.79181564
160	0x3f62936e	0.8850621
161	0x3f33d40b	0.70245427
162	0x3f84d79c	1.0378299
163	0x3f3038e6	0.6883682
164	0x3f1c1c26	0.6098045
165	0x3f87ec40	1.0618973
166	0x3f8332f5	1.0249926
167	0x3f651270	0.8948126
168	0x3f391918	0.72303915
169	0x3f4a48ee	0.7901753
170	0x3f57fc6b	0.84369534
171	0x3f5209d3	0.8204624
172	0x3f528567	0.82234806
173	0x3f4cdfd8	0.8002906
174	0x3f75db55	0.960378
175	0x3f3276d6	0.6971258
176	0x3f3ee1eb	0.74563473
177	0x3f15ba17	0.58487076
178	0x3f11178e	0.56676567
179	0x3f52f02e	0.82397735
180	0x3f42731a	0.7595688
181	0x3f8204a6	1.0157669
182	0x3f2df5a9	0.6795297
183	0x3f59e234	0.85110784
184	0x3f6fdbc0	0.93694687
185	0x3f78912b	0.9709651
186	0x3f603da7	0.87594074
187	0x3f3d6c5e	0.7399348
188	0x3f4c5be8	0.7982774
189	0x3f3de91e	0.74183834
190	0x3f6b14bd	0.9182852
191	0x3f4a8f3c	0.7912481
192	0x3f55d67a	0.8353039
193	0x3f795d8a	0.97408354
194	0x3f4d27e5	0.80139
195	0x3f29d033	0.6633331
196	0x3f5dbbd7	0.86614746
197	0x3f54cb54	0.83122754
198	0x3f6a6618	0.9156203
199	0x3f493fda	0.78613055
200	0x3f2546a2	0.645609
201	0x3f5bb6f9	0.8582607
202	0x3f79bce3	0.97553843
203	0x3f45f0a8	0.7732034
204	0x3f77abab	0.9674632
205	0x3f7dd1b6	0.9914812
206	0x3f59307f	0.84839624
207	0x3f5d5dad	0.8647106
208	0x3f570371	0.83989626
209	0x3f450b5c	0.7697046
210	0x3f17eec2	0.5934869
211	0x3f246f40	0.64232254
212	0x3f259603	0.64682025
213	0x3f3fcf17	0.7492537
214	0x3f499a7c	0.7875135
215	0x3f4b7345	0.7947276
216	0x3f379cdb	0.7172372
217	0x3f5693ee	0.8381947
218	0x3f12bc56	0.5731863
219	0x3f5491ce	0.8303498
220	0x3f8153c3	1.0103687
221	0x3f2d6f8c	0.6774833
222	0x3f665d64	0.8998625
223	0x3f44c4c5	0.76862746
224	0x3f92271f	1.1418189
225	0x3f88c44c	1.0684905
226	0x3f6506cf	0.89463514
227	0x3f39b483	0.72541064
228	0x3f59ed15	0.85127383
229	0x3f571c87	0.84027904
230	0x3f584779	0.8448406
231	0x3f49349f	0.7859592
232	0x3f80d157	1.0063885
233	0x3f522cb5	0.8209947
234	0x3f723292	0.94608414
235	0x3f4eda7f	0.8080215
236	0x3f43c5ff	0.76473993
237	0x3f62d25b	0.88602227
238	0x3f7f2c05	0.99676543
239	0x3f552e1d	0.8327349
240	0x3f878d34	1.0589967
241	0x3f438fa1	0.76391035
242	0x3f54f5b7	0.8318743
243	0x3f880c89	1.0628825
244	0x3eec1027	0.46106073
245	0x3f54210e	0.8286294
246	0x3f35fadb	0.710859
247	0x3f82b263	1.0210689
248	0x3f5f844a	0.8731123
249	0x3f5b81b3	0.8574478
250	0x3f3c82b0	0.73636913
251	0x3f51222b	0.8169276
252	0x3f4f33cd	0.80938417
253	0x3f6cd5e4	0.9251387
254	0x3f654370	0.89556026
255	0x3f3afc11	0.7304087

layers.2.bias f4 [384]
0	0xbe2ee5c4	-0.17079836
1	0xbf6058bb	-0.8763539
2	0xbe9a0105	-0.30078903
3	0xbf0cfde7	-0.55074924
4	0xbe2974fc	-0.16548532
5	0xbf3d8166	-0.7402557
6	0xbe203651	-0.1564572
7	0xbf15d03e	-0.5852088
8	0xbed1ec27	-0.41000482
9	0x3d6f32a2	0.058397897
10	0xbf19add0	-0.6003084
11	0xbee2b7b6	-0.44280785
12	0xbf0adba4	-0.54241395
13	0xbf3326d1	-0.69981104
14	0x3e3a2d05	0.18181236
15	0xbf524cdf	-0.82148546
16	0xbeb046d3	-0.34429035
17	0xbcd914e2	-0.026499216
18	0xbee54795	-0.44781175
19	0xbf4b8741	-0.79503256
20	0xbebc2a24	-0.367509
21	0xbf0ade71	-0.5424567
22	0xbef2707b	-0.4735144
23	0xbf2bae29	-0.6706262
24	0xbf1a1e15	-0.6020215
25	0xbf21ca88	-0.63199663
26	0xbe0721d7	-0.13196503
27	0xbf265992	-0.64980423
28	0xbd6f1004	-0.058364883
29	0xbea1f08e	-0.3162884
30	0x3c85b3e7	0.016321136
31	0xbf416455	-0.7554372
32	0xbe8364e3	-0.25662908
33	0xbe78d1bd	-0.24298759
34	0xbe1bd499	-0.15217818
35	0xbdb93831	-0.09043921
36	0xbf3152ef	-0.6926717
37	0xbeb4c69a	-0.3530777
38	0xbeac828c	-0.3369335
39	0x3dfebd5f	0.124384634
40	0xbf08dfb9	-0.53466374
41	0xbe8e5edc	-0.27806747
42	0xbf6d0601	-0.92587286
43	0xbeae7bd1	-0.3407884
44	0xbeb85373	-0.36001167
45	0xbe9be9c3	-0.30451784
46	0xbe975bd2	-0.2956224
47	0xbf21fb8e	-0.63274467
48	0xbf1ec1fc	-0.62014747
49	0xbef9a069	-0.48755196
50	0xbf1e4154	-0.6181843
51	0xbed5b90c	-0.41742742
52	0xbeb62649	-0.35576084
53	0xbf4956ea	-0.78648245
54	0xbf1ae91d	-0.6051195
55	0xbf3ee219	-0.7456375
56	0xbf2ca316	-0.6743635
57	0x3d0556cf	0.03255349
58	0xbec23c16	-0.37936467
59	0xbf01ecfe	-0.50752246
60	0xbddec21e	-0.10876869
61	0xbe87a9da	-0.26496774
62	0xbf5ef9b3	-0.8709976
63	0xbf90d804	-1.1315923
64	0xbe23d847	-0.16000472
65	0xbe376c01	-0.17912294
66	0xbdb91efa	-0.090391114
67	0xbf010a60	-0.50406456
68	0xbf9121b3	-1.1338409
69	0xbe11bc12	-0.142319
70	0xbf2207a6	-0.6329292
71	0xbf01c534	-0.50691533
72	0xbeebb61d	-0.4603738
73	0xbf13b8bd	-0.57703763
74	0xbf3685e3	-0.71298045
75	0xbe379af0	-0.17930198
76	0x3d9e45e2	0.07728173
77	0xbeec76d2	-0.46184403
78	0xbda79f97	-0.08184736
79	0x3e05c564	0.1306358
80	0xbf08a936	-0.53383195
81	0xbf2c5bd9	-0.6732765
82	0xbdc7d922	-0.09758212
83	0xbedc044b	-0.42972025
84	0x3e05aacb	0.13053434
85	0xbd427256	-0.04747232
86	0xbf427127	-0.75953907
87	0x3e3e2764	0.18569714
88	0xbf513ae7	-0.817305
89	0xbf305003	-0.6887209
90	0xbe88c771	-0.26714662
91	0xbe55ee02	-0.20891574
92	0xbef3ea7f	-0.47639844
93	0xbe9094a8	-0.28238416
94	0xbf186da1	-0.5954228
95	0xbded4b2e	-0.11586605
96	0xbf7dac5e	-0.99091136
97	0xbf89ca33	-1.0764831
98	0xbf502f60	-0.8132229
99	0xbeb3c66c	-0.3511232
100	0xbec380ba	-0.38184148
101	0xbfa9493c	-1.3225474
102	0xbf064822	-0.52453816
103	0xbed24973	-0.41071662
104	0xbf4c062f	-0.79696935
105	0xbf858a6d	-1.0432869
106	0xbeccf1f2	-0.4002834
107	0xbe289e58	-0.16466653
108	0xbf24ad45	-0.6432689
109	0xbea154b7	-0.31509945
110	0xbf55d11a	-0.8352219
111	0xbe5f6faa	-0.2181994
112	0xbe43e7bd	-0.1913137
113	0xbdccaff2	-0.099944964
114	0xbea434b6	-0.32071465
115	0xbf14c48b	-0.581124
116	0xbee6094b	-0.44928965
117	0xbf02bed7	-0.5107245
118	0xbedc3c64	-0.43014824
119	0xbeb07d14	-0.34470427
120	0xbf2c093a	-0.6720158
121	0xbd3e7861	-0.04650152
122	0xbd1d1f1d	-0.03835975
123	0xbee72fc5	-0.45153633
124	0xbe452f84	-0.19256407
125	0xbeb4ab5e	-0.35286993
126	0xbf09cd56	-0.5382894
127	0xbf25da3d	-0.6478613
128	0xbd5f0a6e	-0.054453306
129	0x3cdfbabd	0.027310723
130	0xbf33bb45	-0.70207626
131	0xbf8b860f	-1.0900286
132	0xbf1d282a	-0.6138941
133	0xbf864676	-1.0490253
134	0xbf1b189f	-0.60584444
135	0xbecfcf49	-0.40587834
136	0xbf11d3d2	-0.5696384
137	0xbe8909b8	-0.26765227
138	0xbeb565e1	-0.3542929
139	0xbee99bd0	-0.45626688
140	0xbf4889ad	-0.78335077
141	0xbe095cd4	-0.13414317
142	0xbed2ea4f	-0.41194388
143	0xbeb7fbbb	-0.35934243
144	0xbf0a70e2	-0.54078496
145	0xbe98644c	-0.2976402
146	0xbfa13271	-1.2593518
147	0xbf0b3c1f	-0.5438861
148	0xbe9264b2	-0.2859245
149	0xbf483348	-0.7820325
150	0xbf851b78	-1.0399008
151	0xbedff2e8	-0.4374001
152	0xbf15dc05	-0.5853885
153	0xbe911b0e	-0.28340954
154	0xbf232daa	-0.6374155
155	0xbf053a8f	-0.5204248
156	0xbf0be9fe	-0.5465392
157	0xbe1974b8	-0.14985931
158	0xbf56a103	-0.83839434
159	0xbeea8cd5	-0.4581057
160	0xbeb39363	-0.35073385
161	0xbf2069f5	-0.6266168
162	0xbf781a87	-0.9691548
163	0xbecb9ce1	-0.39768127
164	0xbe45018e	-0.19238874
165	0xbf962acf	-1.1731814
166	0xbf84426f	-1.0332774
167	0xbd6217eb	-0.05519859
168	0xbed5def8	-0.41771674
169	0xbed7ff30	-0.4218688
170	0xbea4e33b	-0.32204613
171	0xbece964a	-0.40349036
172	0xbf4b6f90	-0.79467106
173	0xbf1152a1	-0.56766707
174	0xbf73ff19	-0.95311123
175	0xbe85515e	-0.2603864
176	0xbf0b94ca	-0.5452391
177	0xbeb6f226	-0.3573162
178	0xbe08e7e3	-0.13369708
179	0xbd107468	-0.035267264
180	0xbf214e4e	-0.6301011
181	0xbf8385f9	-1.027526
182	0xbe8c6fe3	-0.27429113
183	0xbf152d6a	-0.5827242
184	0xbee2f237	-0.4432542
185	0xbec9656f	-0.393352
186	0xbf45d78f	-0.7728204
187	0xbf1d77fb	-0.615112
188	0xbf177a0e	-0.59170616
189	0xbf33dfd7	-0.7026343
190	0xbf97178d	-1.1804062
191	0xbe354e45	-0.17705639
192	0xbed75ccc	-0.42062986
193	0xbe5e7e88	-0.21727955
194	0xbf4aaecf	-0.79172987
195	0xbdc60dbe	-0.0967059
196	0xbf489252	-0.7834827
197	0xbdef8abf	-0.116963856
198	0xbeb4380a	-0.35199004
199	0xbecdcfe0	-0.4019766
200	0xbf00425f	-0.50101274
201	0xbf2e7a49	-0.6815534
202	0xbf77a213	-0.9673168
203	0xbec2d946	-0.3805639
204	0xbf1e13d7	-0.61749023
205	0xbe66af9e	-0.2252793
206	0xbe8e20aa	-0.27759296
207	0xbee1190b	-0.4396442
208	0xbefa6776	-0.4890706
209	0xbe8d4d72	-0.2759815
210	0xbe12ba93	-0.14328985
211	0xbeb3b697	-0.35100242
212	0xbeb4ed57	-0.35337326
213	0xbe928e5a	-0.2862423
214	0xbed71623	-0.42009076
215	0xbf0d04be	-0.5508536
216	0xbe920e28	-0.28526425
217	0xbef45c44	-0.47726643
218	0xbe1c77f7	-0.15280138
219	0xbeec430f	-0.46144912
220	0xbd57e9f5	-0.052713353
221	0xbed43859	-0.4144924
222	0xbf47a164	-0.7798064
223	0xbeeb5305	-0.45961776
224	0xbf9a4987	-1.2053689
225	0x3e21981a	0.15780678
226	0xbeedfa91	-0.4648023
227	0xbee223c7	-0.4416792
228	0xbe88333a	-0.26601583
229	0xbf0e0d1f	-0.5548877
230	0xbf2d802e	-0.6777371
231	0xbf2e00a9	-0.6796976
232	0xbf8a8db6	-1.0824497
233	0xbf2b8b2d	-0.6700924
234	0xbf39f21c	-0.72635055
235	0xbeb5fe64	-0.35545647
236	0xbf3ebcf3	-0.74507064
237	0xbf57a911	-0.8424235
238	0xbf9be2b4	-1.2178559
239	0xbf0702c8	-0.5273862
240	0xbf874bca	-1.0570004
241	0xbee66f51	-0.45006803
242	0xbf0f0ac2	-0.5587579
243	0xbfa2104b	-1.2661222
244	0x3cd449f1	0.025914164
245	0xbf0fe096	-0.56202066
246	0xbf0d817b	-0.55275697
247	0xbf82088d	-1.015886
248	0xbed46611	-0.4148412
249	0xbf1c6a22	-0.61099446
250	0xbee35d82	-0.44407278
251	0xbf484769	-0.78233963
252	0xbf17ba87	-0.59268993
253	0xbf000778	-0.50011396
254	0xbf4037b3	-0.7508499
255	0xbece0f3c	-0.40245998

layers.2.running_mean f4 [384]
0	0x3ee7fe5d	0.4531125
1	0xbef1c405	-0.47219864
2	0xbe5c9efe	-0.21545026
3	0xbe877db3	-0.26463088
4	0xbd3d80ff	-0.0462656
5	0xbec4c9a8	-0.38435102
6	0x3dcccf5e	0.1000049
7	0xbeadd9c9	-0.3395522
8	0xbe7b898a	-0.24564186
9	0x3cc0cb27	0.02353437
10	0xbe6c5963	-0.23080973
11	0xbe2d0f47	-0.16900359
12	0xbe16b362	-0.14716867
13	0xbe03cc8c	-0.12870997
14	0x3df697bb	0.12040659
15	0xbf086aa8	-0.53287745
16	0xbe24e9fc	-0.16104883
17	0x3d089bd3	0.03335173
18	0xbe5efd6e	-0.21776363
19	0xbe68d2f5	-0.22736724
20	0xbe0f4ab4	-0.1399334
21	0xbebdef46	-0.37096614
22	0xbeb340cf	-0.35010383
23	0xbeb75b88	-0.3581202
24	0xbe87334a	-0.26406318
25	0xbde6d9cc	-0.1127201
26	0x3d8b346c	0.06797108
27	0xbe9c0e97	-0.3047988
28	0x3bbfdf11	0.005855449
29	0xbd8db87b	-0.069199525
30	0x3d061887	0.032738235
31	0xbe89e225	-0.26930347
32	0xbd2ed368	-0.04268208
33	0xba0379a2	-0.0005015378
34	0x3d7b82f3	0.06140418
35	0x3d1bc18b	0.038026374
36	0xbeb1a8e1	-0.34699157
37	0xbdaf318b	-0.085543714
38	0xbdc03d8a	-0.09386738
39	0x3ea4e589	0.3220637
40	0xbdac5b02	-0.08415796
41	0xbd8a525a	-0.067539886
42	0xbf0ed9b4	-0.5580094
43	0xbd8aa520	-0.06769776
44	0xbe027e49	-0.12743486
45	0xbd3adacb	-0.045618813
46	0xbd95609a	-0.07293816
47	0xbec7d804	-0.39031994
48	0xbe5f5cfa	-0.21812811
49	0xbe97e185	-0.29664245
50	0xbe046efa	-0.12932959
51	0xbe12aa5c	-0.143228
52	0xbdf281fe	-0.118412
53	0xbe929020	-0.28625584
54	0xbe0d7f06	-0.13817987
55	0xbe57f821	-0.21090747
56	0xbed0f37c	-0.40810764
57	0x3c9d5cb7	0.019209249
58	0xbe388423	-0.18019156
59	0xbde41d06	-0.11138348
60	0xbc7ea6d1	-0.015542702
61	0xbd8d59c8	-0.0690189
62	0xbf2821a1	-0.65676314
63	0xbe8d1e7b	-0.27562317
64	0xbd4b2c52	-0.049602814
65	0xbd577c8a	-0.052609004
66	0x3d76d02b	0.06025712
67	0xbe27247c	-0.16322511
68	0xbf389849	-0.7210737
69	0x3cbfe9a2	0.023426834
70	0xbeeedb1b	-0.4665154
71	0xbe06d043	-0.13165383
72	0xbe4c1a7d	-0.1993198
73	0xbeb41cdf	-0.35178277
74	0xbe841433	-0.2579666
75	0x3ceecb50	0.029149681
76	0x3e91b2fb	0.28456864
77	0xbda5c80c	-0.080947965
78	0x386aa9f0	5.5948214e-05
79	0x3e158931	0.14603116
80	0xbdec73ff	-0.11545562
81	0xbe4909ed	-0.19632693
82	0xbe39802c	-0.181153
83	0x3d3941f7	0.045228925
84	0x3b835a8e	0.0040085977
85	0x3d7fed6d	0.062482286
86	0xbf083283	-0.53202075
87	0x3d57ad05	0.05265524
88	0xbe8b0d01	-0.2715836
89	0xbe2a988f	-0.16659759
90	0xbd2a4b9a	-0.041576006
91	0xbd256cf5	-0.040387113
92	0xbdd91265	-0.105992116
93	0xbc4e2a0f	-0.01258327
94	0xbde1d4d3	-0.11026921
95	0x3d544f86	0.051833652
96	0xbf1bd0cd	-0.6086548
97	0xbf0c2f7d	-0.5475996
98	0xbee861ed	-0.4538721
99	0xbd9ee9e2	-0.07759453
100	0xbd7e46ec	-0.062079355
101	0xbf3254a7	-0.6966042
102	0xbdb92e8c	-0.09042081
103	0xbdd27071	-0.10275353
104	0xbea2c4f9	-0.31790903
105	0xbf1201ae	-0.57033813
106	0xbdd8a2a6	-0.10577898
107	0xbc1aa3e0	-0.009438485
108	0xbe7ccaae	-0.24686691
109	0xbdfa434c	-0.12219867
110	0xbe6c7933	-0.23093109
111	0xbc9a362e	-0.018824663
112	0xbdf779da	-0.12083788
113	0x3b1d6f13	0.0024022504
114	0xbd8ace3a	-0.06777616
115	0xbe851d8b	-0.25999102
116	0xbe0bbdcd	-0.13646622
117	0xbe5d027f	-0.21582983
118	0xbe1bf6cd	-0.15230866
119	0xbe8b9ff8	-0.27270484
120	0xbd89063d	-0.06690643
121	0xbe048058	-0.12939584
122	0x3cc5cfbc	0.024146907
123	0xbd7dc862	-0.061958678
124	0xbc9cd230	-0.019143194
125	0xbd900215	-0.07031647
126	0xbe6fc1c3	-0.23413758
127	0xbe801626	-0.25016898
128	0x3ccc552b	0.024942955
129	0x3ddea975	0.10872165
130	0xbe6277ff	-0.22116087
131	0xbed88339	-0.42287615
132	0xbe40799c	-0.1879639
133	0xbf186c16	-0.59539926
134	0xbe4e4a7b	-0.201456
135	0xbdf7885e	-0.12086557
136	0xbe1b5299	-0.15168227
137	0x3c811035	0.015754798
138	0xbdb27c07	-0.087150626
139	0xbe0ee2a8	-0.1395365
140	0xbe6455ed	-0.22298403
141	0x3e0b1503	0.13582234
142	0xbe4ea5d7	-0.2018045
143	0xbd953d7d	-0.072871186
144	0xbe80c591	-0.2515073
145	0xbd861a1f	-0.06547951
146	0xbf4777fd	-0.7791746
147	0xbe2caed7	-0.16863571
148	0xbd0cafea	-0.034347452
149	0xbe98e766	-0.29864043
150	0xbefd1873	-0.49432716
151	0xbe16e4c1	-0.147357
152	0xbe937a2e	-0.28804153
153	0x3c0b63c2	0.008507671
154	0xbe857ebc	-0.26073253
155	0xbe791ecc	-0.24328154
156	0xbd761468	-0.060078055
157	0xbc88496d	-0.016636575
158	0xbecc4d91	-0.39902928
159	0xbd59999a	-0.053125
160	0xbd041719	-0.03224859
161	0xbe5d68d6	-0.21622023
162	0xbf1dd51f	-0.6165332
163	0xbdc8a21b	-0.09796544
164	0x3d84bd66	0.064814374
165	0xbf13487a	-0.57532465
166	0xbe889736	-0.26677865
167	0xbbf0e6ab	-0.0073517165
168	0xbdf93e80	-0.12170124
169	0x3d849249	0.06473214
170	0xbcf7937d	-0.030221695
171	0xbd3df3b6	-0.046375
172	0xbe86ee37	-0.26353619
173	0xbd338532	-0.043828197
174	0xbef45530	-0.47721243
175	0xbd384124	-0.044983998
176	0xbea05059	-0.313113
177	0xbe1041e7	-0.1408764
178	0xbc8f8615	-0.01751999
179	0x3ddd3414	0.10800949
180	0xbeb59da0	-0.3547182
181	0xbe937868	-0.288028
182	0xbd114261	-0.035463694
183	0xbe3edca0	-0.1863885
184	0xbe65de06	-0.22447976
185	0xbe500fca	-0.20318523
186	0xbe9d5b2e	-0.30733627
187	0xbe7c44c6	-0.2463561
188	0xbe90b549	-0.2826331
189	0xbe933dfc	-0.28758228
190	0xbef50239	-0.47853258
191	0xbca49cbf	-0.020094274
192	0xbd1b66b8	-0.037939757
193	0xbd506919	-0.05088148
194	0xbf01b063	-0.5065977
195	0xbc660ab8	-0.0140406415
196	0xbe856b32	-0.26058346
197	0x3d7a06cc	0.06104164
198	0xbd58ed02	-0.052960403
199	0xbd5cfc45	-0.05395152
200	0xbe362817	-0.1778873
201	0xbed23da4	-0.41062653
202	0xbf05b19b	-0.5222413
203	0x3d5abec7	0.053404596
204	0xbed746c6	-0.42046183
205	0x3db0f40e	0.086403
206	0xbd45f423	-0.04832853
207	0xbd85e74a	-0.065382555
208	0x3d82dadc	0.063894
209	0xbd54a316	-0.051913343
210	0x3cb256bd	0.021769876
211	0xbdbef9d6	-0.09324996
212	0xbe13becf	-0.14428256
213	0xbc1f9ebf	-0.009742438
214	0xbe63815c	-0.22217315
215	0xbe10c7f4	-0.14138776
216	0xbe2617c0	-0.16219997
217	0xbdd4a581	-0.1038313
218	0xbd39fb9c	-0.04540597
219	0xbcd42f06	-0.025901329
220	0x3d72adc0	0.059247732
221	0xbd528ac0	-0.051401854
222	0xbe7135af	-0.23555635
223	0xbdd0c016	-0.101928875
224	0xbf375a3e	-0.71622074
225	0x3e787a0f	0.24265312
226	0xbd96ace5	-0.07357196
227	0xbe5d88f8	-0.2163428
228	0x3d93d349	0.07218034
229	0xbdcb9fb5	-0.09942571
230	0xbea9974b	-0.3312324
231	0xbeb44644	-0.35209858
232	0xbf1578fa	-0.5838772
233	0xbe53ab34	-0.20670778
234	0xbe3fafdb	-0.18719427
235	0xbd09beb9	-0.033629153
236	0xbe21b390	-0.15791154
237	0xbf0297e8	-0.5101304
238	0xbf1151e6	-0.5676559
239	0xbe5803a2	-0.21095136
240	0xbe969530	-0.29410696
241	0xbe719077	-0.23590265
242	0xbe806f66	-0.2508499
243	0xbf2fcd12	-0.6867229
244	0x3ec12d7d	0.37730017
245	0xbe9fb1b1	-0.31190255
246	0xbe56af76	-0.2096537
247	0xbe9f74e9	-0.31143883
248	0xbda4012d	-0.08008037
249	0xbe436e6a	-0.19085088
250	0xbda80b8b	-0.08205327
251	0xbe484ffa	-0.19561759
252	0xbde175c9	-0.11008794
253	0xbe0cb374	-0.13740331
254	0xbe821355	-0.25405374
255	0xbdd352d7	-0.10318535

layers.2.running_var f4 [384]
0	0x3d88280a	0.06648262
1	0x3e24d8c8	0.1609832
2	0x3dbcadcd	0.09212837
3	0x3e3ff9c8	0.18747628
4	0x3d7c6263	0.061617266
5	0x3e032f82	0.12811092
6	0x3d1775d4	0.036977604
7	0x3da552aa	0.080724075
8	0x3dbce954	0.09224191
9	0x3d39bf37	0.045348372
10	0x3d8c63b8	0.06854957
11	0x3da9b643	0.08286717
12	0x3dda1ecc	0.10650405
13	0x3d44e0a5	0.0480658
14	0x3d45785a	0.04821048
15	0x3e3462e2	0.17615846
16	0x3d9122f2	0.070867434
17	0x3d4af359	0.04954848
18	0x3d679cf9	0.056546185
19	0x3dc1c5d2	0.09461559
20	0x3dbb8e86	0.091580436
21	0x3e21c51b	0.15797846
22	0x3df33fa4	0.11877373
23	0x3dcb8e99	0.09939308
24	0x3db9decb	0.090756975
25	0x3d8ef750	0.06980765
26	0x3d59dcfb	0.05318926
27	0x3dfea153	0.12433114
28	0x3d27c041	0.040954832
29	0x3d6a509b	0.057205778
30	0x3d959693	0.073041104
31	0x3d6e9d14	0.05825527
32	0x3dac39eb	0.084094845
33	0x3da8f63a	0.08250089
34	0x3d7666c0	0.060156584
35	0x3d0d6c18	0.034526914
36	0x3dc46397	0.09589308
37	0x3d7de1f1	0.061983053
38	0x3d851290	0.06497681
39	0x3d93231a	0.071844295
40	0x3d9699bc	0.07353541
41	0x3d85b088	0.06527811
42	0x3e60b49a	0.21943894
43	0x3d9df4e5	0.077127255
44	0x3d7513ab	0.05983321
45	0x3d3f01cf	0.046632584
46	0x3d0c549c	0.034260377
47	0x3e0f8191	0.1401427
48	0x3da65d02	0.081232086
49	0x3dd32658	0.10310048
50	0x3d5da6c9	0.054114137
51	0x3d57bb52	0.052668877
52	0x3dc15938	0.09440845
53	0x3d9620b0	0.073304534
54	0x3d8d4ec9	0.06899793
55	0x3da6e1db	0.08148547
56	0x3de94a9a	0.11391182
57	0x3cff96d2	0.031199846
58	0x3d77b58b	0.060475867
59	0x3d8bff78	0.06835836
60	0x3d1d3398	0.03837928
61	0x3d1e954b	0.038716596
62	0x3e8ae9c8	0.27131486
63	0x3d7aeb60	0.061259627
64	0x3d6a99ff	0.05727577
65	0x3d705e08	0.058683425
66	0x3dba09ae	0.090838775
67	0x3dcd56b2	0.100263014
68	0x3ea3a87d	0.31964484
69	0x3d02c71a	0.03192816
70	0x3e2b21fc	0.16712183
71	0x3d7ef353	0.06224377
72	0x3d557a29	0.052118454
73	0x3e08513c	0.13312238
74	0x3da94f28	0.08267051
75	0x3d824f0f	0.063627355
76	0x3d8187b7	0.06324714
77	0x3da8107e	0.08206271
78	0x3d3473db	0.0440558
79	0x3d680ff6	0.056655847
80	0x3d98b016	0.07455461
81	0x3d864a04	0.06557086
82	0x3d969197	0.07351988
83	0x3d4263a8	0.04745832
84	0x3d78c9c0	0.06073928
85	0x3d16b3ad	0.036792446
86	0x3e647388	0.22309697
87	0x3d4a8e9f	0.04945242
88	0x3e0b3ba3	0.13596968
89	0x3de2bac6	0.110707805
90	0x3d133c6d	0.0359463
91	0x3d689b00	0.056788445
92	0x3d1060ce	0.03524857
93	0x3d962222	0.07330729
94	0x3d47cd54	0.0487798
95	0x3d954964	0.07289389
96	0x3e6516e2	0.2237201
97	0x3e5ca87e	0.2154865
98	0x3e0df0db	0.1386141
99	0x3d96cb1a	0.07362957
100	0x3d9f1dac	0.07769331
101	0x3ea22200	0.31666565
102	0x3d70263b	0.05863021
103	0x3d7b1903	0.06130315
104	0x3dcbcab8	0.09950775
105	0x3e65c978	0.22440135
106	0x3dd1f5ed	0.10251985
107	0x3d52bfd9	0.05145249
108	0x3da1832b	0.078863464
109	0x3d78ce69	0.060743723
110	0x3de72c14	0.11287704
111	0x3d6b7223	0.057481896
112	0x3d815877	0.063157015
113	0x3d4039e4	0.04693021
114	0x3d5221c8	0.051301748
115	0x3dea6cd0	0.114465356
116	0x3d4e1fae	0.05032318
117	0x3db4459a	0.08802338
118	0x3d8bd69a	0.068280414
119	0x3dc1cca7	0.094628625
120	0x3d83ec44	0.064415485
121	0x3d4d5610	0.050130904
122	0x3d6f7347	0.058459546
123	0x3d9b7b6d	0.07591901
124	0x3d8ce7b9	0.06880135
125	0x3d8a94fe	0.06766699
126	0x3d9a27c5	0.07527117
127	0x3dca57ea	0.098800495
128	0x3d63ef4c	0.055648133
129	0x3d1b5fdf	0.037933227
130	0x3d8af843	0.067856334
131	0x3e18e300	0.14930344
132	0x3d77a624	0.06046118
133	0x3e53fec8	0.2070266
134	0x3db97f2f	0.090574615
135	0x3d806d72	0.06270875
136	0x3d99dbd3	0.07512631
137	0x3d82aca5	0.063805856
138	0x3d87e6d3	0.06635823
139	0x3d4f2bb1	0.050578777
140	0x3dac4a3b	0.08412596
141	0x3d74125b	0.059587818
142	0x3d7691c6	0.060197614
143	0x3dbb8986	0.0915709
144	0x3d8bc07e	0.06823824
145	0x3d844eca	0.0646034
146	0x3eb9f7e8	0.3632195
147	0x3d50f657	0.051016178
148	0x3d5aa098	0.05337581
149	0x3dddf2e4	0.10837343
150	0x3e2ce0e5	0.16882665
151	0x3d9f8743	0.07789471
152	0x3dbcfb51	0.09227622
153	0x3d5d6f4d	0.054061223
154	0x3dc39ec9	0.0955177
155	0x3d9590cb	0.07303008
156	0x3d884342	0.066534534
157	0x3d38d821	0.04512799
158	0x3e1a2310	0.15052438
159	0x3d7434d4	0.059620693
160	0x3d2dd4aa	0.04243914
161	0x3d64ace1	0.055828933
162	0x3e8d7604	0.276291
163	0x3d918e7c	0.07107255
164	0x3d116c93	0.035503935
165	0x3e5e2a59	0.21695842
166	0x3d89f5d1	0.06736339
167	0x3d469575	0.048482377
168	0x3d461fff	0.048370358
169	0x3d6240b3	0.055237483
170	0x3d03345e	0.032032363
171	0x3d90a36b	0.070624195
172	0x3da0a83f	0.078445904
173	0x3d46ba3c	0.04851745
174	0x3e2e39e8	0.17014277
175	0x3d1341f0	0.035951555
176	0x3dbf1eee	0.09332071
177	0x3d343eac	0.04400508
178	0x3d73debd	0.05953859
179	0x3d2d1352	0.042254753
180	0x3e0175c9	0.12642588
181	0x3da36d62	0.079798475
182	0x3cee8d90	0.029120237
183	0x3d77a377	0.060458627
184	0x3da28f69	0.079375096
185	0x3e09e801	0.13467409
186	0x3dc0fc0d	0.09423075
187	0x3da9fbee	0.08300005
188	0x3d9b6c84	0.07589057
189	0x3de25629	0.1105159
190	0x3e2a5f4c	0.16637915
191	0x3d1b715a	0.037949897
192	0x3d2c3e65	0.04205169
193	0x3d7f52a0	0.062334657
194	0x3e38692b	0.18008868
195	0x3d878b60	0.066183805
196	0x3da3a9a4	0.07991341
197	0x3d877b9c	0.066153735
198	0x3d9f418e	0.077761754
199	0x3d5a69b2	0.053323455
200	0x3d92fe7d	0.07177446
201	0x3de68bc5	0.11257128
202	0x3e355a0c	0.17710131
203	0x3d55e125	0.052216668
204	0x3e38be3e	0.18041322
205	0x3d82b76f	0.063826434
206	0x3da15615	0.07877747
207	0x3d6e5a3b	0.05819152
208	0x3dd5aad1	0.10432971
209	0x3d477f6b	0.0487055
210	0x3d805cc4	0.06267694
211	0x3cdea847	0.02717985
212	0x3d9d892f	0.07692181
213	0x3d657396	0.056018434
214	0x3da4914e	0.08035527
215	0x3d5dcaf8	0.054148644
216	0x3da8129a	0.08206673
217	0x3d565139	0.052323554
218	0x3d6df43f	0.05809426
219	0x3d631124	0.05543627
220	0x3d44d633	0.04805584
221	0x3d3e169e	0.04640829
222	0x3e099f02	0.13439563
223	0x3d879991	0.06621087
224	0x3ea65be6	0.32491988
225	0x3d7c300f	0.06156927
226	0x3d5a54e3	0.05330361
227	0x3db5ecf5	0.088830866
228	0x3d586e68	0.052839667
229	0x3d1e86e9	0.03870288
230	0x3d9a474b	0.07533129
231	0x3e018638	0.12648857
232	0x3e603821	0.21896411
233	0x3d9e23ed	0.07721696
234	0x3da452d2	0.08023609
235	0x3d503a77	0.050837006
236	0x3da20c29	0.079124756
237	0x3e3d18d1	0.18466498
238	0x3e70c02e	0.2351081
239	0x3d79c3fe	0.06097793
240	0x3dd3788f	0.10325729
241	0x3dc8ec52	0.098106995
242	0x3d6c162b	0.05763833
243	0x3e906022	0.28198344
244	0x3d628800	0.05530548
245	0x3db53167	0.088473134
246	0x3da3d41a	0.079994395
247	0x3d9baa2e	0.076008186
248	0x3d77db16	0.06051167
249	0x3db9200c	0.090393156
250	0x3d22de81	0.039762978
251	0x3d5b41ca	0.05352954
252	0x3d84a3bb	0.064765416
253	0x3dc64370	0.096808314
254	0x3db716b9	0.08939881
255	0x3d7084c5	0.05872037

layers.4.weight f4 [256, 384]
0	0xbd650960	-0.055917144
1	0xbe32336d	-0.1740243
2	0xbe07bb45	-0.13255031
3	0xbd984c61	-0.07436443
4	0x3e1f6959	0.1556753
5	0x3d2de32a	0.04245297
6	0xbe4295ba	-0.19002429
7	0x3b16664f	0.0022949164
8	0xbd7b8733	-0.061408233
9	0xbd5e378f	-0.054252204
10	0xbcd129ec	-0.025532685
11	0x3ddf310d	0.108980276
12	0xbd96b045	-0.073578395
13	0xbdc7f1e5	-0.097629346
14	0xbe106656	-0.14101538
15	0xbd3e3220	-0.04643452
16	0x3d3986b1	0.045294467
17	0xbd657bd6	-0.056026302
18	0x3daa0db6	0.083033964
19	0x3d3fbf80	0.046813488
20	0xbdccccbb	-0.09999987
21	0xbd4c8167	-0.049928095
22	0xbe2526c2	-0.16128066
23	0x3cc50fdf	0.02405542
24	0xbdddc651	-0.108288415
25	0x3caa484b	0.020786425
26	0xbe168c71	-0.14702012
27	0x3d98169e	0.07426189
28	0xbd8d848f	-0.06910049
29	0x3db41ad9	0.08794183
30	0xbdce55da	-0.10074969
31	0x3d86f632	0.06589927
32	0xbae95811	-0.0017802735
33	0xbc8ef89a	-0.017452527
34	0x3d5a812d	0.053345848
35	0xbda778af	-0.081773154
36	0xbafc49f3	-0.0019248113
37	0x3d47ac19	0.04874811
38	0x3e06fc85	0.13182266
39	0xbda57960	-0.08079791
40	0xbe0713e8	-0.13191187
41	0xbb9729cc	-0.004613137
42	0xbc30b72b	-0.010785858
43	0x3dc58e24	0.09646252
44	0xbd86f63b	-0.065899335
45	0xbe3f5d1c	-0.18687862
46	0xbda2541a	-0.07926197
47	0xbd3bd285	-0.045855064
48	0x3e0542ce	0.13013765
49	0xbdc96c50	-0.09835112
50	0xbc0c0243	-0.008545461
51	0x3d46435d	0.048404086
52	0x3dacf965	0.08446006
53	0xbbef737c	-0.007307468
54	0xbdf9c924	-0.12196568
55	0xbbcfd95c	-0.00634305
56	0xbdae874e	-0.08521901
57	0xbd846134	-0.064638525
58	0xbc38735e	-0.011257974
59	0x3dc08a34	0.0940136
60	0x3d93846e	0.07202993
61	0xbe0b0915	-0.13577683
62	0xbdb5fa76	-0.08885662
63	0x3e0e819a	0.13916627
64	0xbd0ff8a9	-0.03514925
65	0xbe0ba36b	-0.13636558
66	0xbe47862f	-0.1948478
67	0xbdb22529	-0.08698494
68	0xbd625985	-0.055261154
69	0x3bdd9c91	0.006763049
70	0xbc2db728	-0.01060275
71	0xbd769bc9	-0.060207162
72	0xbd085949	-0.033288274
73	0xbd99ca24	-0.075092584
74	0x3d2b889c	0.041878328
75	0xbcc73e73	-0.02432177
76	0xbd00d263	-0.03145064
77	0x3e66e75c	0.22549194
78	0x3cabb28e	0.020959165
79	0xbd195805	-0.037437458
80	0xbe6865c6	-0.22695073
81	0x3d8ec7d0	0.06971705
82	0xbe1a7515	-0.15083726
83	0x3cf85a88	0.030316606
84	0xbc5f84ac	-0.013642471
85	0xbc740395	-0.014893432
86	0xbd735f7c	-0.059417233
87	0x3cbeb58b	0.023279926
88	0x3e91b73a	0.28460103
89	0xbcb67f07	-0.022277368
90	0xbdc26e78	-0.094937265
91	0x3d056cd3	0.032574486
92	0x3e2c6581	0.16835596
93	0xbd4c6753	-0.049903225
94	0xbd6a6326	-0.05722346
95	0x3e1e46ea	0.15456739
96	0xbc6827c3	-0.014169636
97	0xbd70ff6a	-0.05883733
98	0xbcc7d6c2	-0.024394397
99	0x3be97d92	0.007125565
100	0xbe419f61	-0.18908454
101	0xbdb8282b	-0.089920364
102	0xbc658579	-0.014008873
103	0xbd2fe415	-0.042942125
104	0x3c155e79	0.009116762
105	0x3d0c430b	0.034243625
106	0xbdd32a66	-0.10310821
107	0x3d25f71f	0.040518876
108	0x3dd48e12	0.1037866
109	0xbda63764	-0.08116034
110	0x3e7fa664	0.24965817
111	0xbb93fbd5	-0.0045161047
112	0xbd312173	-0.04324479
113	0x3c6459f2	0.01393746
114	0xbe0445df	-0.12917279
115	0xbd989015	-0.074493565
116	0xbdc751f4	-0.09732428
117	0xbd85f7de	-0.065414175
118	0x3cee35ab	0.029078325
119	0x3d98c0b1	0.07458628
120	0x3dd2ad62	0.102869764
121	0xbc05f4e3	-0.008176061
122	0x3d350412	0.044193335
123	0xbbdbaa94	-0.006703684
124	0xbd82f7b2	-0.063949004
125	0xbdac4df7	-0.08413308
126	0xbdb228af	-0.08699166
127	0xbdc3cd26	-0.09560613
128	0xbdc3d013	-0.095611714
129	0xbcdc8b3d	-0.026921863
130	0x3e25aa8c	0.1617834
131	0xbd2e488c	-0.042549655
132	0x3c7de756	0.015497049
133	0xbd8e4e45	-0.069485225
134	0x3d88420b	0.06653222
135	0xbe72f1dd	-0.23725076
136	0x3c4ddf04	0.012565378
137	0x3ba0b2d2	0.0049041295
138	0xbc787722	-0.015165122
139	0x3d234264	0.039858237
140	0x3d98d327	0.07462149
141	0xbd36c4a6	-0.044621132
142	0x3d8efe06	0.06982045
143	0xbd5889f4	-0.052865937
144	0xbdc72bee	-0.09725176
145	0xbe3a8dfd	-0.18218227
146	0xbd8767ee	-0.0661162
147	0xbbbad67c	-0.005701838
148	0xb9aae4f5	-0.00032595513
149	0xbe307fbc	-0.17236227
150	0x3d7ff5d6	0.062490307
151	0x3c902e17	0.017600102
152	0xbe02399a	-0.12717286
153	0x3dd56e7c	0.10421464
154	0xbd3d227f	-0.046175476
155	0xbd353dd8	-0.044248432
156	0x3da01b8c	0.07817754
157	0x3bb49a31	0.005511545
158	0xbdb27954	-0.08714548
159	0x3de6e37b	0.11273857
160	0xbce4e488	-0.027941003
161	0xbd392c73	-0.045208406
162	0xbda149f0	-0.078754306
163	0x3d0e3744	0.034720674
164	0xbdc8d797	-0.098067455
165	0x3b6bffbd	0.0036010586
166	0xbe04d951	-0.12973525
167	0xbe0bc642	-0.13649848
168	0x3d013a41	0.031549696
169	0xbe2ed441	-0.17073156
170	0xbdcad718	-0.09904307
171	0xbdcf98d1	-0.10136569
172	0x3d17167e	0.036886685
173	0x3cf1646c	0.02946683
174	0xb981e88f	-0.00024778067
175	0xbd32206f	-0.043487962
176	0xbe28dc51	-0.16490294
177	0x3c8b1cd3	0.016981518
178	0xbdb88bfb	-0.09011074
179	0xbbe7f00c	-0.0070781764
180	0xbdf85022	-0.12124659
181	0xbe02bfcc	-0.12768477
182	0x3e631442	0.22175696
183	0x3d08dd96	0.033414446
184	0x3d3e7872	0.046501584
185	0x3d194a08	0.037424117
186	0x3d060742	0.032721765
187	0x3c84d01a	0.016212512
188	0x3d33b7d7	0.043876495
189	0x3dcd3ff0	0.10021961
190	0x3b3aa114	0.0028477358
191	0x3d47541e	0.048664205
192	0xbdc22949	-0.09480531
193	0x3e166d75	0.14690192
194	0xbd9823d9	-0.074287124
195	0xbd800725	-0.06251363
196	0x3c323c2c	0.010878604
197	0x3cdcb1e6	0.026940297
198	0xbe304fe1	-0.17217971
199	0xbda791fd	-0.08182142
200	0xbc92501a	-0.017860461
201	0xbd93954c	-0.072062105
202	0x3d52787e	0.05138444
203	0x3dfaa96c	0.12239346
204	0xbd6cd633	-0.057821464
205	0x3c3ec86e	0.011644466
206	0xbe0eec7e	-0.13957402
207	0x3d77c7b0	0.06049317
208	0xbdd1c6b1	-0.102429755
209	0x3dcca662	0.099926725
210	0xbceddbe3	-0.029035514
211	0x3e0866f4	0.13320524
212	0x3d05c64a	0.032659806
213	0xbd0fb532	-0.03508491
214	0x3d5ebe77	0.05438086
215	0x3de80448	0.113289416
216	0xbc892aa5	-0.016743967
217	0xbc4e0841	-0.01257521
218	0x3e6ce89a	0.23135605
219	0xbdebc1d8	-0.11511582
220	0xbd105164	-0.03523387
221	0xbdbd0ee8	-0.09231359
222	0x3e11289a	0.14175645
223	0xbd9b65b9	-0.075877614
224	0xbde29ee7	-0.110654645
225	0xbe674432	-0.22584608
226	0x3c8cc05f	0.017181573
227	0xbcf1cf6b	-0.02951785
228	0xbdc9c240	-0.09851503
229	0xbc9c9a33	-0.019116497
230	0x3e256793	0.16152792
231	0xbc8e5f7d	-0.017379517
232	0x3c13215b	0.0089801205
233	0xbd9f9228	-0.07791549
234	0xbe1125d2	-0.14174584
235	0x3a7cab4d	0.0009638563
236	0xbd9d933a	-0.07694097
237	0xbdaf48ba	-0.08558793
238	0x3c6c96d4	0.014440257
239	0xbcd940c2	-0.026520137
240	0x3e07ebd5	0.13273557
241	0x3db69f21	0.0891707
242	0xbcb97802	-0.022640232
243	0x3d75d5bd	0.06001829
244	0xbdc1de45	-0.09466223
245	0x3cc062b5	0.023484567
246	0x3e9620da	0.2932194
247	0xbd5935b7	-0.053029742
248	0xbdcfb719	-0.10142345
249	0x3e43f382	0.1913586
250	0x3a26ac4e	0.0006358073
251	0xbde6148e	-0.11234389
252	0x3e3692f3	0.17829494
253	0xbdc30207	-0.09521871
254	0xbdbf8cad	-0.09353004
255	0xbd038e62	-0.03211821
