cushion/h2_cushion_rom.pt (torch, 742379 bytes, 26 tensors)

layers.0.weight f4 [512, 12]
0	0xbea127fd	-0.3147582
1	0x3e88b5fc	0.26701343
2	0x3f05e617	0.52304214
3	0x3c84aece	0.016196635
4	0xbc8a628e	-0.016892698
5	0x3cd72633	0.026263332
6	0x3d533741	0.051566366
7	0xbe04e88d	-0.12979336
8	0xbdd95690	-0.106122136
9	0x3b830ec0	0.003999561
10	0x3d300b61	0.0429796
11	0xbc2634e3	-0.010144445
12	0xbd2f42c8	-0.042788297
13	0xbcf9ee38	-0.0305091
14	0x3cbae2aa	0.02281316
15	0x3d14291d	0.03617202
16	0xbcaa807e	-0.020813223
17	0x3d2f053f	0.042729612
18	0x3d8d47f2	0.06898488
19	0x3d06e4fe	0.032933228
20	0xbcb3a06e	-0.021927085
21	0xbe745460	-0.23860312
22	0x3d52685e	0.051369064
23	0xbf5d1239	-0.8635593
24	0x3e2ef858	0.17086923
25	0xbe3eb71c	-0.18624538
26	0xbdf7de84	-0.12102988
27	0x3ca6b3d2	0.020349417
28	0x3eb48ee2	0.3526526
29	0x3de24e39	0.11050076
30	0xbd339579	-0.04384372
31	0xbe03f6b2	-0.12887076
32	0x3ed20dc8	0.4102614
33	0x3df5da48	0.120045245
34	0xbe30a8b8	-0.17251861
35	0x3db79e8c	0.08965787
36	0x3df8f179	0.12155432
37	0x3d76a48c	0.060215518
38	0x3ddf1b39	0.10893864
39	0xbed7160a	-0.42009002
40	0xbe433267	-0.19062196
41	0xbe2e5e43	-0.17028145
42	0x3e13b1a2	0.1442323
43	0xbe174a21	-0.14774372
44	0x3e0c6e63	0.13713984
45	0x3e557e12	0.20848873
46	0xbc476626	-0.01217035
47	0x3e445c61	0.19175865
48	0x3ec955b6	0.39323205
49	0x3e54af59	0.20770015
50	0xbdbe1f5c	-0.09283325
51	0xbd130e04	-0.03590204
52	0x3de4d3ac	0.11173186
53	0xbc2a6532	-0.010400103
54	0xbe621089	-0.2207662
55	0xbee916bb	-0.45525154
56	0x3d4edadf	0.0505017
57	0xbe4d19b8	-0.20029342
58	0x3e32f66f	0.1747682
59	0x3db67312	0.08908667
60	0x3de9b455	0.11411349
61	0x3d094768	0.033515364
62	0xbd859ff5	-0.0652465
63	0x3e62b1bd	0.22138114
64	0x3e0c037d	0.13673206
65	0xbe92a5b6	-0.28642052
66	0x3e95339f	0.29140946
67	0xbe19ffc6	-0.15038976
68	0x3d9ebac3	0.07750466
69	0xbe40c142	-0.18823722
70	0x3e992b3c	0.29915798
71	0x3db2b14c	0.08725223
72	0x3e84b3da	0.25918466
73	0x3ea643fa	0.32473737
74	0xbc3ec5d9	-0.01164385
75	0xbe3414f4	-0.17586118
76	0x3e802080	0.25024796
77	0xbaed4d2b	-0.0018104663
78	0xbeb6153b	-0.35563073
79	0x3ddef7c0	0.10887098
80	0x3e9ac9c6	0.30232066
81	0x3e5c08b0	0.21487689
82	0xbd09a46f	-0.03360408
83	0xbc3f31bd	-0.011669573
84	0x3e908f45	0.28234306
85	0x3de0324c	0.10947093
86	0x3db4598f	0.088061444
87	0x3d3cd0b6	0.04609748
88	0xbeb33c13	-0.3500677
89	0xbe5f88dd	-0.21829553
90	0x3e8185c9	0.25297382
91	0x3df07a9a	0.117421344
92	0x3e4f393f	0.20236681
93	0xbe2e5582	-0.17024806
94	0x3de34ecd	0.110990144
95	0x3cb9010c	0.022583507
96	0xbbae6482	-0.00532204
97	0xbcd45789	-0.025920646
98	0xbface5d2	-1.3507636
99	0x3c41cc65	0.011828517
100	0xbcc431f6	-0.023949604
101	0x3d47dcb3	0.04879446
102	0xbd32369c	-0.04350911
103	0xbd176152	-0.036958046
104	0x3b829abf	0.0039857323
105	0x3dfa5c50	0.122246385
106	0xbcddb7d6	-0.027065199
107	0xbca6337c	-0.020288222
108	0x3e2266d5	0.1585954
109	0xbd0a87c5	-0.033820886
110	0x3d4169c8	0.04722002
111	0xbe7616c5	-0.24032123
112	0x3e9658ad	0.2936453
113	0x3dd2603e	0.10272263
114	0x3ea4fda4	0.32224762
115	0x3dc0df8c	0.09417638
116	0x3eb26c28	0.34848142
117	0xbe534792	-0.2063277
118	0x3c9e7d1c	0.019346766
119	0xbd257fbb	-0.040405016
120	0x3e299130	0.16559291
121	0x3ea0235b	0.31276974
122	0x3dddce9b	0.108304225
123	0x3e946ca8	0.28989148
124	0xbec190d4	-0.37805808
125	0x3e3a1623	0.18172507
126	0x3daddfcd	0.08489952
127	0xbca4efdf	-0.02013391
128	0x3e93ff42	0.28905684
129	0xbd80e0a0	-0.06292844
130	0xbcb77926	-0.022396635
131	0x3d27ea86	0.040995143
132	0xbf4b05d5	-0.79305774
133	0x3da20c45	0.079124965
134	0x3df44de4	0.11928919
135	0x3b10eb14	0.0022112774
136	0x3d91c991	0.07118524
137	0x3dd2ab8e	0.10286628
138	0xbe3fa94b	-0.18716924
139	0x3e325c46	0.17418012
140	0x3e4149be	0.18875787
141	0x3e6880ec	0.2270543
142	0x3e3b26cd	0.1827652
143	0xbe2c0062	-0.16797021
144	0x3ed6ce8c	0.41954458
145	0xbe8d233e	-0.2756595
146	0x3e8db946	0.27680415
147	0xbd6c086e	-0.057625227
148	0x3d2032a9	0.039110813
149	0x3e06fc9f	0.13182305
150	0x3de08007	0.10961919
151	0xbd448a86	-0.04798367
152	0x3d1fbe25	0.038999695
153	0xbe1abd26	-0.15111217
154	0xbda4b0f8	-0.080415666
155	0x3e75460c	0.23952502
156	0xbe025e24	-0.12731224
157	0x3e02610a	0.1273233
158	0x3d7e7cc6	0.062130712
159	0xbdb15283	-0.08658316
160	0xbe06565a	-0.13118878
161	0x3e00c41f	0.12574814
162	0x3de56b83	0.11202147
163	0x3e3651db	0.17804663
164	0x3de48fb8	0.11160225
165	0x3d1dac60	0.038494468
166	0xbe249003	-0.16070561
167	0xbf22671a	-0.6343857
168	0x3e0f1fc1	0.13976957
169	0xbdae1638	-0.08500332
170	0x3cfc5afe	0.030805107
171	0xbd531514	-0.051533774
172	0xbe7657e6	-0.24056968
173	0x3d89894b	0.0671564
174	0xbd9f5fb8	-0.07781929
175	0xbceca902	-0.028889183
176	0xbd1afe37	-0.037840094
177	0x3e4af536	0.19820103
178	0x3f07a543	0.52986544
179	0xbcd693db	-0.02619355
180	0x3e5169b3	0.20450477
181	0xbc9debdf	-0.019277511
182	0xbdccfc52	-0.10009064
183	0x3e82d794	0.25555098
184	0xbd788f62	-0.060683616
185	0xbd954384	-0.07288268
186	0xbef818dd	-0.4845647
187	0xbd525977	-0.05135485
188	0x3e2d5be4	0.16929585
189	0xbdb9cda2	-0.090724245
190	0xbeac998d	-0.337109
191	0x3e0e7932	0.1391342
192	0xbdfe9df8	-0.12432474
193	0xbca23793	-0.01980189
194	0x3dc11d2e	0.09429394
195	0x3dd87578	0.105692804
196	0xbf024cd8	-0.50898504
197	0x3dac21eb	0.08404907
198	0xbc99c412	-0.018770251
199	0xbdf99d92	-0.12188257
200	0xbdf41e7a	-0.119198754
201	0xbe2b4f2c	-0.1672942
202	0x3e5175b0	0.2045505
203	0x3d38a8a1	0.045082692
204	0xbe618309	-0.22022642
205	0xbd4503b0	-0.04809922
206	0xbec84a95	-0.39119402
207	0x3d9cafdf	0.07650732
208	0xbc38173e	-0.01123601
209	0x3d8f3e09	0.06994254
210	0xbe7c1048	-0.24615586
211	0x3e7991e5	0.2437206
212	0x3e1dd419	0.1541294
213	0x3df6d154	0.12051645
214	0x3e9a9df5	0.30198637
215	0x3e9e7814	0.30950987
216	0x3bcac29a	0.006187749
217	0xbd6a6bd6	-0.057231747
218	0xbdaabaef	-0.08336436
219	0x3cb4996a	0.02204581
220	0x3d7093bd	0.058734644
221	0xbcb828c5	-0.022480378
222	0xbd4a3156	-0.049363457
223	0x3c0c7bd8	0.0085744485
224	0xbf0b8309	-0.5449682
225	0x3d5a6660	0.05332029
226	0xbe25f62d	-0.1620719
227	0xbd6b6bf7	-0.05747601
228	0x3dcf4579	0.10120673
229	0x3d9e323f	0.077244274
230	0xbbeb6205	-0.0071833157
231	0x3e1e7239	0.1547326
232	0x3e28172d	0.16415091
233	0xbd3f9130	-0.04676932
234	0xbf32a7b7	-0.6978716
235	0x3e8052f6	0.25063294
236	0xbdea56aa	-0.11442311
237	0xbe6da2e0	-0.23206663
238	0xbe339a27	-0.17539273
239	0x3e33f4a0	0.17573786
240	0xb966554c	-0.00021966285
241	0x3c93fe06	0.018065464
242	0xbcb798b9	-0.022411691
243	0x3c57ec4a	0.013178894
244	0x3d10374f	0.035208996
245	0xbcb8b3a8	-0.022546604
246	0xbd097a82	-0.0335641
247	0x3c8f05a9	0.017458754
248	0xbf125b37	-0.5717043
249	0xbdefd0aa	-0.117097214
250	0xbdf9fd48	-0.12206513
251	0xbd03083d	-0.03199028
252	0x3e36adba	0.17839709
253	0xbdf41286	-0.119175956
254	0xbd61d971	-0.05513901
255	0xbb95bcb1	-0.004569613

layers.0.bias f4 [512]
0	0xbdd32ce9	-0.103113
1	0xbb94184c	-0.004519498
2	0xbeaaaf7e	-0.33337015
3	0x3e079a69	0.13242497
4	0xbe107e87	-0.14110766
5	0xbed7fc0c	-0.42184484
6	0xbef3dcde	-0.47629446
7	0xbccbf231	-0.02489576
8	0x3e26910a	0.16266266
9	0xbf0da27c	-0.55326056
10	0xbf15d00b	-0.58520573
11	0xbd888e4d	-0.06667767
12	0xbe92b0d2	-0.28650528
13	0x3d319f63	0.043364894
14	0xbe4e16bc	-0.2012586
15	0x3dabda07	0.08391195
16	0x3d7324b9	0.059361193
17	0xbe064fb5	-0.13116343
18	0x3ec18fc3	0.37804994
19	0xbda73b5d	-0.081656195
20	0x3ea578a0	0.32318592
21	0xbd74652c	-0.059666798
22	0xbf0bb279	-0.545692
23	0x3e65f94b	0.22458379
24	0x3e24ef78	0.16106975
25	0xbd7bfa6f	-0.06151813
26	0x3e414386	0.18873414
27	0xbdb0d2cb	-0.086339556
28	0xbeaa298f	-0.33234832
29	0xbcf3bb05	-0.029752264
30	0x3e666695	0.2250007
31	0x3efa8a22	0.48933512
32	0x3996bcf9	0.00028751025
33	0x3e859787	0.2609217
34	0x3d714336	0.058901988
35	0xbd5b7fdf	-0.053588744
36	0xbe6f0455	-0.23341496
37	0xbb814d7c	-0.0039460044
38	0xbd1458b0	-0.03621739
39	0x3ea1d83d	0.3161029
40	0x3ded85c6	0.11597781
41	0x3e8af25c	0.2713803
42	0x3e78e40a	0.2430574
43	0xbe204c2f	-0.15654062
44	0xbe0e5d21	-0.13902713
45	0x3eb67147	0.356333
46	0xbe9d05f6	-0.3066861
47	0x3cc7afc2	0.0243758
48	0xbdad92f8	-0.08475298
49	0x3ca73284	0.02040983
50	0x3cbcfff7	0.023071272
51	0xbdb57b4c	-0.08861408
52	0x3cee1058	0.029060528
53	0x3e7f3d88	0.24925816
54	0xbe40b571	-0.18819214
55	0xbc7382f6	-0.0148627665
56	0xbde3b2db	-0.11118098
57	0xbebf2ad1	-0.37337354
58	0xbd79dcc5	-0.061001558
59	0x3ea3dac0	0.3200283
60	0x3e6f2431	0.2335365
61	0xbb12c56a	-0.00223955
62	0x3e720e54	0.23638278
63	0x3e5c70eb	0.2152745
64	0xbd3114b6	-0.043232642
65	0x3dade5d5	0.084911026
66	0xbda09353	-0.078406
67	0xbd9fdd19	-0.07805843
68	0xbdf64b24	-0.12026051
69	0xbf0cd7a0	-0.5501652
70	0xbe85b9e4	-0.26118386
71	0xbd923627	-0.07139235
72	0xbccfcd99	-0.025366591
73	0xbea0a165	-0.31373134
74	0x3cf26e0b	0.029593488
75	0x3d17e1a9	0.03708044
76	0xbd8bd514	-0.06827751
77	0xbe954596	-0.29154652
78	0xbeaf9ec4	-0.34300816
79	0xbd4a08a2	-0.04932464
80	0xbd481241	-0.048845533
81	0x3c953c32	0.01821718
82	0xbe7b0841	-0.24514867
83	0xbf23509a	-0.63794863
84	0xbd0166c1	-0.031592134
85	0xbe0490bb	-0.12945835
86	0x3e058c03	0.13041691
87	0x3e29f4e2	0.16597322
88	0xbe31a252	-0.17347077
89	0xbe7fd4c2	-0.24983504
90	0xbe88c875	-0.26715437
91	0x3e4389a7	0.19095479
92	0xbe461f53	-0.19347887
93	0x3bde7eeb	0.006790032
94	0x3d8bed8f	0.0683242
95	0xbe2e81c9	-0.17041697
96	0xbe91bc97	-0.28464195
97	0xbe71cf06	-0.2361413
98	0xbec02b41	-0.37533
99	0xbea51b4c	-0.32247388
100	0x3e006b0f	0.1254084
101	0x3e7d49b4	0.24735147
102	0xbc935b2e	-0.017987814
103	0xbd97f160	-0.074190855
104	0x3aaf93ee	0.0013395527
105	0xbc170072	-0.009216415
106	0xbd914468	-0.070931256
107	0x3cc6f24b	0.024285456
108	0x3dbc4cb3	0.09194317
109	0xbd047807	-0.03234103
110	0x3d819dad	0.063289024
111	0xbec1c159	-0.37842825
112	0xbec0a9f5	-0.37629667
113	0xbdd795c7	-0.10526615
114	0x3ea6663e	0.3249988
115	0xbdb74700	-0.08949089
116	0xbda89792	-0.08232035
117	0x3e0a9a8b	0.13535516
118	0x3de9a7bc	0.11408946
119	0x3d4a24f4	0.049351647
120	0x3c8bf9ca	0.017086882
121	0xbda8046a	-0.08203967
122	0x3dec07cc	0.11524925
123	0xbd00d960	-0.031457305
124	0xbe80dd91	-0.25169042
125	0x3e978eaf	0.29601046
126	0x3d7fa126	0.062409543
127	0x3dcfc96b	0.10145839
128	0x3e3d6c7b	0.18498413
129	0xbe38f780	-0.18063164
130	0xbe664109	-0.22485746
131	0x3e96cefe	0.29454798
132	0x3e292bd6	0.16520628
133	0x3dfa44c2	0.12220146
134	0xbeb2228a	-0.34791976
135	0x39195d54	0.00014625984
136	0xbe40664d	-0.18789025
137	0x3c6f2b13	0.014597672
138	0x3e104521	0.1408887
139	0x3e5a9eaf	0.21349595
140	0xbe813dd7	-0.25242493
141	0x3ca9239f	0.020646868
142	0xbd243d7d	-0.040097702
143	0xbdf191f1	-0.11795414
144	0x3da20126	0.07910375
145	0xbe68bd4a	-0.22728458
146	0x3e90a11f	0.28247926
147	0xbef21b49	-0.47286442
148	0xbd752e9b	-0.0598589
149	0x3d3486fc	0.044074044
150	0x3e2953a3	0.16535811
151	0x3e71e0c0	0.23620892
152	0xbe7e2962	-0.24820474
153	0xbe534247	-0.20630752
154	0x3de46d03	0.11153605
155	0x3dc31478	0.095253885
156	0x3e112546	0.14174375
157	0x3e297981	0.16550256
158	0x3e6f2820	0.2335515
159	0xbe33a57d	-0.17543598
160	0x3de73848	0.11290032
161	0xbe31c0b9	-0.17358674
162	0xbe2d920a	-0.1695024
163	0x3c8bedc6	0.017081153
164	0x3e005307	0.12531672
165	0x3db6bc62	0.0892265
166	0xbe216b25	-0.15763529
167	0xbe854a51	-0.2603326
168	0xbebc0237	-0.3672044
169	0xbd340c5b	-0.043957096
170	0xbed45dc2	-0.41477782
171	0xbedbefd2	-0.42956406
172	0xbdae1034	-0.08499184
173	0x3e179127	0.14801465
174	0x3c08044c	0.008301806
175	0x3e021a7b	0.12705414
176	0xbc43f6ef	-0.011960729
177	0xbe1b1970	-0.15146422
178	0xbdf20bb9	-0.11818642
179	0x3e1e0168	0.15430224
180	0x3e2394ce	0.15974733
181	0x3c8856b9	0.016642915
182	0x3d19985e	0.037498824
183	0x3da5dd00	0.08098793
184	0xbe2f105e	-0.17096087
185	0xbd92bd85	-0.07165054
186	0x3e4c80ab	0.19970958
187	0xbe5cc05d	-0.21557756
188	0xbda563b6	-0.08075659
189	0xbeb09cbf	-0.34494588
190	0x3e0cac67	0.13737641
191	0x3d89a66c	0.067211956
192	0xbe1ef157	-0.15521751
193	0xbd119912	-0.03554637
194	0x3d3a0dc8	0.0454233
195	0x3d237160	0.039903045
196	0x3b593a68	0.0033146385
197	0x3ebb0b88	0.36532235
198	0x3e9a8bb1	0.301847
199	0xbe0a154d	-0.13484688
200	0xbebc0137	-0.36719677
201	0xbeb30bdd	-0.34969988
202	0xbd95b0c7	-0.07309108
203	0x3e89f39e	0.26943678
204	0x3e65c328	0.22437727
205	0xbe4806a0	-0.19533777
206	0xbeac38cf	-0.33637092
207	0x3e60a7ae	0.21938965
208	0x3d3939d8	0.04522118
209	0x3a957dc2	0.0011405277
210	0xbf005fea	-0.50146353
211	0xbe8c0584	-0.27347958
212	0xbdb8edc3	-0.090297244
213	0x3e1a3908	0.15060818
214	0x3e106af4	0.141033
215	0xbb58b653	-0.0033067658
216	0x3c852a6e	0.016255584
217	0xbd8dea42	-0.06929447
218	0xbc970ce1	-0.018438758
219	0x3e2398a3	0.15976195
220	0x3db8672f	0.09004056
221	0x3e82d1c9	0.25550678
222	0x3e22d62d	0.15902014
223	0x3ea762a1	0.32692435
224	0x3e7e8a91	0.24857546
225	0x3e13839a	0.14405671
226	0x3dd7b7ba	0.1053309
227	0xbe0d202c	-0.13781804
228	0xbe41b1e2	-0.18915513
229	0xbd875ba5	-0.06609277
230	0xbe4fde40	-0.20299625
231	0x3b035c4e	0.0020044032
232	0xbed7ab9f	-0.42123124
233	0xbcc44bef	-0.02396199
234	0xbe9ebcc5	-0.31003395
235	0xbe4799db	-0.19492285
236	0xbedf83c2	-0.4365521
237	0xbda3ada2	-0.07992102
238	0x3c0af8fe	0.008482216
239	0x3de6bac7	0.11266094
240	0xbd43b3b7	-0.04777881
241	0x3e2e7da6	0.17040119
242	0x3cd634c8	0.026148215
243	0xbe4c4c95	-0.19951089
244	0xbd09d6fa	-0.033652283
245	0x3cd66b96	0.026174348
246	0x3e7199a7	0.2359377
247	0xbea08ce0	-0.3135748
248	0x3d6f5c65	0.058437724
249	0xbd8cee34	-0.06881371
250	0xbd9038f7	-0.07042115
251	0xbe19929f	-0.14997338
252	0x3d78c605	0.06073572
253	0x3e1a672c	0.1507842
254	0xbe94ef57	-0.29088852
255	0x3bec0f6d	0.0072039873

layers.2.weight f4 [512]
0	0x3f40e6ec	0.7535236
1	0x3f5fea2a	0.8746668
2	0x3f5b70b8	0.8571887
3	0x3f46b5a7	0.7762093
4	0x3f422372	0.75835335
5	0x3f02064d	0.50790864
6	0x3f6cc369	0.9248567
7	0x3eb648e3	0.35602483
8	0x3f753690	0.9578638
9	0x3f66864d	0.90048677
10	0x3f2f0cac	0.6837871
11	0x3f3b28c9	0.7310911
12	0x3f349bc7	0.705502
13	0x3f2ab31c	0.6667955
14	0x3f709e54	0.9399159
15	0x3f403ea1	0.75095564
16	0x3f054b3c	0.52067924
17	0x3f2d145d	0.67609197
18	0x3f655277	0.89578956
19	0x3f35172b	0.70738477
20	0x3f663374	0.8992226
21	0x3f5372a2	0.8259679
22	0x3f838836	1.0275943
23	0x3f57cdc6	0.8429836
24	0x3f4e6d64	0.80635667
25	0x3f5bb147	0.8581738
26	0x3f5c805a	0.8613335
27	0x3f46d077	0.7766184
28	0x3f55ac47	0.83466
29	0x3f5f14f5	0.8714135
30	0x3f87b50d	1.0602127
31	0x3f5bcb27	0.8585686
32	0x3f551ced	0.8324726
33	0x3f45dac4	0.77286935
34	0x3f3eff94	0.7460873
35	0x3f71b129	0.9441095
36	0x3f2ec432	0.6826812
37	0x3f40ebaf	0.75359625
38	0x3f4d17fa	0.8011471
39	0x3f344c4a	0.7042891
40	0x3f7a979c	0.9788759
41	0x3f67016f	0.9023656
42	0x3f4c0f20	0.7971058
43	0x3f2fc93b	0.6866643
44	0x3f2bf5f3	0.67172164
45	0x3f7037fa	0.93835413
46	0x3ed92ffa	0.42419416
47	0x3f87c5ce	1.060724
48	0x3f464841	0.77454
49	0x3f56883a	0.83801615
50	0x3f74ce22	0.95627034
51	0x3f19895b	0.5997521
52	0x3f48ab1e	0.78386104
53	0x3f74d5eb	0.9563891
54	0x3f4dd04e	0.8039597
55	0x3f5a52ee	0.8528279
56	0x3f503b84	0.81340814
57	0x3f7f75e2	0.9978925
58	0x3f6c8737	0.9239382
59	0x3f6cb59c	0.92464614
60	0x3f7aa333	0.9790527
61	0x3f75e415	0.9605115
62	0x3f5ab5ec	0.8543384
63	0x3f51048f	0.8164758
64	0x3f64be72	0.89353096
65	0x3f51d368	0.81963205
66	0x3f52502d	0.8215359
67	0x3f36d6eb	0.7142169
68	0x3f65e1d5	0.8979772
69	0x3f61c321	0.8818837
70	0x3f22fc27	0.63666004
71	0x3f26f87d	0.65222913
72	0x3f71cb0a	0.9445044
73	0x3f49f52b	0.7888972
74	0x3f68befa	0.9091641
75	0x3f658be9	0.8966661
76	0x3f5ef77a	0.8709637
77	0x3f46dcab	0.7768046
78	0x3f301b2f	0.6879148
79	0x3f17d875	0.5931466
80	0x3f628f1c	0.8849962
81	0x3f81e738	1.0148687
82	0x3f3ea79d	0.7447451
83	0x3f6c5de1	0.9233075
84	0x3f6694e1	0.9007092
85	0x3f6b06e4	0.9180739
86	0x3f721f93	0.9457943
87	0x3f560715	0.83604556
88	0x3f2dd700	0.6790619
89	0x3f681d75	0.9066995
90	0x3f3aa30d	0.72905046
91	0x3f873b24	1.0564923
92	0x3f0e2ba9	0.5553537
93	0x3f2f8600	0.6856384
94	0x3f65b6ee	0.89732254
95	0x3f33939a	0.701471
96	0x3f20bb04	0.62785363
97	0x3f677521	0.904131
98	0x3f315965	0.6927703
99	0x3f4a99fe	0.79141223
100	0x3f6b7310	0.91972446
101	0x3f6a08ce	0.91419685
102	0x3f6365fa	0.8882748
103	0x3f4ccef0	0.8000326
104	0x3f5d6f55	0.86498004
105	0x3f5d4429	0.8643213
106	0x3f40dc0a	0.7533575
107	0x3f295ca5	0.6615699
108	0x3f4e0b68	0.80486155
109	0x3f50f962	0.8163053
110	0x3f867016	1.0502956
111	0x3f69b3e1	0.912901
112	0x3f614da3	0.8800909
113	0x3f49906b	0.7873599
114	0x3f3faed6	0.74876153
115	0x3f54c8e7	0.8311905
116	0x3f3055a6	0.6888069
117	0x3f56b2b1	0.8386641
118	0x3f397f0e	0.72459495
119	0x3f4b94f0	0.79524136
120	0x3f322fb8	0.69604063
121	0x3f390048	0.72266054
122	0x3f797dd4	0.97457623
123	0x3f1d5e73	0.61472243
124	0x3f4a561e	0.79037654
125	0x3f6a585c	0.91541076
126	0x3f392bea	0.7233263
127	0x3f46d146	0.77663076
128	0x3f4581db	0.7715127
129	0x3f56d1d7	0.8391394
130	0x3f73f006	0.9528812
131	0x3f518b0c	0.81852794
132	0x3f1e86d7	0.619245
133	0x3f3d76b9	0.7400928
134	0x3f6937c4	0.91100717
135	0x3f1f6f1d	0.6227892
136	0x3f48eb42	0.78483975
137	0x3f4759ed	0.7787159
138	0x3f32d039	0.6984897
139	0x3f59db2a	0.8510004
140	0x3f7afd30	0.98042583
141	0x3f67865c	0.9043939
142	0x3f767560	0.9627285
143	0x3f2153ec	0.6301868
144	0x3f6fcc74	0.93671346
145	0x3f6d26a9	0.92637116
146	0x3f3e342d	0.74298364
147	0x3f61932b	0.88115185
148	0x3f6d74db	0.9275643
149	0x3f58edf7	0.84738106
150	0x3f65f51b	0.89827126
151	0x3f57a513	0.8423626
152	0x3f0c67be	0.548458
153	0x3f645e37	0.8920626
154	0x3f86a948	1.052041
155	0x3f4634b2	0.77424157
156	0x3f3e1123	0.742449
157	0x3f3f0eb7	0.7463183
158	0x3f5d24e8	0.8638444
159	0x3f78bb96	0.97161233
160	0x3f5c5230	0.8606291
161	0x3f6f65d3	0.93514746
162	0x3f561be4	0.8363631
163	0x3f5ea6c1	0.86973196
164	0x3f4f390b	0.80946416
165	0x3f70fe00	0.94137573
166	0x3f560ef6	0.8361658
167	0x3f3fd80a	0.74939024
168	0x3f6dfb14	0.9296124
169	0x3f3a33bb	0.72735184
170	0x3f530e58	0.8244376
171	0x3f60e1e3	0.87844676
172	0x3f3ef3b9	0.7459064
173	0x3f3b56d3	0.7317936
174	0x3f410fee	0.7541493
175	0x3f5a659f	0.8531131
176	0x3f3935b1	0.7234755
177	0x3f3fef72	0.7497474
178	0x3f6d1ef3	0.9262535
179	0x3f58f3e8	0.8474717
180	0x3f528a8f	0.82242674
181	0x3f704217	0.93850845
182	0x3f7b354b	0.98128194
183	0x3f84f622	1.0387614
184	0x3f56b68e	0.83872306
185	0x3f3df016	0.7419447
186	0x3f5e32f7	0.86796516
187	0x3f590f3d	0.84788877
188	0x3f38dc9f	0.7221164
189	0x3f7267e6	0.94689786
190	0x3f41a72c	0.7564571
191	0x3ef9f469	0.48819283
192	0x3f6a03eb	0.9141223
193	0x3f51182a	0.81677496
194	0x3f63851a	0.8887497
195	0x3f630caf	0.8869123
196	0x3f1d9ac3	0.6156427
197	0x3f43db44	0.7650645
198	0x3f56b601	0.83871466
199	0x3f590cb3	0.84785
200	0x3f7204f3	0.945388
201	0x3f6f0250	0.93362904
202	0x3f59797d	0.84951
203	0x3f4e3a4e	0.80557716
204	0x3f38525d	0.72000676
205	0x3f69285b	0.910772
206	0x3f4abb67	0.79192203
207	0x3f70d9f6	0.9408258
208	0x3f60ba74	0.87784505
209	0x3f539d8d	0.8266228
210	0x3f68b1bf	0.9089622
211	0x3f36536c	0.7122104
212	0x3f3fae57	0.74875396
213	0x3f4cc8f1	0.7999411
214	0x3f4f3bb8	0.809505
215	0x3f5e6f19	0.8688827
216	0x3f67cb3c	0.90544486
217	0x3f842ec2	1.0326769
218	0x3f3eb9f8	0.74502516
219	0x3f3c82f2	0.73637307
220	0x3f16414a	0.58693373
221	0x3f5b7185	0.8572009
222	0x3f449b0b	0.76799077
223	0x3f4e0d5d	0.8048914
224	0x3f3ba92e	0.7330502
225	0x3f61e277	0.8823618
226	0x3f34b434	0.7058747
227	0x3f5692b7	0.8381762
228	0x3f492548	0.7857251
229	0x3f64d3b9	0.89385563
230	0x3f586e1f	0.8454303
231	0x3f5f5120	0.8723316
232	0x3f603cf5	0.87593013
233	0x3f4979f0	0.78701687
234	0x3f48b793	0.7840511
235	0x3f7e8802	0.9942628
236	0x3f462cab	0.7741191
237	0x3f4eed00	0.80830383
238	0x3f744a4a	0.95425856
239	0x3f54bd21	0.8310109
240	0x3f74b640	0.9559059
241	0x3f5a70e6	0.8532852
242	0x3f369389	0.7131887
243	0x3f5c2a3d	0.8600195
244	0x3f3a551a	0.72786105
245	0x3f2d99a8	0.67812586
246	0x3f515145	0.8176463
247	0x3f764647	0.96200985
248	0x3f8071f0	1.0034771
249	0x3f7e444f	0.9932298
250	0x3f0e451d	0.5557421
251	0x3f721798	0.9456725
252	0x3f70e0a6	0.94092786
253	0x3f4bc8fa	0.7960354
254	0x3f767d33	0.9628479
255	0x3f77f7de	0.9686259

layers.2.bias f4 [512]
0	0xbd7c7e4a	-0.061643876
1	0xbf7c525a	-0.9856316
2	0xbe850dad	-0.25986996
3	0xbe9c3907	-0.30512258
4	0x3d33f2be	0.04393267
5	0xbcf8631d	-0.030320698
6	0xbe47d69b	-0.19515459
7	0x3e02fc8c	0.12791651
8	0xbf6f4d73	-0.93477553
9	0xbedd9fef	-0.43286082
10	0xbe95b474	-0.29239237
11	0xbf0c03df	-0.54693407
12	0x3d75971f	0.059958573
13	0xbefb15ae	-0.49039978
14	0xbee0dc09	-0.43917874
15	0xbec52a81	-0.3850899
16	0xbea921b2	-0.3303352
17	0xbed57512	-0.4169088
18	0xbeab97b7	-0.33514187
19	0xbeb12497	-0.34598228
20	0xbec2f3d9	-0.38076666
21	0xbe639e1d	-0.22228284
22	0xbe2a2459	-0.16615428
23	0xbf06468b	-0.5245139
24	0x3e35735b	0.17719786
25	0xbf189cc7	-0.59614223
26	0xbf11ef1b	-0.5700547
27	0xbe8e0644	-0.27739155
28	0xbe5edb0e	-0.2176325
29	0xbf55d8f2	-0.8353416
30	0xbf6c4571	-0.9229346
31	0xbe000841	-0.12503149
32	0xbf209d13	-0.62739676
33	0xbf41450a	-0.7549597
34	0xbed16b35	-0.40902105
35	0xbf848aff	-1.0354918
36	0xbebc6944	-0.3679906
37	0xbe962eaa	-0.29332477
38	0xbf3154b6	-0.69269884
39	0xbe68ffc4	-0.22753817
40	0xbf5c5ee2	-0.8608228
41	0xbf3fdd74	-0.74947286
42	0xbedba4d3	-0.42899188
43	0xbecf2d1b	-0.404641
44	0xbe5594f7	-0.20857607
45	0xbef956f7	-0.4869916
46	0x3df1d5e0	0.118083715
47	0xbf96540f	-1.1744403
48	0xbeb4a049	-0.35278538
49	0xbf2d8495	-0.6778043
50	0xbe68991f	-0.22714661
51	0xbd3e2401	-0.046421055
52	0xbf076604	-0.5289004
53	0xbef3aa47	-0.4759085
54	0xbe4fa83e	-0.20279023
55	0xbeaa0631	-0.3320785
56	0xbf57de43	-0.8432352
57	0xbd3959ac	-0.045251533
58	0xbe08d290	-0.13361573
59	0xbf5746f4	-0.8409264
60	0x3ccac659	0.024752783
61	0xbf5561d5	-0.83352405
62	0xbf19605e	-0.5991267
63	0xbf442863	-0.76624125
64	0xbf3cbda1	-0.7372685
65	0xbf28d7eb	-0.65954465
66	0x3e88a3e6	0.26687545
67	0xbeb51e32	-0.353746
68	0xbefcc91c	-0.49372184
69	0xbe5a43e3	-0.21314959
70	0xbdf6db29	-0.1205352
71	0xbeb91ea2	-0.36156183
72	0xbf02b4d8	-0.51057196
73	0xbe87a572	-0.26493412
74	0xbeb7fddb	-0.35935864
75	0xbe96241d	-0.29324427
76	0xbd2bf219	-0.04197893
77	0xbf43cca8	-0.76484156
78	0xbefde67b	-0.49589905
79	0xbed5c9ef	-0.41755626
80	0xbed24084	-0.41064847
81	0xbf85de50	-1.0458469
82	0xbecbc52c	-0.39798868
83	0xbeb6204f	-0.35571525
84	0xbf1147db	-0.5675027
85	0xbf33999a	-0.7015625
86	0xbf5f1f04	-0.871567
87	0xbf2ff573	-0.687339
88	0xbebede46	-0.37278956
89	0x3d62867a	0.055304028
90	0xbe7a1018	-0.24420202
91	0xbf0bd171	-0.5461646
92	0xbeb64a35	-0.3560349
93	0xbf2a62b8	-0.6655688
94	0xbf005326	-0.50126874
95	0xbc8dd23b	-0.01731216
96	0xbdfb4fd0	-0.122710824
97	0xbe3acf92	-0.18243244
98	0xbf113f9d	-0.5673769
99	0xbf3c48ba	-0.7354847
100	0xbf0c6bc0	-0.54851913
101	0xbec33210	-0.38124132
102	0xbf821bda	-1.016475
103	0xbe7b8c13	-0.24565153
104	0xbedbae59	-0.42906454
105	0xbeaab007	-0.33337423
106	0xbf560d1c	-0.83613753
107	0xbefca428	-0.4934399
108	0xbf0fd11f	-0.5617847
109	0xbf2c3c65	-0.67279655
110	0xbf7b053c	-0.9805486
111	0x3b80b9a2	0.003928379
112	0xbe6e445a	-0.23268262
113	0xbf02943f	-0.51007456
114	0xbd62f29a	-0.055407144
115	0xbedab76f	-0.42718074
116	0xbf07b96e	-0.5301732
117	0xbf2e32ad	-0.68046075
118	0xbf1f353f	-0.6219062
119	0xbf0b17b2	-0.5433303
120	0xbea4ac80	-0.32162857
121	0xbed07326	-0.4071285
122	0xbf927731	-1.1442624
123	0xbe34bc48	-0.17649949
124	0xbeb37c55	-0.35055795
125	0xbf2d1790	-0.6761408
126	0xbe66f203	-0.22553258
127	0xbd9172a8	-0.07101947
128	0xbe748dc2	-0.23882201
129	0xbf1d1c2c	-0.6137111
130	0xbf0abf7b	-0.54198426
131	0xbf19e1c6	-0.6011013
132	0xbed01eb5	-0.40648428
133	0xbf0e2c1d	-0.5553606
134	0x3cc9912c	0.024605356
135	0xbe929ac0	-0.2863369
136	0xbed2cf03	-0.41173562
137	0xbf0f07a4	-0.55871034
138	0xbef129a1	-0.47102073
139	0xbe65ecd7	-0.22453628
140	0xbebeb05c	-0.37243927
141	0xbf3f790a	-0.74794066
142	0xbec96110	-0.39331865
143	0xbea3d879	-0.32001093
144	0xbf8a6950	-1.0813389
145	0xbebc7f38	-0.3681581
146	0xbe1bd93b	-0.15219586
147	0xbe6483e9	-0.22315945
148	0xbd72537a	-0.05916164
149	0xbf336dfa	-0.70089686
150	0xbf26c952	-0.6515094
151	0xbf146ef5	-0.57981807
152	0xbdeff415	-0.11716477
153	0xbcb2e3b8	-0.0218371
154	0xbf8801b9	-1.0625526
155	0xbd6ef4a3	-0.058338773
156	0xbf01ded7	-0.5073065
157	0xbf2c6255	-0.6733754
158	0xbf448563	-0.7676603
159	0xbe8926e9	-0.267875
160	0xbf3b3d0a	-0.73140013
161	0xbf1d9d2d	-0.61567956
162	0xbf052230	-0.5200529
163	0xbf6529cf	-0.8951692
164	0xbf1f7627	-0.6228966
165	0xbf685b78	-0.9076457
166	0xbf034f3e	-0.5129279
167	0xbf2766db	-0.6539132
168	0x3d25e818	0.040504545
169	0xbf081129	-0.53151184
170	0xbe023bcf	-0.12718128
171	0x3d72f77c	0.05931805
172	0xbe941ccf	-0.2892823
173	0x3b36d088	0.002789529
174	0xbf279126	-0.65455854
175	0xbf2a0974	-0.66420674
176	0xbebec6ba	-0.3726099
177	0xbe9914d8	-0.29898715
178	0xbf3b92f0	-0.73271084
179	0xbf2e1a28	-0.6800866
180	0xbf551dff	-0.83248895
181	0xbf6984d6	-0.91218317
182	0xbf0e9f69	-0.5571199
183	0xbf877823	-1.0583538
184	0xbf2957d0	-0.66149616
185	0xbf29ef7e	-0.6638106
186	0xbe3bf3eb	-0.18354766
187	0xbe2f53a4	-0.1712175
188	0xbec9285f	-0.39288613
189	0xbe8eced6	-0.27892178
190	0xbef46257	-0.47731277
191	0xbe8119d5	-0.2521502
192	0xbf133e36	-0.575168
193	0xbe484a0a	-0.19559494
194	0xbe87a4b3	-0.26492843
195	0xbf59eb45	-0.8512462
196	0xbee8823c	-0.4541186
197	0xbefca83b	-0.493471
198	0xbe6e6310	-0.23279977
199	0xbf42c35b	-0.7607934
200	0xbece8ea1	-0.40343192
201	0xbe92b8de	-0.28656667
202	0xbf2211b9	-0.6330829
203	0xbf3788a9	-0.716929
204	0xbec8a27a	-0.3918646
205	0xbdcaf641	-0.099102505
206	0xbf111b62	-0.5668241
207	0xbecfeb6f	-0.4060931
208	0xbecc387f	-0.39886853
209	0xbf1d6ee8	-0.61497355
210	0xbec121c5	-0.37721077
211	0xbeae9ec4	-0.34105504
212	0xbed23fa8	-0.4106419
213	0xbec95c91	-0.39328435
214	0xbec0bd49	-0.37644413
215	0x3dc6a39d	0.096991755
216	0xbf4ab832	-0.7918731
217	0xbf5fcad1	-0.8741885
218	0xbf39ea60	-0.7262325
219	0xbeac8a25	-0.33699146
220	0xbe6c3e89	-0.2307073
221	0xbf327187	-0.6970448
222	0xbf051816	-0.5198988
223	0xbf493b02	-0.78605664
224	0xbec15bfb	-0.37765488
225	0xbf156220	-0.5835285
226	0xbf0bcae7	-0.5460648
227	0x3d8b78af	0.06810128
228	0xbed8ba64	-0.42329705
229	0xbe8f3744	-0.27971852
230	0xbc918406	-0.017763149
231	0xbee6d6df	-0.4508581
232	0xbe87eb4b	-0.26546702
233	0xbf1f45db	-0.62215966
234	0xbed47777	-0.41497394
235	0xbf512d04	-0.81709313
236	0xbd9916f5	-0.07475082
237	0xbeebce70	-0.46055937
238	0x3eb3a631	0.3508773
239	0xbe202b8a	-0.15641609
240	0xbf0ffa57	-0.56241363
241	0xbf8598b9	-1.0437232
242	0xbe9d1e21	-0.3068705
243	0x3c976d8f	0.018484859
244	0xbf01ea12	-0.5074779
245	0xbf3999ab	-0.72500104
246	0xbf07924e	-0.5295762
247	0xbe9b6930	-0.3035369
248	0xbf980561	-1.1876642
249	0xbf7801be	-0.9687766
250	0xbeceefe8	-0.4041741
251	0xbf3aeb9e	-0.73015773
252	0xbef4b1d4	-0.47791922
253	0xbe35856a	-0.17726675
254	0xbf10fbbd	-0.5663412
255	0xbf8e48c6	-1.1115959

layers.2.running_mean f4 [512]
0	0x3d6716cf	0.056418236
1	0xbebd3867	-0.36957094
2	0xbde20033	-0.11035194
3	0x3d4bd6f6	0.04976555
4	0xbd79bcf7	-0.060971227
5	0xbcb5a729	-0.022174435
6	0xbe3945c7	-0.18093024
7	0x3e93a039	0.28833178
8	0xbf0ad557	-0.5423178
9	0xbcc7a07d	-0.024368519
10	0xbd9aaacd	-0.07552109
11	0xbe384ea4	-0.17998749
12	0x3dda52e9	0.10660345
13	0xbe48ba23	-0.19602256
14	0xbdb76711	-0.08955205
15	0xbde05a9a	-0.10954781
16	0xbde01a47	-0.10942512
17	0x3c178911	0.009248988
18	0xbd1773bc	-0.036975607
19	0xbdfcb2c6	-0.12338786
20	0xbc0202cb	-0.007935236
21	0xbe91952a	-0.28434116
22	0x3d963547	0.073343806
23	0xbda622d8	-0.08112115
24	0x3d953c4c	0.07286891
25	0xbeb987af	-0.3623633
26	0xbe877b42	-0.26461226
27	0xbda4b127	-0.08041602
28	0xbdfe5985	-0.12419418
29	0xbea3b904	-0.31977093
30	0xbec51b88	-0.38497567
31	0xbd84161e	-0.06449531
32	0xbec45d1c	-0.38352287
33	0xbdbb96ad	-0.091595985
34	0xbdbe3290	-0.09286988
35	0xbf072798	-0.5279479
36	0xbe4e5ad2	-0.20151833
37	0xbcab35df	-0.020899711
38	0xbe903750	-0.281672
39	0xbdc7bf65	-0.097533025
40	0xbecb4eea	-0.39708644
41	0xbeb83798	-0.35979915
42	0xbd8292d6	-0.06375663
43	0xbe5ed8a6	-0.21762332
44	0xbd47df81	-0.048797134
45	0xbddb3c9a	-0.10704918
46	0x3e98042d	0.29690686
47	0xbf0067ad	-0.50158197
48	0xbc77a165	-0.015114163
49	0xbec298c9	-0.3800719
50	0x3bc4a1d0	0.006000735
51	0x3e43dd7c	0.19127458
52	0xbe1c31e9	-0.15253414
53	0xbdb0011a	-0.0859396
54	0xbd2ddf74	-0.04244943
55	0x3dabcb87	0.08388429
56	0xbeebb2e6	-0.46034926
57	0x3c822a7c	0.015889399
58	0xbdadd5b9	-0.0848803
59	0xbe714b0b	-0.23563783
60	0x3d5bef9f	0.053695317
61	0xbecdbae2	-0.40181643
62	0xbe9e8021	-0.3095713
63	0xbe88a98e	-0.2669186
64	0xbea78f5d	-0.32726565
65	0xbea32d71	-0.31870607
66	0x3e2bec33	0.16789322
67	0xbcce916d	-0.025215829
68	0xbdd38e4e	-0.10329877
69	0xbccff4b4	-0.025385238
70	0x3dbd256c	0.09235653
71	0xbdcadd2c	-0.099054664
72	0xbe211ccf	-0.15733646
73	0xbdac8f69	-0.08425791
74	0xbd437f64	-0.04772891
75	0xbe225fb5	-0.15856822
76	0xbe26f496	-0.1630424
77	0xbea3903b	-0.31945977
78	0xbe35f063	-0.17767482
79	0xbbf6f941	-0.0075370376
80	0xbe68d768	-0.22738421
81	0xbf08bd5c	-0.5341394
82	0xbe45cb23	-0.19315772
83	0xbbc0e644	-0.005886825
84	0xbe055be5	-0.13023336
85	0xbe1570a8	-0.14593756
86	0xbeaa14d8	-0.33219028
87	0xbe5a17d1	-0.21298148
88	0x3d0d3ca2	0.034481652
89	0x3db6e5de	0.089305624
90	0xbc2db4b1	-0.010602162
91	0xbe30483f	-0.1721506
92	0x3e1889b6	0.14896283
93	0xbe6c0993	-0.23050527
94	0xbe54bf6b	-0.20776145
95	0xbc0e52aa	-0.008686701
96	0x3cd4e307	0.025987161
97	0xbd26271c	-0.04056464
98	0xbdbb6f3b	-0.09152075
99	0xbe366e74	-0.17815572
100	0xbd17ccc1	-0.037060503
101	0xbcd8a5c0	-0.026446223
102	0xbedf3021	-0.43591407
103	0xbd2e1676	-0.04250189
104	0xbd661050	-0.0561679
105	0xbcd4912a	-0.025948126
106	0xbe83eff1	-0.25768998
107	0xbdf37aec	-0.1188868
108	0xbe8a3337	-0.269922
109	0xbe460b0c	-0.19340152
110	0xbee51a31	-0.44746545
111	0x3d1e8813	0.03870399
112	0xbdf80d61	-0.12111927
113	0xbed3d3f5	-0.41372648
114	0xbaa5ffe7	-0.0012664766
115	0x3c06aeb5	0.008220364
116	0xbe166b23	-0.14689307
117	0xbe2121f0	-0.15735602
118	0xbe8ba3ee	-0.27273506
119	0xbe2a9bdb	-0.16661017
120	0xbd4d5186	-0.050126575
121	0xbdb173ab	-0.0866464
122	0xbefad31b	-0.48989186
123	0xbd8f77e5	-0.0700529
124	0xbd119b80	-0.035548687
125	0xbe22bccb	-0.15892331
126	0xbd10d541	-0.035359625
127	0xbd00e1ca	-0.03146533
128	0xbcd8c54e	-0.02646127
129	0xbdd2fd0b	-0.1030217
130	0xbdaf0709	-0.08546264
131	0xbecb48dc	-0.39704025
132	0xbdfc4361	-0.12317539
133	0xbea9c28c	-0.3315624
134	0xbd2171fa	-0.039415337
135	0xbd68abea	-0.056804575
136	0xbe13a972	-0.14420107
137	0xbe218522	-0.15773442
138	0xbcff7981	-0.031185867
139	0x3b89cb58	0.0042051487
140	0xbde91946	-0.11381774
141	0xbe4a782a	-0.19772401
142	0xbd254585	-0.040349502
143	0x3e729f8b	0.23693673
144	0xbf0cb727	-0.5496697
145	0x3ae6eacf	0.0017617586
146	0xbda0f47d	-0.078591324
147	0x39ca656d	0.0003860401
148	0x3e4bea2e	0.19913551
149	0xbebed432	-0.37271267
150	0xbec8ed7b	-0.39243683
151	0xbe86e692	-0.26347786
152	0x3e642945	0.22281368
153	0xbdb1b1cd	-0.08676491
154	0xbf24c240	-0.643589
155	0xbd200e1a	-0.03907595
156	0xbe1788bd	-0.14798255
157	0xbe7372aa	-0.2377421
158	0xbe5be077	-0.21472345
159	0xbccb64a7	-0.024828268
160	0xbe47a394	-0.19495994
161	0xbe716383	-0.23573117
162	0xbd8ef084	-0.069794685
163	0xbee10f71	-0.43957093
164	0xbeaef018	-0.34167552
165	0xbe9d1fb3	-0.30688247
166	0xbdee0126	-0.11621313
167	0xbdee4be4	-0.11635569
168	0x3e018994	0.12650138
169	0xbea68da6	-0.32529944
170	0x3c03960b	0.0080313785
171	0x3ca2d358	0.019876167
172	0x3c91ba70	0.017789096
173	0xbd2d3e7b	-0.042295914
174	0xbe0afc79	-0.13572873
175	0xbdfacd3d	-0.12246177
176	0xbde87417	-0.113502674
177	0xbc0607b0	-0.008180544
178	0xbe24231b	-0.16029017
179	0xbe580d19	-0.21098746
180	0xbe8231bb	-0.25428566
181	0xbf005e46	-0.5014385
182	0xbdba7559	-0.091044135
183	0xbedb5a99	-0.42842558
184	0xbddf7a9b	-0.10912057
185	0xbef1dc76	-0.4723851
186	0x3c34cfaf	0.011035844
187	0x3cfafee7	0.030639125
188	0xbd901fe8	-0.07037336
189	0xbe2fe96e	-0.1717889
190	0xbe87f580	-0.2655449
191	0xbc9ba5f1	-0.019000025
192	0xbdfc1d53	-0.12310281
193	0x3cbea22f	0.023270695
194	0xbd845ae4	-0.064626485
195	0xbe843fef	-0.25830027
196	0xbe2e618b	-0.17029397
197	0xbe0b4ada	-0.13602772
198	0xbd850fad	-0.064971305
199	0xbe9ce19a	-0.3064087
200	0xbc039f80	-0.008033633
201	0xbc947d88	-0.018126264
202	0xbe17e8f7	-0.14834963
203	0xbe270db6	-0.16313824
204	0xbd2ad5a0	-0.041707635
205	0x3d36ee0b	0.04466061
206	0xbe04dbe6	-0.1297451
207	0xbc7b70a2	-0.015346678
208	0xbdbc86c1	-0.0920539
209	0xbde01cb1	-0.109429725
210	0xbd1a9475	-0.037739236
211	0x3d5f4fc4	0.05451943
212	0xbe8bf2ce	-0.27333683
213	0xbe2c286f	-0.16812299
214	0xbd8c7047	-0.06857353
215	0x3dd85950	0.1056391
216	0xbe90be84	-0.28270352
217	0xbe178c01	-0.14799501
218	0xbead2b61	-0.33822158
219	0x3d16ca34	0.03681393
220	0x3e0318f5	0.12802489
221	0xbddc0719	-0.10743541
222	0xbe054206	-0.13013467
223	0xbe828baf	-0.25497195
224	0xba432f81	-0.00074457383
225	0xbe6bec24	-0.23039299
226	0xbe846094	-0.25854933
227	0xbd85fa03	-0.065418266
228	0xbdfaa7da	-0.122390464
229	0x3ca62af8	0.020284161
230	0x3de8ef12	0.11373724
231	0xbdb047a2	-0.08607413
232	0xbe37e1c0	-0.1795721
233	0xbe552d1e	-0.20817992
234	0xbd07a92c	-0.03312032
235	0xbe6964c5	-0.22792347
236	0x3ca0fdea	0.019652326
237	0xbdc59c33	-0.09648933
238	0x3e54985e	0.20761248
239	0x3d10474c	0.035224244
240	0xbe17fd72	-0.14842775
241	0xbec249a1	-0.379468
242	0xbc92f46e	-0.017938819
243	0x3dd93c3e	0.106071934
244	0xbdb2e6d0	-0.0873543
245	0xbecc91fe	-0.39955133
246	0xbe5f9a7e	-0.21836278
247	0xbd02fa77	-0.031977143
248	0xbf113744	-0.56724954
249	0xbee7ac00	-0.45248413
250	0x3ee0f1f9	0.4393461
251	0xbe203f55	-0.15649159
252	0xbd7e43df	-0.062076446
253	0xbc944458	-0.018098995
254	0xbe0c40ce	-0.13696596
255	0xbed89728	-0.42302823

layers.2.running_var f4 [512]
0	0x3d393085	0.045212287
1	0x3dd222ea	0.102605656
2	0x3d843a72	0.0645646
3	0x3d1b45e1	0.03790844
4	0x3d5909b7	0.05298778
5	0x3d2a400e	0.041564994
6	0x3d6d169d	0.057882894
7	0x3d41917a	0.047257878
8	0x3e55a219	0.20862617
9	0x3d28b025	0.04118361
10	0x3d3d6cd2	0.046246357
11	0x3dacf20e	0.08444606
12	0x3d31b750	0.04338771
13	0x3d9327d7	0.07185333
14	0x3d740829	0.059578095
15	0x3d8b9b92	0.06816782
16	0x3d348637	0.04407331
17	0x3d56dffe	0.05245971
18	0x3ce46b3a	0.02788316
19	0x3d81d9ba	0.06340356
20	0x3d01275e	0.031531684
21	0x3dd7cf40	0.10537577
22	0x3d321e9c	0.043486223
23	0x3d4827ec	0.048866197
24	0x3d481d32	0.048855968
25	0x3dddd850	0.10832274
26	0x3db0ebf2	0.08638753
27	0x3d26514e	0.040604882
28	0x3d57b751	0.05266506
29	0x3dae9abd	0.08525608
30	0x3de71e33	0.11285057
31	0x3d4285ab	0.047490757
32	0x3dc8db41	0.09807444
33	0x3d09096c	0.03345625
34	0x3d464a54	0.04841073
35	0x3e20fbca	0.1572105
36	0x3d915654	0.07096544
37	0x3d7fb522	0.0624286
38	0x3d921014	0.07131973
39	0x3d3a7325	0.045519967
40	0x3dec0b23	0.11525562
41	0x3d9c2506	0.07624249
42	0x3d570eaf	0.052504238
43	0x3d8a719a	0.06759949
44	0x3d344718	0.044013113
45	0x3d17c433	0.037052345
46	0x3d4a3e22	0.04937566
47	0x3e3c3259	0.18378581
48	0x3d4064d5	0.04697116
49	0x3db60eef	0.08889567
50	0x3d2eeec8	0.04270819
51	0x3d936eb6	0.07198851
52	0x3da72000	0.081604004
53	0x3d417065	0.04722633
54	0x3d7c902a	0.061660923
55	0x3d3f8a06	0.04676249
56	0x3e1f8a0f	0.15580009
57	0x3d0d8ddf	0.034559127
58	0x3d0e37b9	0.03472111
59	0x3d7462df	0.059664603
60	0x3d1e7eab	0.03869502
61	0x3df2fd79	0.11864752
62	0x3dbbce5c	0.09170219
63	0x3d917292	0.07101931
64	0x3de1fc01	0.11034394
65	0x3dbf9811	0.09355176
66	0x3d39204b	0.045196813
67	0x3d2d4ccc	0.042309567
68	0x3d58f83d	0.052971113
69	0x3cc37efe	0.023864266
70	0x3d1e4c12	0.038646765
71	0x3d62b4f4	0.05534835
72	0x3d88d38e	0.06680976
73	0x3d8d5f54	0.06902948
74	0x3d309016	0.04310616
75	0x3de8326d	0.11337743
76	0x3dbe9066	0.093048856
77	0x3dd717cb	0.10502585
78	0x3d6063c0	0.05478263
79	0x3d5681cc	0.052369878
80	0x3dcc720f	0.099826925
81	0x3e4a8131	0.19775845
82	0x3d7d96ce	0.061911397
83	0x3d4a1fe9	0.04934684
84	0x3d55aebc	0.052168593
85	0x3dc8c833	0.0980381
86	0x3de1fcc2	0.11034538
87	0x3d88945e	0.06668924
88	0x3d56ca09	0.05243877
89	0x3d3de05c	0.046356544
90	0x3d0c1976	0.03420397
91	0x3ded1cb3	0.115777396
92	0x3cfbe57d	0.030749077
93	0x3d8dd8b2	0.06926097
94	0x3d9aaaab	0.075520836
95	0x3d6d8516	0.05798825
96	0x3d38de3a	0.045133807
97	0x3d638d2c	0.055554554
98	0x3d253384	0.040332332
99	0x3d839ef6	0.06426804
100	0x3d415477	0.047199693
101	0x3d31917b	0.04335163
102	0x3e10d865	0.14145048
103	0x3d3f3d63	0.046689402
104	0x3daab628	0.08335525
105	0x3d7199ca	0.058984555
106	0x3dc8007f	0.097657196
107	0x3d42ff16	0.04760655
108	0x3d76d5dd	0.06026255
109	0x3d8f0109	0.06982619
110	0x3e0ab2c6	0.13544759
111	0x3d28b5a9	0.04118887
112	0x3d3cfae5	0.04613771
113	0x3ddd6ec3	0.10812142
114	0x3cef9361	0.02924508
115	0x3dce133c	0.100622624
116	0x3d7ce070	0.061737478
117	0x3d92ab52	0.07161583
118	0x3d9e02a6	0.07715349
119	0x3d617a31	0.05504817
120	0x3d87e1e0	0.06634879
121	0x3d491f2a	0.049101986
122	0x3e3c082f	0.18362497
123	0x3d019c7a	0.03164337
124	0x3d71d013	0.059036326
125	0x3d240b6d	0.04004996
126	0x3d4375d5	0.047719795
127	0x3d1f77b4	0.038932517
128	0x3d0da4ac	0.03458087
129	0x3d88e5d6	0.06684463
130	0x3d60b6eb	0.054861944
131	0x3e0409ad	0.12894316
132	0x3d727d39	0.059201453
133	0x3db4a55b	0.088206016
134	0x3d2c8aef	0.042124685
135	0x3d446900	0.0479517
136	0x3d60697b	0.054788094
137	0x3d648139	0.0557873
138	0x3d8321ea	0.06402953
139	0x3d5888ef	0.052864965
140	0x3d6894bf	0.05678248
141	0x3d92d940	0.071703434
142	0x3d444149	0.047913823
143	0x3da32211	0.07965482
144	0x3e55747b	0.20845215
145	0x3d33a5cd	0.04385929
146	0x3d5850ec	0.052811548
147	0x3d662eed	0.056197096
148	0x3d5ecf6c	0.05439703
149	0x3dfe1d16	0.124078915
150	0x3ddbcb64	0.10732153
151	0x3d430f9c	0.047622308
152	0x3d3e8ea9	0.04652277
153	0x3d5261d0	0.051362813
154	0x3e75c0ae	0.23999283
155	0x3cbc97fc	0.02302169
156	0x3d3669f6	0.044534646
157	0x3d711327	0.058856156
158	0x3daaac55	0.08333651
159	0x3d96763e	0.07346772
160	0x3d956925	0.07295445
161	0x3da26d56	0.079310104
162	0x3d3d65bb	0.046239596
163	0x3df3b424	0.118995935
164	0x3dc87433	0.09787788
165	0x3db57df0	0.08861911
166	0x3d79d360	0.0609926
167	0x3d4c5340	0.04988408
168	0x3d20d904	0.039269462
169	0x3d9f5553	0.07779946
170	0x3d1377bb	0.036002856
171	0x3cfd4d50	0.030920655
172	0x3d7a600d	0.061126757
173	0x3d72a90a	0.05924324
174	0x3d414f2b	0.04719464
175	0x3d28986a	0.04116098
176	0x3d8c068b	0.068371855
177	0x3d52f0dd	0.051499236
178	0x3d71720c	0.058946654
179	0x3daccb73	0.08437242
180	0x3dafa1e5	0.08575801
181	0x3e3e273c	0.18569654
182	0x3d822e66	0.06356506
183	0x3e095950	0.13412976
184	0x3d3865d8	0.045019
185	0x3e01c4bf	0.12672709
186	0x3d492a9e	0.04911291
187	0x3d39197e	0.045190327
188	0x3d7a88c8	0.0611656
189	0x3d8ac59a	0.06775971
190	0x3db0c8a7	0.086320214
191	0x3d4cafb5	0.049972255
192	0x3d84aefa	0.06478687
193	0x3d342af4	0.043986276
194	0x3d58f225	0.052965302
195	0x3da1bb20	0.078970194
196	0x3d7d78f1	0.061882917
197	0x3d110602	0.03540612
198	0x3d2bcba1	0.041942243
199	0x3d9f4b6f	0.0777806
200	0x3cb6a7b8	0.022296771
201	0x3d9f1626	0.07767896
202	0x3d777c9a	0.060421564
203	0x3d4e8e3b	0.05042861
204	0x3d42716f	0.04747146
205	0x3d10529f	0.035235044
206	0x3d35d9c5	0.044397134
207	0x3d12a1ea	0.035798945
208	0x3dee4715	0.116346516
209	0x3d413b41	0.04717565
210	0x3d4d7d57	0.05016836
211	0x3d656207	0.05600169
212	0x3d92fa4a	0.07176645
213	0x3d401b8f	0.046901282
214	0x3d1c315b	0.038133007
215	0x3d682682	0.05667735
216	0x3d96809e	0.073487505
217	0x3d639c5e	0.055569045
218	0x3dd00e0a	0.10158928
219	0x3d96a483	0.07355597
220	0x3d154ee0	0.036452174
221	0x3cf7f7d2	0.030269537
222	0x3d420283	0.047365677
223	0x3d5bf106	0.053696655
224	0x3d7e5159	0.062089298
225	0x3d7589d2	0.05994589
226	0x3d726a11	0.059183184
227	0x3dad2edb	0.084562026
228	0x3d96cfb6	0.073638365
229	0x3d6e6360	0.05820024
230	0x3d20e585	0.039281387
231	0x3d85a048	0.06524712
232	0x3d857f8a	0.06518467
233	0x3dd33821	0.1031344
234	0x3d336d49	0.043805394
235	0x3d98eba9	0.074668236
236	0x3d7d7772	0.06188149
237	0x3d85699c	0.06514284
238	0x3d868636	0.065685675
239	0x3d4f94c6	0.05067899
240	0x3defc331	0.11707152
241	0x3de0842f	0.10962712
242	0x3d544bd1	0.051830117
243	0x3d1ae1b9	0.037812922
244	0x3d55de5d	0.052214015
245	0x3e0a0192	0.13477162
246	0x3d9ed2f0	0.07755077
247	0x3d4e06b5	0.050299365
248	0x3e4cf703	0.20016102
249	0x3e03f610	0.12886834
250	0x3d88efda	0.06686373
251	0x3e10f077	0.1415423
252	0x3d26570c	0.040610358
253	0x3d42899c	0.047494516
254	0x3da54cda	0.08071299
255	0x3e085b1e	0.13316008

layers.4.weight f4 [256, 512]
0	0xbe057e3b	-0.13036434
1	0xb95d7c36	-0.00021122475
2	0xbd21fce6	-0.039547823
3	0xbd624d76	-0.055249654
4	0x3d3be76f	0.04587501
5	0x3b8523ab	0.00406309
6	0xbce20be7	-0.027593566
7	0xbd9b9107	-0.07596021
8	0xbe0191d7	-0.1265329
9	0x3b35bb6f	0.0027730127
10	0xbd86dd8a	-0.06585224
11	0x3d83cc22	0.064354196
12	0xbdb3250c	-0.087473005
13	0x3de2e9ba	0.11079736
14	0xbd249267	-0.040178683
15	0x3d01aec2	0.031660803
16	0xbd3324ba	-0.043736197
17	0x3c6f0045	0.014587467
18	0x3cf87f2a	0.030334074
19	0x3a9c0db9	0.0011905945
20	0x3c88303d	0.016624564
21	0xbd25da35	-0.0404913
22	0xbdcf5428	-0.101234734
23	0x3bd5a221	0.0065195714
24	0xbaf729e7	-0.0018857092
25	0xbd133a06	-0.035944007
26	0xbd8162b5	-0.06317655
27	0xbdaf100d	-0.08547983
28	0x3d0aba43	0.03386904
29	0x3c6d451e	0.014481811
30	0xbdc959d3	-0.09831586
31	0xbc2ada31	-0.010427997
32	0xbd83afa5	-0.06429986
33	0x3cf466d3	0.029834187
34	0xbd56ba28	-0.052423626
35	0xbbdf4ec9	-0.006814812
36	0x3d4e67ae	0.050391845
37	0xbce418a6	-0.027843785
38	0x3cd0ca11	0.025486978
39	0x3b88f3ee	0.0041794693
40	0xbde6ac02	-0.11263277
41	0x3d2342b6	0.039858542
42	0xbd87a87a	-0.06623931
43	0xbc6c546d	-0.014424426
44	0xbd0f27df	-0.034950133
45	0xbd6244cb	-0.055241387
46	0xbcc71183	-0.024300342
47	0xbe04f655	-0.12984593
48	0x3d4084a9	0.047001515
49	0xbdd5b905	-0.1043568
50	0xbd9d9b14	-0.076955944
51	0x3d70b862	0.05876959
52	0xbdbcd78b	-0.09220799
53	0x3c90bfb0	0.017669529
54	0xbe3393aa	-0.17536798
55	0xbc2767fc	-0.010217663
56	0xbd3644e6	-0.0444993
57	0xb9299f32	-0.00016176401
58	0x3dbd05d3	0.092296265
59	0x3e1703bc	0.14747518
60	0xbe850c8b	-0.25986132
61	0xbc217679	-0.009854906
62	0xbdc640bb	-0.09680315
63	0x3d8f4304	0.06995204
64	0x3cb551dc	0.02213376
65	0xbe4fd422	-0.20295766
66	0xbc9621f3	-0.018326735
67	0x3c9a703a	0.018852342
68	0xbe321973	-0.1739252
69	0xbbe8ba1e	-0.007102265
70	0xbdcf129d	-0.10110972
71	0xbda95a10	-0.08269131
72	0xbc4a4b01	-0.012346984
73	0xbbedd352	-0.0072578574
74	0xbc3cbd6b	-0.01151977
75	0x3d2eac74	0.042644933
76	0xbbf76a6b	-0.007550528
77	0xbdc2efde	-0.09518407
78	0xbc94ee1a	-0.018179942
79	0xbbe81e09	-0.0070836586
80	0x3cf05d24	0.029341288
81	0xbde71fc6	-0.11285357
82	0xbc9a20e7	-0.018814517
83	0xbd5e57fb	-0.054283123
84	0xbc435dee	-0.01192425
85	0x3c607a2c	0.013701003
86	0xbe6cd09b	-0.23126452
87	0xbdb99b70	-0.090628505
88	0x3ce250ae	0.027626362
89	0xbdba3b2f	-0.090933196
90	0x3ddd0e1d	0.107937075
91	0xbd46fb8a	-0.04857973
92	0xbd23580d	-0.039878894
93	0x3d450ddd	0.048108924
94	0x3ca297b7	0.019847734
95	0x3ce821a8	0.028336361
96	0xbd525c59	-0.0513576
97	0xbd63fa8c	-0.055658862
98	0xbc11f359	-0.008908116
99	0xbd1d81a1	-0.038453702
100	0x3deb3acb	0.11485823
101	0xbd55d525	-0.052205224
102	0xbd0ec645	-0.034857053
103	0x3c826b91	0.015920432
104	0xbb44bb61	-0.0030018913
105	0x3ce706bd	0.028201455
106	0x3c2656d4	0.010152537
107	0x3d8753c5	0.06607775
108	0x3cae5a21	0.021283211
109	0xbdf3bcf1	-0.11901272
110	0xbd8610c4	-0.065461665
111	0xbe359849	-0.17733873
112	0xbcde199d	-0.027111823
113	0xbd936a00	-0.07197952
114	0xbba6f1a8	-0.0050947256
115	0x3cbb4077	0.022857888
116	0x3c4e7dc5	0.012603228
117	0x3da6899f	0.08131718
118	0xbc892bd7	-0.016744537
119	0x3dd3929c	0.10330698
120	0xbb8e92a4	-0.004350977
121	0xbe2160b7	-0.1575955
122	0xbd2afd00	-0.041745186
123	0x3d10a72a	0.03531567
124	0x3d015d25	0.03158297
125	0x3da93637	0.08262294
126	0xbe2f88d1	-0.17142035
127	0x3d56cc7e	0.052441113
128	0x3b7a1df2	0.0038164821
129	0xbd135179	-0.03596637
130	0xbcf7edf8	-0.03026484
131	0x3c859780	0.016307592
132	0x3d006198	0.031343073
133	0xbe0da090	-0.13830781
134	0xbd99bca3	-0.07506683
135	0x3d558931	0.05213279
136	0x3c499c73	0.012305367
137	0x37b09904	2.1052088e-05
138	0x3bc1b632	0.005911612
139	0xbcd923c9	-0.026506322
140	0xbdbbd323	-0.091711305
141	0xbd2ed48d	-0.042683173
142	0xbdbe8cc0	-0.0930419
143	0x3d425623	0.047445428
144	0x3bd38325	0.0064548426
145	0xbdf076d5	-0.117414154
146	0x3d1efbee	0.038814478
147	0xbc98243d	-0.018571967
148	0xbe07d3ff	-0.13264464
149	0xbdce9af9	-0.100881524
150	0xbba925e5	-0.005161988
151	0xbe14bcce	-0.14525148
152	0xbcab8b9b	-0.020940593
153	0xbd5f0f08	-0.054457694
154	0xbdf77d91	-0.12084497
155	0xba6d0173	-0.00090410485
156	0xbbff8291	-0.007797547
157	0xbb4c21cf	-0.0031148081
158	0x3e1c0585	0.1523648
159	0x3b98a4ee	0.004658333
160	0xbd182880	-0.037148
161	0xbd8d3d0d	-0.0689641
162	0xbda3d8ff	-0.08000373
163	0xbcdc3c36	-0.02688418
164	0xbd0baa94	-0.034098223
165	0x3d9e42e1	0.077276
166	0xbd6d8b17	-0.057993975
167	0xbaf8601b	-0.001894954
168	0xbd83383d	-0.06407211
169	0x3d40ee48	0.047102243
170	0x3d98c147	0.0745874
171	0xbd9770b2	-0.07394542
172	0xbd89e943	-0.06733944
173	0xbc8d840c	-0.017274879
174	0x3cadd71d	0.021220738
175	0xbd43ddd1	-0.047818962
176	0xbdfdea66	-0.123982236
177	0x3d596024	0.053070202
178	0xbd60c4e7	-0.05487528
179	0x3d4ed47e	0.050495617
180	0x3e035033	0.12823562
181	0xbe1b9f32	-0.15197447
182	0x3ce01b26	0.027356695
183	0xbbd51c9e	-0.0065036556
184	0x3dcc51a2	0.09976508
185	0xbc2d93b4	-0.010594297
186	0xbdf2d4e4	-0.11857012
187	0xbda21729	-0.07914574
188	0x3bf2c38d	0.0074085654
189	0xbda529a4	-0.08064583
190	0x3cf34d96	0.029700082
191	0xbd64a26b	-0.055818956
192	0xbcf34541	-0.029696109
193	0x3ccbcee1	0.024878921
194	0xbdd6b435	-0.104835905
195	0x3e36062f	0.17775796
196	0x3d4d29c8	0.050088674
197	0xbd44b5a6	-0.048024796
198	0xbd1864e3	-0.037205588
199	0x3c3bda8a	0.011465678
200	0xbda801af	-0.08203446
201	0x3c8ecc51	0.01743141
202	0x3dae2f0a	0.08505066
203	0x3a64a959	0.00087227445
204	0xbcf75ced	-0.030195678
205	0xbdb416af	-0.08793389
206	0x3d8f6065	0.07000808
207	0x3d8efa9b	0.06981393
208	0xbc7d8c0f	-0.015475287
209	0xbc3fe5c4	-0.011712495
210	0xbd7e950c	-0.06215386
211	0x3d35ab2f	0.044352707
212	0xbd6dc86a	-0.058052458
213	0xbdb46aac	-0.088094085
214	0xbdf902c6	-0.12158732
215	0xbd5bfa6b	-0.053705614
216	0x3d955018	0.07290667
217	0x3c2d69d0	0.01058431
218	0x3cf7a1f1	0.030228587
219	0x3d8cddb4	0.06878224
220	0x3b959bbb	0.0045656837
221	0xbb6df906	-0.003631176
222	0x3e0721a4	0.13196427
223	0xbb6d9f8a	-0.0036258423
224	0xbb9ca176	-0.00477999
225	0x3d6a42b7	0.05719253
226	0xbd80fc61	-0.062981375
227	0xbdadb997	-0.08482664
228	0xbcdbadb4	-0.026816227
229	0x3b51b7ce	0.0032000425
230	0x3b26ee49	0.002547162
231	0xbd976344	-0.0739198
232	0x3d8af071	0.06784142
233	0xbd285fc8	-0.04110697
234	0xbde903fb	-0.11377712
235	0xbcf84485	-0.03030611
236	0x3d2c8244	0.04211642
237	0xbd9d919b	-0.07693788
238	0xbe01e24a	-0.12683979
239	0xbe57166d	-0.21004649
240	0xbd40b7c8	-0.047050267
241	0xbc377b9b	-0.011198903
242	0x3d7387f2	0.05945582
243	0xbdf4a01d	-0.11944602
244	0x3bc4761c	0.005995525
245	0x3be3beda	0.0069502415
246	0x3d20b8ad	0.03923862
247	0xbd834e18	-0.064113796
248	0x3b7318c3	0.0037093617
249	0xbc1e42d1	-0.009659485
250	0xbca43f06	-0.020049583
251	0x3bf48fbf	0.007463425
252	0xbcf0ddbb	-0.029402604
253	0xbdf00899	-0.1172039
254	0xbdc293e2	-0.09500863
255	0x3d48b33e	0.048999064
