cushion/h2_cushion_rom.pt (torch, 742379 bytes, 26 tensors)

layers.0.weight f4 [512, 12]
0.22198522 -0.014637687 0.1047128 -0.047787886 -0.14223045 -0.09778733 0.31600562 -0.013484806
0.21588777 -0.17139322 0.22857179 0.12213999 0.20151694 -0.11963598 -0.0595112 0.18794836
-0.3061518 -0.08824731 0.38361898 0.048762288 -0.0108231045 0.15472206 -0.021933295 0.021663792
0.06975278 -0.098721705 -0.012995978 0.2180145 0.35806173 0.10009642 -0.13940088 -0.23911606
0.21459122 -0.1585353 -0.039176848 0.046183158 0.29681575 -0.15868683 -0.18582803 -0.016437992
-0.10428796 0.14065422 0.47101152 0.07849364 0.042342298 0.02355969 0.01833395 0.0040129493
0.11819717 -0.037834402 -0.20756646 -0.34584528 0.367057 -0.31079867 0.28520802 -0.20548595
0.086485736 -0.23421419 0.02520153 0.0799518 0.15116659 -0.04872776 0.063027404 0.023883022
0.0002408716 -0.052357636 -0.11419121 -0.08245336 0.09892609 0.28588378 -0.07299055 -0.8360936
-0.24109815 -0.2832035 0.24244925 -0.13741496 -0.05719313 -0.07443891 -0.29842415 0.109609045
0.045410115 0.12054834 0.17362767 0.47052598 -0.038221136 0.0323529 0.012725569 0.07648494
0.4679323 -0.04665485 0.13700701 0.06917606 0.25118282 0.012554973 -0.1250516 0.03230092
0.15366957 -0.05784536 0.15156974 -0.12957366 0.02049097 0.01223014 0.017919954 -0.003169563
-0.015701398 -0.113378614 0.12916893 -0.8753127 -0.14206909 0.09486185 0.072691165 -0.030674314
-0.07752771 0.03683518 -0.5318413 -0.03995397 0.07082845 0.19378898 0.14774023 -0.33143395
0.3298083 -0.28120497 0.1892337 0.18605402 0.0151378 0.12937444 -0.42772123 0.036060695
0.18660402 0.14465168 0.0034653163 0.028869895 0.24399409 -0.1930453 0.06373386 -0.02247242
0.10281201 0.05995025 -0.056421015 -0.05510465 0.3427275 0.04631862 -0.020500798 -0.5164082
0.09400546 -0.09742768 0.010479169 0.25663117 -0.21441627 0.23376022 -0.55449057 -0.18226941
-0.2662275 0.09132159 -0.2736136 0.22991747 0.06390662 -0.19475025 0.004083357 0.25206584
0.01034931 -0.20526455 -0.14686185 0.33773667 -0.15526935 -0.1714618 -0.019995255 0.24715658
-0.21645367 0.12495073 -0.0006468913 0.0720057 0.10380609 -0.013032546 0.06254961 0.057362713
0.18384665 0.08381054 -0.5675029 0.03450791 0.30610725 -0.089745924 0.15051723 0.08983724
-0.12144906 -0.10357714 0.3208794 -0.0867381 -0.109712705 0.16643256 -0.09422521 0.41961733
0.102147385 -0.023625221 0.13025649 -0.16767456 -0.26436356 -0.09659919 -0.34009007 -0.11714096
0.09768084 0.13330609 0.4665816 0.09316593 0.1553743 0.11398257 -0.10866948 0.16377513
-0.016681291 -0.29001656 -0.59223664 0.12032781 -0.2606141 0.080435425 -0.13884111 0.07850916
-0.014337072 -0.08975813 0.13512492 -0.08882548 0.12834594 0.005160922 0.16896132 -0.092333116
-0.028134461 -0.1688476 0.20606719 -0.7046659 -0.36797878 0.32265025 -0.30525997 0.044796623
-0.017230498 -0.055748336 0.2369498 0.07578371 0.01632482 -0.16649199 0.055340484 0.1580602
0.332427 -0.07389362 -0.39492735 -0.17772351 -0.09218935 0.2040703 0.32395628 -0.14015302
0.10865483 -0.18612415 0.009798365 0.11148989 0.15748149 -0.2453592 -0.21513204 0.106352955
00000000: 1850 633e e9d2 6fbc aa73 d63d 3bbd 43bd
00000010: dca4 11be b944 c8bd 7dcb a13e 60ef 5cbc
00000020: af11 5d3e b481 2fbe b90e 6a3e 8824 fa3d
00000030: 755a 4e3e b503 f5bd 04c2 73bd 8975 403e
00000040: eebf 9cbe 01bb b4bd b569 c43e f7ba 473d
00000050: 6453 31bc 766f 1e3e 74ad b3bc 4478 b13c
00000060: 8cda 8e3d 9b2e cabd 15ed 54bc 313f 5f3e
00000070: de53 b73e 5aff cc3d 1bbf 0ebe d7da 74be
00000080: cdbd 5b3e 1457 22be e777 20bd 8d2a 3d3d
00000090: 3cf8 973e cd7e 22be b449 3ebe f8a8 86bc
000000a0: ed94 d5bd a907 103e 6c28 f13e 46c1 a03d
000000b0: 1e6f 2d3d 4000 c13c 1431 963c 0f7f 833b
000000c0: 5c11 f23d 3ff8 1abd 4d8c 54be a212 b1be
000000d0: e5ee bb3e 0121 9fbe c906 923e e96a 52be
000000e0: 6f1f b13d d8d5 6fbe 7073 ce3c c5bd a33d
000000f0: 6acb 1a3e c296 47bd 8314 813d 54a6 c33c
00000100: 7a92 7c39 f674 56bd 15dd e9bd 4fdd a8bd
00000110: c399 ca3d 5c5f 923e 127c 95bd 3b0a 56bf
00000120: 6fe2 76be 0d00 91be 9e44 783e 82b6 0cbe
00000130: 5843 6abd 6d73 98bd 0dcb 98be b57a e03d
00000140: f5ff 393d 0ce2 f63d 74cb 313e c8e8 f03e
00000150: c48d 1cbd 7984 043d e87e 503c 23a4 9c3d
00000160: d394 ef3e 2819 3fbd 914b 0c3e 2eac 8d3d
00000170: 099b 803e 60b3 4d3c 870d 00be f84d 043d
00000180: 8e5b 1d3e 42ef 6cbd 1935 1b3e f5ae 04be
00000190: aedc a73c ed60 483c decc 923c 71b8 4fbb
000001a0: 38a0 80bc 0c33 e8bd dc44 043e 7e14 60bf
000001b0: 8f7a 11be ee46 c23d 1bdf 943d b348 fbbc
000001c0: d9c6 9ebd 7ce0 163d c026 08bf c6a6 23bd
000001d0: 820e 913d 9e70 463e 3749 173e b6b1 a9be
000001e0: a2dc a83e 19fa 8fbe 7bc6 413e f284 3e3e
000001f0: 8904 783c bc7a 043e 47fe dabe 61b4 133d
00000200: 2015 3f3e 921f 143e 5c1a 633b 8f80 ec3c
00000210: 96d9 793e abad 45be e686 823d 1518 b8bc
00000220: 1a8f d23d 658e 753d b919 67bd 6ab5 61bd
00000230: fb79 af3e 98b8 3d3d 4af1 a7bc 5433 04bf
00000240: ef85 c03d 2a88 c7bd d2b0 2b3c 2965 833e
00000250: f08f 5bbe d75e 6f3e 18f3 0dbf d5a4 3abe
00000260: f94e 88be d006 bb3d 1517 8cbe 7c6f 6b3e
00000270: 79e1 823d 9c6c 47be aecd 853b c60e 813e
00000280: 2790 293c df30 52be f462 16be d2eb ac3e
00000290: eefe 1ebe af93 2fbe 17cd a3bc 9d16 7d3e
000002a0: 08a6 5dbe 2be6 ff3d 2494 29ba b977 933d
000002b0: 4a98 d43d 7686 55bc 031a 803d 2af5 6a3d
000002c0: 4c42 3c3e dca4 ab3d df47 11bf 2b58 0d3d
000002d0: 17ba 9c3e b6cc b7bd 3021 1a3e 96fc b73d
000002e0: 49ba f8bd 4020 d4bd 4e4a a43e bfa3 b1bd
000002f0: 0eb1 e0bd 4c6d 2a3e 26f9 c0bd 15d8 d63e
00000300: a632 d13d ae89 c1bc f561 053e e1b2 2bbe
00000310: a95a 87be ccd5 c5bd 4920 aebe 9ae7 efbd
00000320: e40c c83d 6481 083e c9e3 ee3e c7cd be3d
00000330: 711a 1f3e b26f e93d 1b8e debd abb4 273e
00000340: 34a7 88bc 0d7d 94be d29c 17bf 6d6e f63d
00000350: 366f 85be 54bb a43d 5d2c 0ebe 69c9 a03d
00000360: 0ae6 6abc 1cd3 b7bd 305e 0a3e 22ea b5bd
00000370: 1e6d 033e f41c a93b 3204 2d3e 2519 bdbd
00000380: 3e7a e6bc 63e6 2cbe 4703 533e fc64 34bf
00000390: b767 bcbe 6a32 a53e 094b 9cbe aa7c 373d
000003a0: f926 8dbc 5e58 64bd f8a2 723e 7d34 9b3d
000003b0: a1bb 853c e07c 2abe b4ac 623d 88da 213e
000003c0: df33 aa3e 8a55 97bd eb33 cabe 27fd 35be
000003d0: c5cd bcbd cef7 503e 99dd a53e 4684 0fbe
000003e0: 6c86 de3d 5497 3ebe 5289 203c d054 e43d
000003f0: d442 213e 713f 7bbe 934b 5cbe 94cf d93d

layers.0.bias f4 [512]
-0.40120047 -0.11877028 -0.2588242 -0.2570661 0.029144369 0.16277656 -0.010500003 -0.4454672
-0.06513785 0.19078882 -0.14376342 -0.14587274 0.12002175 -0.05722418 0.030730406 -0.32647532
-0.13856374 0.26088417 -0.06841129 -0.14765926 -0.16394715 -0.027237175 0.072382055 0.08569581
0.014647716 -0.24708152 -0.25905523 -0.066870704 -0.13804783 0.14573103 -0.16670233 0.25136462
-0.145798 0.39490506 -0.076745205 -0.37601745 -0.2095848 0.020451045 0.029549612 -0.30356133
-0.38075715 -0.14788131 -0.39127403 -0.029994853 0.1526628 0.07216128 0.042576518 -0.09801261
-0.5232518 0.024535015 -0.08540826 -0.2101189 -0.219248 -0.22150403 0.037917368 0.17970759
-0.22322996 -0.025947677 0.21565899 -0.06359856 0.10855628 0.16785754 -0.21550545 0.033244632
0.24390808 -0.14594041 0.051328614 0.19358656 0.21912716 -0.11475545 0.024899261 -0.4777689
0.09039701 -0.29134846 0.21206576 0.18055308 -0.06274317 -0.1297033 -0.021029316 0.02154253
-0.25547513 -0.03776268 -0.28355083 -0.035104223 -0.106760785 0.16932645 -0.11143838 -0.023862971
0.12921493 -0.033157464 0.3055372 0.45466626 -0.026000448 0.01167655 -0.12775001 -0.15141527
-0.06971944 -0.13593517 -0.05902878 0.14423473 0.26602113 -0.09192836 -0.06653889 0.23113748
-0.15794244 0.14908011 -0.17669557 0.21851268 -0.08937339 -0.14904612 -0.06154332 -0.24126655
-0.19198664 0.07532857 0.30012128 -0.31559423 -0.122302264 0.015112837 0.2677252 -0.017670054
-0.026225911 0.0842047 0.057465646 0.10165947 -0.3453881 0.07950926 -0.2465456 0.2800932
-0.029735576 0.117160715 0.12844601 0.27254406 0.07778325 -0.46990734 0.15992254 0.2700658
-0.019966314 -0.247507 -0.3099252 0.07910371 -0.27564737 -0.001424389 0.13787802 0.057031292
0.038930416 -0.04845247 -0.36417082 -0.021669129 -0.08202063 0.100850806 -0.064656116 -0.34192726
-0.14006117 0.07275176 -0.07296631 0.2426255 0.24014173 0.27121568 -0.07950918 -0.3235676
0.10329772 -0.062434025 -0.20287348 0.04704281 0.20379102 0.04658802 0.042802423 -0.03550155
-0.18367906 -0.037572682 0.069669046 0.054245215 -0.21449244 -0.23332287 0.086189754 0.26923114
0.13513245 0.08862094 0.17988259 -0.147203 -0.056367777 -0.54675114 -0.0037254798 -0.10836096
-0.3558827 0.24073653 -0.38764802 0.2667844 -0.5714604 -0.09273526 0.22861965 -0.06292731
0.08638838 -0.28610387 0.11542006 0.2419486 0.23703851 -0.027706763 0.15259498 0.0909048
-0.10777672 -0.026499096 -0.100716524 0.18808651 0.35118982 -0.010041578 0.21216042 0.043258116
-0.19043179 -0.38519818 -0.016640492 -0.18868585 0.29650077 -0.11878074 -0.53337055 0.1447881
0.19879651 -0.26492828 0.18205027 -0.32712263 0.114645824 0.052493926 -0.2421617 0.24379508
0.0023274974 0.04069699 -0.1425304 0.14273609 0.41374564 -0.2699841 -0.185622 0.15973781
0.10990511 -0.25475332 0.19563533 -0.214986 -0.09026999 0.10162541 0.311601 0.30023274
0.3385858 0.06345463 -0.030954288 0.08916589 0.06972859 0.17829554 0.30099007 -0.23075308
-0.34663782 -0.32285306 -0.3278879 -0.101026304 0.23076713 -0.06809609 -0.010349342 0.33675984
00000000: 266a cdbe d53d f3bd 9b84 84be 2b9e 83be
00000010: 2cc0 ee3c e6ae 263e 3408 2cbc 4714 e4be
00000020: fe66 85bd 255e 433e b836 13be aa5f 15be
00000030: f7cd f53d e763 6abd 55be fb3c c627 a7be
00000040: a7e3 0dbe 9c92 853e 381b 8cbd fd33 17be
00000050: c3e1 27be 7f20 dfbc 0b3d 943d 4981 af3d
00000060: f9fc 6f3c f002 7dbe e3a2 84be 82f3 88bd
00000070: 695c 0dbe 843a 153e 04b4 2abe ddb2 803e
00000080: 124c 15be ff30 ca3e 972c 9dbd 5c85 c0be
00000090: 669d 56be f388 a73c 0712 f23c 646c 9bbe
000000a0: 9af2 c2be 336e 17be 1255 c8be c4b7 f5bc
000000b0: a353 1c3e 4bc9 933d b764 2e3d d6ba c8bd
000000c0: d4f3 05bf a8fd c83c 87ea aebd 6929 57be
000000d0: 8c82 60be f4d1 62be 3e4f 1b3d 4405 383e
000000e0: 6596 64be 3990 d4bc b6d5 5c3e f63f 82bd
000000f0: c152 de3d d9e2 2b3e 76ad 5cbe 862b 083d
00000100: 0ac3 793e 6771 15be f43d 523d 8e3b 463e
00000110: df62 603e e804 ebbd 89f9 cb3c 209e f4be
00000120: 1122 b93d a02b 95be c427 593e e8e2 383e
00000130: 7e7f 80bd f1d0 04be ac45 acbc f679 b03c
00000140: a3cd 82be 0aad 1abd 932d 91be 72c9 0fbd
00000150: 66a5 dabd ea63 2d3e ce39 e4bd 477c c3bc
00000160: eb50 043e 1fd0 07bd 5f6f 9c3e 04ca e83e
00000170: e4fe d4bc 004f 3f3c e6d0 02be 9b0c 1bbe
00000180: 11c9 8ebd 9732 0bbe 29c8 71bd 45b2 133e
00000190: ec33 883e f044 bcbd 8b45 88bd 4eaf 6c3e
000001a0: aabb 21be 75a8 183e afef 34be cac1 5f3e
000001b0: 6509 b7bd 8c9f 18be d914 7cbd 940e 77be
000001c0: 2598 44be de45 9a3d 7fa9 993e 9195 a1be
000001d0: 9c79 fabd d59b 773c 4713 893e cac0 90bc
000001e0: b9d7 d6bc 8473 ac3d 1961 6b3d d732 d03d
000001f0: b6d6 b0be c0d5 a23d 7376 7cbe 6068 8f3e
00000200: 0698 f3bc f5f1 ef3d 5a87 033e e58a 8b3e
00000210: d34c 9f3d b297 f0be bcc2 233e 1146 8a3e
00000220: 6590 a3bc 7a72 7dbe 84ae 9ebe 2001 a23d
00000230: a721 8dbe 90b2 baba e52f 0d3e a599 693d
00000240: 8075 1f3d 1976 46bd 9974 babe 7583 b1bc
00000250: 6ffa a7bd de8a ce3d 6d6a 84bd 1711 afbe
00000260: 326c 0fbe e0fe 943d 5c6f 95bd d272 783e
00000270: b7e7 753e c8dc 8a3e b5d5 a2bd a7aa a5be
00000280: c18d d33d d2ba 7fbd 11be 4fbe f6af 403d
00000290: 98ae 503e 14d3 3e3d 9851 2f3d 136a 11bd
000002a0: 5d16 3cbe d0e5 19bd a5ae 8e3d 3b30 5e3d
000002b0: e8a3 5bbe 31ec 6ebe 4184 b03d aad8 893e
000002c0: 2960 0a3e e57e b53d 2433 383e 62bc 16be
000002d0: e6e1 66bd e2f7 0bbf 2e27 74bb 5aec ddbd
000002e0: 4236 b6be a383 763e cd79 c6be f797 883e
000002f0: 3b4b 12bf fceb bdbd 451b 6a3e 09e0 80bd
00000300: 64ec b03d 357c 92be 5a61 ec3d 60c1 773e
00000310: 39ba 723e 4bf9 e2bc dc41 1c3e 4c2c ba3d
00000320: 0aba dcbd a214 d9bc 7744 cebd c099 403e
00000330: 27cf b33e 6e85 24bc 9540 593e 6c2f 313d
00000340: 8d00 43be b238 c5be a451 88bc dd36 41be
00000350: f3ce 973e 5143 f3bd f98a 08bf 5543 143e
00000360: 5091 4b3e aea4 87be 636b 3a3e 9e7c a7be
00000370: 6ecb ea3d df03 573d 3df9 77be 6ba5 793e
00000380: ed88 183b e3b1 263d 7df3 11be 6929 123e
00000390: 78d6 d33e 5b3b 8abe b213 3ebe 4f92 233e
000003a0: ee15 e13d 076f 82be a154 483e 4a25 5cbe
000003b0: 79df b8bd fc20 d03d 2b8a 9f3e 1bb8 993e
000003c0: 1e5b ad3e 80f4 813d d993 fdbc 9b9c b63d
000003d0: ddcd 8e3d 1b93 363e 5f1b 9a3e 894a 6cbe
000003e0: 837a b1be ff4c a5be ece0 a7be e1e6 cebd
000003f0: 384e 6c3e f675 8bbd 4990 29bc c96b ac3e

layers.2.weight f4 [512]
0.82217944 0.7231907 0.6977624 0.62488943 0.80839956 0.8527849 0.93584085 0.7163596
0.907949 0.7339342 0.951693 0.72188395 0.78797174 0.569595 0.8561912 0.82555425
0.8300831 0.76041645 0.80161846 0.8337385 0.89262205 0.7089507 0.8907202 1.0070151
0.80321366 0.80646205 0.4920227 0.70297885 0.8557204 0.73207676 0.74366295 0.95331717
0.8829569 0.87416255 0.78956646 0.8557854 0.8963098 0.9753765 0.98697186 0.89652777
0.80697584 0.6917756 0.8778976 0.8120975 0.93357766 1.0516052 0.83335024 0.6475558
0.75181234 0.5121966 0.8163841 0.78869206 0.77466995 0.81523365 0.96294826 0.8543438
0.5057866 0.85094994 0.67705595 0.76785374 1.054132 0.77041286 0.93044615 0.889258
0.67802066 0.9430822 1.0797018 0.8457017 0.94815266 0.84901255 0.96443355 0.78510445
0.7614075 0.8275358 0.8248217 0.94735533 0.8980249 0.6647199 0.824641 0.92789114
0.8080469 0.45139173 0.7625873 0.72133404 0.7736272 0.71888083 0.84106153 0.8921604
0.6676881 0.9076514 0.8600521 0.73431623 0.7652858 0.8244732 0.9703902 0.7305678
0.8368516 0.70544004 0.7892003 0.90807784 0.7488333 0.6817576 0.86212486 0.976291
0.723611 0.82097876 0.7401788 0.7807396 0.9353352 0.9515027 0.939467 1.0135188
0.8728327 0.8743411 0.76278985 0.78024024 0.75669646 0.80526894 0.8380089 0.80407655
0.67071176 0.8407143 1.1357671 0.93897253 0.78180695 0.8167473 0.91370606 0.74731994
1.0275315 0.39757887 0.9962011 0.84937304 1.0024797 0.82228935 1.0254534 0.81296945
0.8751532 0.8718596 0.6061781 0.6711052 0.7179741 0.71265703 1.0299039 0.87956935
0.73413396 0.864484 0.80545044 0.5656 0.8346098 0.9788304 0.68801755 0.619759
0.84313816 1.0251594 0.9673138 0.679705 0.69401443 0.8658867 0.69538444 0.7308827
0.88879734 0.67483395 0.857314 1.012174 0.9380079 0.6245359 0.96597314 0.70875025
0.73968506 0.88639176 0.89696 1.2722017 0.8934887 0.98599696 1.0086403 0.6911849
0.79968965 0.99301744 0.7322658 0.8032698 0.7413159 0.6230266 0.981492 0.92096394
0.792461 0.8795886 0.95638406 0.80984414 0.8833446 0.9448967 0.6747978 0.6872397
0.857553 0.7772479 0.88553816 0.4775882 0.69241 0.65996015 0.6803244 0.9388278
0.6045804 0.81715727 0.91719717 0.59554994 0.81531537 0.9648277 0.78839433 1.0384529
0.93613416 0.8184967 0.8948364 0.7248334 0.89102036 0.7987058 0.84332806 0.89444745
0.71405274 0.80734026 0.8349493 0.48276764 0.69495916 0.9182054 0.797388 0.7116045
0.90072757 1.0019262 0.65127444 0.7252278 1.0148648 0.88493425 0.8613876 0.8085404
0.55261356 0.80815756 0.79607826 0.7423254 0.95580137 0.7240263 0.8246794 0.8836061
0.686473 0.9067188 0.9003042 0.8549695 0.82133555 0.86636436 0.76732117 0.9505354
0.69150895 0.8796775 0.9449778 0.818189 0.8324098 0.82276225 0.91868454 0.8875121
00000000: 5a7a 523f 0723 393f 8fa0 323f c1f8 1f3f
00000010: 46f3 4e3f 1c50 5a3f 4493 6f3f 5863 373f
00000020: 586f 683f 1de3 3b3f 27a2 733f 63cd 383f
00000030: 84b8 493f fad0 113f 592f 5b3f 8657 533f
00000040: 5380 543f a7aa 423f de36 4d3f e36f 553f
00000050: e182 643f cb7d 353f 3d06 643f dfe5 803f
00000060: 699f 4d3f 4c74 4e3f 66ea fb3e 6cf6 333f
00000070: 7e10 5b3f 6269 3b3f b260 3e3f 980c 743f
00000080: 7709 623f 1ec9 5f3f 0721 4a3f c114 5b3f
00000090: 8f74 653f 46b2 793f 30aa 7c3f d882 653f
000000a0: f895 4e3f 3518 313f e6bd 603f 9fe5 4f3f
000000b0: f2fe 6e3f 009b 863f 7156 553f 38c6 253f
000000c0: c676 403f 511f 033f 8cfe 503f b9e7 493f
000000d0: c550 463f 27b3 503f c783 763f 46b6 5a3f
000000e0: 3b7b 013f dbd7 593f 8a53 2d3f 1092 443f
000000f0: cced 863f c739 453f b831 6e3f 6aa6 633f
00000100: c392 2d3f d66d 713f ab33 8a3f e87f 583f
00000110: 22ba 723f e358 593f 1ee5 763f 9bfc 483f
00000120: 9aeb 423f 63d9 533f 8427 533f e185 723f
00000130: f6e4 653f 152b 2a3f ac1b 533f 468a 6d3f
00000140: 29dc 4e3f d11c e73e ec38 433f 59a9 383f
00000150: 6f0c 463f 9308 383f cf4f 573f a064 643f
00000160: 9bed 2a3f d85b 683f 602c 5c3f 26fc 3b3f
00000170: c5e9 433f ad10 533f 7e6b 783f 7e06 3b3f
00000180: e83b 563f b897 343f 0809 4a3f ca77 683f
00000190: 8ab3 3f3f ab87 2e3f 37b4 5c3f 35ee 793f
000001a0: 923e 393f aa2b 523f 5c7c 3d3f 8dde 473f
000001b0: 2172 6f3f ae95 733f e980 703f fcba 813f
000001c0: f771 5f3f d1d4 5f3f 3246 433f d3bd 473f
000001d0: dcb6 413f 1b26 4e3f c087 563f f6d7 4d3f
000001e0: c4b3 2b3f 0d39 573f d160 913f 8160 703f
000001f0: 8024 483f 5a16 513f a4e8 693f 5c50 3f3f
00000200: 2786 833f 758f cb3e 0907 7f3f 8370 593f
00000210: 4151 803f 8e81 523f 0f42 833f c41e 503f
00000220: 0a0a 603f 3132 5f3f 7d2e 1b3f 8dcd 2b3f
00000230: 27cd 373f b170 363f e4d3 833f 752b 613f
00000240: 34f0 3b3f d34e 5d3f 0032 4e3f 29cb 103f
00000250: fda8 553f a194 7a3f eb21 303f 87a8 1e3f
00000260: e7d7 573f 6c38 833f e1a1 773f 2601 2e3f
00000270: eeaa 313f c0aa 5d3f b704 323f 211b 3b3f
00000280: 3988 633f ebc1 2c3f ee78 5b3f eb8e 813f
00000290: 4921 703f 96e1 1f3f 044a 773f a870 353f
000002a0: 005c 3d3f 92ea 623f 2c9f 653f 81d7 a23f
000002b0: adbb 643f 4c6a 7c3f 201b 813f 7ef1 303f
000002c0: 76b8 4c3f 6436 7e3f c575 3b3f 17a3 4d3f
000002d0: e1c6 3d3f ac7e 1f3f 0f43 7b3f 4bc4 6b3f
000002e0: b9de 4a3f b82c 613f 96d5 743f f251 4f3f
000002f0: df22 623f c0e4 713f 8cbf 2c3f f1ee 2f3f
00000300: 9888 5b3f b8f9 463f a1b2 623f 7186 f43e
00000310: c841 313f 26f3 283f bd29 2e3f 0557 703f
00000320: c8c5 1a3f 3831 513f 6fcd 6a3f f675 183f
00000330: 82b8 503f f3fe 763f 36d4 493f 06ec 843f
00000340: 7da6 6f3f 0089 513f 0014 653f af8e 393f
00000350: e919 643f fc77 4c3f 59e4 573f 82fa 643f
00000360: 29cc 363f daad 4e3f 3dbf 553f 522d f73e
00000370: d8e8 313f 820f 6b3f 9f21 4c3f b62b 363f
00000380: 1596 663f 1e3f 803f ecb9 263f 87a8 393f
00000390: 17e7 813f 0d8b 623f e683 5c3f 81fc 4e3f
000003a0: 1578 0d3f 6ae3 4e3f c9cb 4b3f 0a09 3e3f
000003b0: 66af 743f ca59 393f 301e 533f 0234 623f
000003c0: b2bc 2f3f b91e 683f 567a 663f 48df 5a3f
000003d0: 0c43 523f 0eca 5d3f 296f 443f 4a56 733f
000003e0: bb06 313f 8b32 613f 11ea 713f d674 513f
000003f0: cf18 553f 8ca0 523f e92e 6b3f fe33 633f

layers.2.bias f4 [512]
-0.08094264 -0.103611626 -0.206799 0.006150287 -0.2814094 -0.75530547 -0.17072238 -0.114785805
-0.7783408 -0.52351654 -0.49789423 -0.31470504 -0.6554055 -0.25789246 0.06870194 -0.028471662
-0.7210592 -0.28265426 -0.5841488 -0.38463566 -0.39458105 -0.41828167 -0.5404555 -0.8765554
-0.7084768 -0.2581521 -0.25611088 -0.14133936 -0.7533241 -0.21714152 -0.2836896 -0.21749106
-0.645894 -0.4061417 -0.32787448 0.04138796 -0.44954923 -0.35395283 -1.144431 -0.27117738
-0.15506311 -0.34602535 -0.33547547 -0.80603594 -0.84890926 -0.07430923 -0.53892463 -0.30551213
0.033178147 -0.13542572 -0.24582344 -0.35307512 -0.33592603 -0.35892302 -0.86887527 -0.6972885
0.18264158 -0.5420286 -0.2560635 -0.7316012 -1.1516267 -0.46805486 -0.3813364 -0.5098804
-0.29677594 -0.78893244 -1.1414492 -0.5944925 -0.62140495 -0.3415411 -1.0259659 -0.24984978
-0.16720748 -0.3008444 -0.4131434 -0.928494 -0.040942226 -0.1907441 -0.79909116 -0.21879801
-0.20223382 0.007800504 -0.33851305 -0.26147413 -0.45804527 -0.50592 -0.8218229 -0.8546132
-0.56997615 -0.7444934 -0.56505454 -0.3220623 -0.30657166 -0.8398625 -0.38651463 -0.54056495
-0.3518054 -0.18438236 -0.548371 -0.7398041 -0.46968934 -0.37738606 -0.73220026 -1.0297072
-0.6713022 -0.69260085 -0.23800696 -0.55202466 -0.8027179 -0.46116462 -0.7567261 -0.26502067
-0.1587172 -0.7254181 -0.36986077 -0.22515562 -0.13048527 -0.78899497 -0.70769536 -0.65378433
-0.46932635 -0.56343013 -1.2476423 -0.8322443 -0.52224237 -0.5951593 -0.5440395 -0.4426383
-1.1527497 -0.103669606 -0.96479046 -0.3833714 -1.0365235 -0.19813527 -1.044111 -0.33228472
-0.58849835 -0.19506715 -0.29532072 -0.3714058 -0.21093577 -0.64801806 -1.0116265 -0.6842738
-0.16146669 -0.80633575 -0.21806337 -0.1674358 -0.27080584 -0.33325258 -0.6103002 -0.050429456
-0.40575343 -0.3767933 -0.6401146 -0.4531879 -0.37894788 -0.4639442 -0.19096757 -0.29990122
-0.8283501 -0.42134327 -0.51240534 -1.1578692 0.22074868 -0.39420038 -1.1314565 -0.5000165
-0.525512 -0.41119865 -0.50169426 -1.4346027 -0.66831136 -0.25462437 -0.9820702 -0.45860147
-0.39299312 -1.1791688 -0.63604885 -0.33155373 -0.21346328 0.23274966 -0.85173005 -0.9297351
-0.4355057 -0.66134745 -0.06717939 -0.5701287 -0.18366653 -0.061415 -0.27496383 -0.60814154
-0.90530795 -0.24224937 -0.73295885 -0.101174444 -0.37439507 -0.29329562 -0.31624556 -0.9784044
-0.28866997 -0.6681821 -0.8761566 -0.4773369 -0.5943461 -1.0160685 -0.6311864 -1.2236017
-0.39336687 -0.04137932 -0.59852916 -0.6168338 -0.84257174 -0.5468911 -0.13201638 -0.8034348
-0.12880884 -0.02957724 -0.3515321 0.007937276 -0.30376506 -0.8141396 0.009900534 -0.16424893
-0.48682094 -0.93493754 -0.5399332 -0.136727 -0.70558506 -0.31932232 -0.8192295 -0.6076445
-0.02852232 -0.39382225 -0.5923235 0.058077786 -0.35850254 -0.40548292 -0.87344855 -0.6380166
-0.10528404 -0.8290854 -0.97325957 -0.49245253 -0.56220406 -0.35531375 -0.65075827 -0.58050317
-0.39794886 -0.04897674 0.028824227 -0.37731415 -0.7730548 -0.710841 -0.92715514 -0.4989532
00000000: 41c5 a5bd 5532 d4bd 1ec3 53be 5988 c93b
00000010: e514 90be b35b 41bf d9d1 2ebe d214 ebbd
00000020: 5841 47bf 2e05 06bf feeb febe 0521 a1be
00000030: a8c8 27bf 7b0a 84be 9ab3 8c3d 673d e9bc
00000040: 5697 38bf 0fb8 90be c78a 15bf f7ee c4be
00000050: 8706 cabe 0429 d6be 4b5b 0abf ef65 60bf
00000060: bc5e 35bf 832c 84be f720 83be 44bb 10be
00000070: d9d9 40bf 595a 5ebe c33f 91be fab5 5ebe
00000080: 4f59 25bf cef1 cfbe 2adf a7be 6c86 293d
00000090: 512b e6be 4e39 b5be b77c 92bf c3d7 8abe
000000a0: ddc8 1ebe 3c2a b1be 71c3 abbe 5f58 4ebf
000000b0: 1e52 59bf 702f 98bd f7f6 09bf 166c 9cbe
000000c0: cfe5 073d 0aad 0abe 24b9 7bbe 43c6 b4be
000000d0: 7ffe abbe c2c4 b7be 9c6e 5ebf 8081 32bf
000000e0: 6506 3b3e 63c2 0abf c11a 83be 374a 3bbf
000000f0: 8168 93bf e3a4 efbe 863e c3be 8687 02bf
00000100: 04f3 97be 7af7 49bf 021b 92bf a930 18bf
00000110: 6514 1fbf 7ade aebe da52 83bf 9fd8 7fbe
00000120: 7038 2bbe 4708 9abe 8887 d3be c8b1 6dbf
00000130: 09b3 27bd 6c52 43be 3d91 4cbf 960c 60be
00000140: 6216 4fbe 5f9b ff3b 9551 adbe f0df 85be
00000150: e984 eabe f983 01bf fc62 52bf eec7 5abf
00000160: f5e9 11bf 1f97 3ebf 6aa7 10bf 5ae5 a4be
00000170: f6f6 9cbe 3b01 57bf 3fe5 c5be 7762 0abf
00000180: d61f b4be bbce 3cbe 0b62 0cbf cd63 3dbf
00000190: 1f7b f0be bf38 c1be 7a71 3bbf 72cd 83bf
000001a0: 76da 2bbf 4a4e 31bf 19b8 73be 7d51 0dbf
000001b0: ec7e 4dbf c51d ecbe cdb8 41bf cab0 87be
000001c0: c386 22be 00b5 39bf 645e bdbe 328f 66be
000001d0: ee9d 05be 93fb 49bf 862b 35bf 695e 27bf
000001e0: 8b4b f0be f53c 10bf beb2 9fbf f60d 55bf
000001f0: adb1 05bf 5c5c 18bf 2c46 0bbf 7da1 e2be
00000200: 4d8d 93bf bb50 d4bd 82fc 76bf 4249 c4be
00000210: cdac 84bf f9e3 4abe 6ea5 85bf 3921 aabe
00000220: d4a7 16bf afbf 47be 4734 97be e728 bebe
00000230: 8cff 57be 83e4 25bf fa7c 81bf 912c 2fbf
00000240: 8657 25be 056c 4ebf 014c 5fbe 4a74 2bbe
00000250: 10a7 8abe 15a0 aabe a23c 1cbf 1e8f 4ebd
00000260: eabe cfbe 0deb c0be 8dde 23bf 3f08 e8be
00000270: 7505 c2be 188a edbe 018d 43be a78c 99be
00000280: c10e 54bf 4eba d7be ff2c 03bf 0f35 94bf
00000290: f10b 623e a2d4 c9be 91d3 90bf 1501 00bf
000002a0: f487 06bf a188 d2be 096f 00bf 10a1 b7bf
000002b0: 7416 2bbf 205e 82be f468 7bbf d0cd eabe
000002c0: 6536 c9be 01ef 96bf 19d4 22bf 69c1 a9be
000002d0: 1e96 5abe ed55 6e3e fb0a 5abf 1f03 6ebf
000002e0: 9afa debe 114e 29bf 5995 89bd f4f3 11bf
000002f0: 1413 3cbe 4c8e 7bbd 0fc8 8cbe 2aaf 1bbf
00000300: 43c2 67bf 3810 78be 31a3 3bbf 8c34 cfbd
00000310: b6b0 bfbe d82a 96be f0ea a1be b678 7abf
00000320: 8dcc 93be fb0d 2bbf cd4b 60bf 8165 f4be
00000330: 1127 18bf 880e 82bf 6f95 21bf fb9e 9cbf
00000340: 6267 c9be 5d7d 29bd 3539 19bf d2e8 1dbf
00000350: c8b2 57bf 0e01 0cbf 4d2f 07be e7ad 4dbf
00000360: 77e6 03be f84b f2bc 04fc b3be 590b 023c
00000370: 1887 9bbe 746b 50bf d935 223c df30 28be
00000380: 9840 f9be 1158 6fbf 1039 0abf 2a02 0cbe
00000390: 39a1 34bf 377e a3be 06b9 51bf 978e 1bbf
000003a0: a4a7 e9bc 12a3 c9be 83a2 17bf f9e2 6d3d
000003b0: a58d b7be 759b cfbe 539a 5fbf 0e55 23bf
000003c0: 299f d7bd f13e 54bf 8a27 79bf bd22 fcbe
000003d0: 9bec 0fbf afeb b5be 1898 26bf db9b 14bf
000003e0: f4bf cbbe d69b 48bd c920 ec3c 522f c1be
000003f0: ebe6 45bf adf9 35bf 0a5a 6dbf cb76 ffbe

layers.2.running_mean f4 [512]
0.041513827 -0.022445314 -0.035292618 0.017345343 -0.028311107 -0.2961386 -0.01517003 -0.018179644
-0.3799856 -0.18412527 0.030535623 -0.21439627 -0.25580916 0.057798505 -0.076954566 0.027977796
-0.20507018 -0.10065462 -0.27746162 -0.0783298 -0.061372697 -0.12780567 -0.09047058 -0.4583886
-0.50049704 -0.096907735 0.1941798 -0.0034692662 -0.16901493 -0.10802817 0.013350272 0.023563739
-0.1432976 -0.16713353 -0.08345582 0.18802789 0.06751275 -0.0155521175 -0.41802582 0.034320284
0.045845978 -0.117169484 -0.14907412 -0.27829698 -0.40192088 0.024594931 -0.12202927 0.015471779
-0.07987554 0.5530222 0.0016758158 -0.050720945 -0.07576868 -0.034038905 -0.20305115 -0.2723368
0.11962406 -0.20967546 -0.18513176 -0.3639187 -0.561438 -0.11769717 -0.04517512 -0.2031424
-0.1894592 -0.094453484 -0.60270244 -0.4043373 -0.22785296 -0.055512268 -0.6182506 0.023101518
-0.018971812 -0.08112048 -0.08225753 -0.33824375 0.039423812 -0.10790612 -0.23492558 -0.012317783
0.004184112 0.44268516 0.094719745 0.023422444 -0.07547099 -0.21124712 -0.4171384 -0.26315317
-0.36245763 -0.1427395 -0.22042297 -0.09859838 0.019457666 -0.37916508 0.17801087 -0.23034735
-0.012145571 -0.08449053 -0.15783373 -0.3799497 -0.086299084 -0.13549219 -0.427547 -0.28337154
-0.16410388 -0.16650645 -0.03796436 -0.2895584 -0.39453658 -0.06666706 -0.35923925 0.018360628
-0.012289035 -0.38445708 -0.081357695 -0.10453414 -0.027899938 -0.24095277 -0.17674348 -0.38621312
-0.24074586 -0.19450703 -0.5999008 -0.42822945 -0.07884344 -0.1388885 -0.12106561 -0.21514623
-0.4767274 0.4698838 -0.4674794 -0.10471746 -0.5008082 -0.056569763 -0.49129727 -0.2765169
-0.21553925 -0.00041766444 -0.086118124 -0.074979 -0.019006303 -0.3411471 -0.4662702 -0.16448481
-0.22938651 -0.48874718 -0.049420513 0.85984075 -0.03355545 -0.018679008 -0.26310584 0.24904312
-0.23061523 -0.07074208 -0.0981158 -0.112732075 -0.12786649 -0.018887423 -0.027524346 0.026230788
-0.22097808 -0.21952233 -0.026492748 -0.43114448 0.059223205 -0.05878124 -0.50580096 -0.13527969
-0.10219746 -0.037538663 -0.068853624 -0.7685992 -0.12955314 -0.016582943 -0.48793697 -0.18411587
-0.102591015 -0.48139092 -0.17568156 -0.00047418935 0.058578677 0.07841587 -0.4640187 -0.1794572
-0.14586277 -0.22651348 0.005006159 -0.1900899 -0.010187294 -0.10928043 -0.04646223 -0.20366222
-0.34750307 -0.023725625 -0.37902918 0.59693915 -0.10888951 -0.06891994 -0.085435994 -0.28134626
0.01355853 -0.15547676 -0.21951123 -0.1926005 -0.19013003 -0.47483835 -0.1666062 -0.5009104
-0.04398065 0.03330266 -0.27079934 -0.28361022 -0.08506188 -0.11263829 0.059403785 -0.44158176
-0.08038548 0.058651406 -0.18990006 0.029498583 -0.020538038 -0.45396718 0.025251444 -0.06670485
-0.14540775 -0.3967598 -0.2930536 -0.113302395 -0.10962332 -0.16521233 -0.48265076 -0.14859839
0.07732641 -0.024724992 -0.20785652 -0.0068296846 -0.033190593 -0.09058318 -0.22689746 -0.15227255
-0.09976857 -0.4304752 -0.46665683 -0.24085543 -0.18855813 -0.05240756 -0.3983419 -0.07490091
0.018701373 0.031370476 0.15745011 -0.17159957 -0.35325113 -0.3877525 -0.31295857 -0.10342855
00000000: 670a 2a3d 3cdf b7bc fe8e 10bd d217 8e3c
00000010: b2ec e7bc 7b9f 97be b88b 78bc 7aed 94bc
00000020: 798d c2be 568b 3cbe d825 fa3c b28a 5bbe
00000030: 6bf9 82be 20be 6c3d 5b9a 9dbd b131 e53c
00000040: ebfd 51be 0224 cebd 730f 8ebe 606b a0bd
00000050: f061 7bbd 7ddf 02be a448 b9bd e9b1 eabe
00000060: 9320 00bf 9077 c6bd 12d7 463e a15c 63bb
00000070: 4012 2dbe e03d ddbd 19bb 5a3c be08 c13c
00000080: 9bbc 12be 0d25 2bbe e3ea aabd 628a 403e
00000090: 2044 8a3d 4fce 7ebc 7b07 d6be 6d93 0c3d
000000a0: fec8 3b3d 8ef6 efbd e3a6 18be f17c 8ebe
000000b0: 93c8 cdbe 4f7b c93c 7bea f9bd 587d 7d3c
000000c0: ca95 a3bd dd92 0d3f 0ca7 db3a c4c0 4fbd
000000d0: 9c2c 9bbd 616c 0bbd a4ec 4fbe bb6f 8bbe
000000e0: 76fd f43d 2ab5 56be 2e93 3dbe 8d53 babe
000000f0: 67ba 0fbf 370b f1bd 8c09 39bd 9004 50be
00000100: 9801 42be d470 c1bd b54a 1abf 4c05 cfbe
00000110: 4952 69be d560 63bd ac45 1ebf 653f bd3c
00000120: c66a 9bbc 7f22 a6bd a376 a8bd 492e adbe
00000130: dd7a 213d e2fd dcbd 5590 70be 87d0 49bc
00000140: e01a 893b a1a7 e23e 6dfc c13d 6de0 bf3c
00000150: 8990 9abd 2a51 58be 2a93 d5be 03bc 86be
00000160: 0c94 b9be 4e2a 12be 8fb6 61be f3ed c9bd
00000170: af65 9f3c ed21 c2be 7b48 363e 2de0 6bbe
00000180: 38fe 46bc 5f09 adbd 2a9f 21be c488 c2be
00000190: 93bd b0bd 77be 0abe 71e7 dabe 1316 91be
000001a0: d90a 28be ab80 2abe 8480 1bbd 0041 94be
000001b0: b300 cabe bd88 88bd 35ee b7be 0769 963c
000001c0: f357 49bc 8fd7 c4be dd9e a6bd ff15 d6bd
000001d0: 698e e4bc 53bc 76be 3efc 34be babd c5be
000001e0: 1586 76be da2c 47be 1993 19bf e440 dbbe
000001f0: ab78 a1bd c938 0ebe 3ff1 f7bd 4b4f 5cbe
00000200: 9d15 f4be 9c94 f03e 7659 efbe 1c76 d6bd
00000210: f734 00bf b2b5 67bd 518b fbbe a093 8dbe
00000220: 52b6 5cbe f9f9 dab9 b35e b0bd 978e 99bd
00000230: 1bb3 9bbc d5aa aebe f8ba eebe b56e 28be
00000240: 4ce4 6abe 123d fabe 2a6d 4abd 861e 5c3f
00000250: 7171 09bd b804 99bc cfb5 86be 2905 7f3e
00000260: 6626 6cbe 39e1 90bd f0f0 c8bd 13e0 e6bd
00000270: 6fef 02be ccb9 9abc bd7a e1bc f3e1 d63c
00000280: 1448 62be 76ca 60be 5207 d9bc f8be dcbe
00000290: 0894 723d 99c4 70bd 2c7c 01bf c286 0abe
000002a0: e74c d1bd 24c2 19bd 2103 8dbd ebc2 44bf
000002b0: 94a9 04be f4d8 87bc e0d2 f9be df88 3cbe
000002c0: 3d1b d2bd df78 f6be dee5 33be 9e9c f8b9
000002d0: 32f0 6f3d 8098 a03d dc93 edbe a1c3 37be
000002e0: 0d5d 15be 26f3 67be b50a a43b eda6 42be
000002f0: 9ce8 26bc 6bce dfbd 2e4f 3ebd d48c 50be
00000300: eceb b1be 3e5c c2bc 1d10 c2be 01d1 183f
00000310: 7701 dfbd e625 8dbd 11f9 aebd 9e0c 90be
00000320: 9924 5e3c 4d35 1fbe 8dc7 60be 1139 45be
00000330: 72b1 42be 031e f3be d19a 2abe aa3b 00bf
00000340: 0e25 34bd 5f68 083d 36a6 8abe 5c35 91be
00000350: ec34 aebd e7ae e6bd 6251 733d 0117 e2be
00000360: 24a1 a4bd 753c 703d 2975 42be 03a7 f13c
00000370: 633f a8bc 636e e8be 1edc ce3c 8d9c 88bd
00000380: c5e5 14be 1a24 cbbe 1f0b 96be 160b e8bd
00000390: 3182 e0bd 6c2d 29be 001e f7be 2d2a 18be
000003a0: 4f5d 9e3d 118c cabc 57d8 54be 8ccb dfbb
000003b0: dcf2 07bd ad83 b9bd cf57 68be 56ed 1bbe
000003c0: 7753 ccbd 3f67 dcbe a5ed eebe cea2 76be
000003d0: 6215 41be 4fa9 56bd 78f3 cbbe a665 99bd
000003e0: 9f33 993c 547e 003d 9a3a 213e ccb7 2fbe
000003f0: 55dd b4be 7f87 c6be 1b3c a0be 59d2 d3bd

layers.2.running_var f4 [512]
0.023165602 0.031573314 0.033465244 0.043413077 0.05498068 0.09955389 0.06278636 0.040631615
0.11575005 0.052473124 0.045446977 0.05814265 0.072969496 0.035484347 0.0902121 0.045527343
0.06363633 0.054670446 0.08239745 0.040381297 0.055655897 0.04839081 0.116999455 0.1387337
0.16637088 0.06687914 0.0514412 0.030890362 0.051938783 0.048572462 0.0377256 0.04561206
0.09143157 0.055478163 0.06724883 0.041018933 0.039007563 0.06562315 0.11911231 0.029439515
0.032287043 0.0563473 0.062389746 0.09656506 0.1309947 0.036456108 0.054840177 0.04347275
0.045716774 0.091519505 0.05044842 0.05094678 0.0354299 0.0449728 0.067740895 0.073187545
0.02913895 0.05921284 0.046516232 0.13865337 0.19792134 0.035687886 0.06769661 0.066718206
0.044335548 0.07438206 0.24149074 0.14332189 0.1287347 0.06250383 0.24147421 0.024203688
0.022719296 0.07017276 0.051094823 0.106899075 0.04139244 0.057965696 0.14091662 0.061666038
0.055890538 0.0686273 0.054675065 0.043271948 0.040151596 0.068647824 0.10620673 0.085937984
0.08280359 0.061448347 0.057480637 0.03852497 0.051170852 0.085325085 0.035847858 0.06608421
0.06769125 0.03558382 0.043505102 0.106900245 0.03634803 0.065846585 0.127119 0.07255687
0.05558654 0.050642684 0.054525707 0.05694558 0.12598132 0.09661775 0.11813717 0.08573057
0.076790825 0.13716668 0.03225883 0.038144726 0.05630011 0.080447115 0.056880075 0.10763732
0.060798753 0.06829588 0.23029806 0.13671473 0.06069425 0.046719864 0.062197402 0.045442622
0.17404775 0.05335366 0.1313289 0.053897943 0.15879428 0.068662085 0.16140856 0.10591182
0.06497267 0.055530366 0.043456454 0.033200126 0.041782476 0.10110139 0.15307261 0.07289402
0.083865434 0.13147034 0.037316483 0.15657485 0.13298634 0.054294232 0.05541721 0.06305276
0.09300085 0.056285456 0.05741419 0.04273386 0.05573813 0.028606392 0.049877644 0.056686476
0.06685607 0.08791103 0.040474568 0.1348984 0.046414215 0.04584858 0.18167713 0.05189617
0.05990815 0.046774987 0.04853829 0.3189997 0.07246406 0.062703915 0.16644637 0.052708834
0.06586101 0.15613559 0.046533044 0.047511116 0.048895806 0.029803565 0.14216371 0.08073166
0.04023218 0.081811704 0.02946096 0.0650204 0.046530236 0.089012265 0.065518096 0.07909233
0.089677274 0.045350924 0.12102484 0.078296855 0.04234356 0.05452886 0.046935625 0.090461686
0.02896717 0.070854165 0.09409711 0.06121938 0.043871753 0.13697897 0.07094515 0.16659684
0.055556685 0.027657064 0.0936455 0.06309956 0.030260408 0.043419063 0.057191037 0.13306335
0.03304828 0.04098804 0.0674567 0.03930746 0.029256862 0.12821154 0.07276915 0.060992174
0.101355135 0.11893571 0.07353625 0.067494296 0.027378075 0.0549653 0.16329989 0.060545523
0.051127933 0.05953337 0.057631336 0.040680576 0.04726712 0.050700124 0.053528108 0.05749604
0.02819031 0.1503901 0.13795644 0.09293372 0.06664967 0.04159593 0.14383237 0.06487921
0.038722627 0.036208015 0.0431772 0.069480106 0.1066312 0.1157852 0.0977689 0.06874673
00000000: cac5 bd3c 0553 013d da12 093d e9d1 313d
00000010: 6c33 613d e9e2 cb3d 2396 803d 566d 263d
00000020: 5d0e ed3d 0fee 563d 9c26 3a3d fd26 6e3d
00000030: 0871 953d 0958 113d 1fc1 b83d e17a 3a3d
00000040: c453 823d 1eee 5f3d ffbf a83d dc66 253d
00000050: 70f7 633d 7135 463d 699d ef3d 3510 0e3e
00000060: 215d 2a3e eef7 883d 02b4 523d c90d fd3c
00000070: c3bd 543d ebf3 463d 2986 1a3d b6d3 3a3d
00000080: 7a40 bb3d 123d 633d c1b9 893d 7803 283d
00000090: 65c6 1f3d 6e65 863d 28f1 f33d 232b f13c
000000a0: 6b3f 043d 6dcc 663d 648c 7f3d e7c3 c53d
000000b0: 7a23 063e 0053 153d 18a0 603d 7b10 323d
000000c0: 8341 3b3d 946e bb3d 01a3 4e3d 92ad 503d
000000d0: f11e 113d 6635 383d bdbb 8a3d 5ae3 953d
000000e0: cfb4 ee3c 2a89 723d ce87 3e3d 26fb 0d3e
000000f0: e4ab 4a3e 762d 123d 85a4 8a3d 8ea3 883d
00000100: 3199 353d 9f55 983d 5949 773e f9c2 123e
00000110: 07d3 033e 0202 803d 0445 773e d046 c63c
00000120: d11d ba3c bcb6 8f3d ce48 513d e7ed da3d
00000130: 1f8b 293d 706d 6d3d 724c 103e 8795 7c3d
00000140: 7aed 643d 788c 8c3d f6f2 5f3d ed3d 313d
00000150: 0076 243d 3b97 8c3d ea82 d93d 4100 b03d
00000160: ee94 a93d 43b1 7b3d d170 6b3d 5ccc 1d3d
00000170: 8798 513d ebbe ae3d 34d5 123d 2957 873d
00000180: b6a1 8a3d 57c0 113d 6832 323d 84ee da3d
00000190: ace1 143d 93da 863d 7c2b 023e b298 943d
000001a0: b6ae 633d b46e 4f3d 5956 5f3d c53f 693d
000001b0: 3f01 013e 87df c53d e7f1 f13d 8293 af3d
000001c0: 8244 9d3d 6c75 0c3e d621 043d a53d 1c3d
000001d0: f29a 663d 75c1 a43d 15fb 683d f570 dc3d
000001e0: 1d08 793d b6de 8b3d 41d3 6b3e f2fe 0b3e
000001f0: 899a 783d 545d 3f3d b4c2 7e3d 0b22 3a3d
00000200: 9339 323e 5e89 5a3d 157b 063e 17c4 5c3d
00000210: f89a 223e b59e 8c3d 4948 253e 4ce8 d83d
00000220: 6410 853d cf73 633d 65ff 313d dbfc 073d
00000230: 1a24 2b3d 3f0e cf3d 11bf 1c3e 7649 953d
00000240: a4c1 ab3d 29a0 063e 2bd9 183d 2855 203e
00000250: 922d 083e a163 5e3d 28fd 623d ce21 813d
00000260: 3b77 be3d 948b 663d 242b 6b3d b309 2f3d
00000270: aa4d 643d f457 ea3c 804c 4c3d 1430 683d
00000280: d6eb 883d b30a b43d a9c8 253d ce22 0a3e
00000290: d51c 3e3d b8cb 3b3d 9209 3a3e 1491 543d
000002a0: 4062 753d 2197 3f3d 16d0 463d ee53 a33e
000002b0: 0968 943d e96a 803d eb70 2a3e 38e5 573d
000002c0: 23e2 863d 02e2 1f3e 6f99 3e3d 049b 423d
000002d0: f846 483d 9b26 f43c 5d93 113e a456 a53d
000002e0: 80ca 243d e58c a73d 1c58 f13c 6a29 853d
000002f0: 7d96 3e3d 104c b63d 5a2e 863d 29fb a13d
00000300: b8a8 b73d e4c1 393d dfdb f73d 1a5a a03d
00000310: 7170 2d3d a759 5f3d 923f 403d fa43 b93d
00000320: 8f4c ed3c fd1b 913d fcb5 c03d 2cc1 7a3d
00000330: deb2 333d 3744 0c3e b14b 913d 5d98 2a3e
00000340: 688f 633d 1191 e23c 36c9 bf3d 583a 813d
00000350: ade4 f73c 30d8 313d 2641 6a3d c241 083e
00000360: a25d 073d 13e3 273d bd26 8a3d dc00 213d
00000370: 16ac ef3c e349 033e fe07 953d eed2 793d
00000380: 4893 cf3d 9194 f33d 2c9a 963d 733a 8a3d
00000390: fc47 e03c 4b23 613d 1638 273e 95fe 773d
000003a0: 866b 513d 43d9 733d d60e 6c3d ada0 263d
000003b0: 2b9b 413d efaa 4f3d 4a40 5b3d f880 6b3d
000003c0: 5def e63c ddff 193e 7444 0d3e 0954 be3d
000003d0: 9f7f 883d 7e60 2a3d cb48 133e 64df 843d
000003e0: 9e9b 1e3d db4e 143d 93da 303d 964b 8e3d
000003f0: 7561 da3d ca20 ed3d 103b c83d 16cb 8c3d

layers.4.weight f4 [256, 512]
0.10111641 0.0059095384 -0.12767333 0.08758753 0.0036564094 0.00018843461 -0.028810414 -0.18639484
-0.025835242 0.016702175 0.0016267186 -0.12536427 0.01746935 -0.01252272 0.06554925 0.032371048
0.00017221263 0.021439657 0.00644434 -0.042196188 0.05873881 -0.009075723 -0.06294569 -0.0731339
0.112046845 0.11843084 -0.09971846 -0.008302066 0.023435142 0.07236928 -0.020124722 -0.21612489
0.030673167 -0.06592545 0.06408882 0.19466774 0.021186396 -0.106764354 -0.07813989 0.0035884385
0.06522895 0.16099666 -0.09852638 0.23023282 0.019855157 0.00033422335 0.112905465 -0.126756
-2.7691407e-05 -0.017587068 0.0056659025 0.106734596 0.022547707 -0.022228664 0.09562055 -0.018636698
0.021270934 0.028724255 0.041491758 0.023659661 0.2922126 0.026409058 0.031245055 0.0027543204
-0.12327551 0.030273886 0.4015129 0.15784106 0.05239469 0.09859658 0.23714694 -0.08166268
-0.015577644 0.10733645 0.06140792 -0.047799136 -0.087023504 0.123770595 -0.13429745 0.10745642
0.05018688 -0.15497723 0.0061682537 -0.14876926 0.049726408 0.06134738 -0.06265413 0.033738844
0.021013428 -0.15017252 0.042105444 0.031072782 0.1102757 0.009290295 -0.08463799 -0.06803187
-0.08392573 0.11176195 -0.07719305 0.120043024 0.11631975 -0.008174016 0.15512976 0.0790672
0.033433612 -0.019345244 -0.07230505 0.2082538 0.1654435 -0.006019939 -0.075606026 0.0964722
-0.025267245 -0.09510735 -0.057829 -0.008520053 -0.032654807 -0.0024890834 0.06593111 -0.14358759
-0.030295637 0.08394636 0.33170283 -0.001969958 -0.032459147 -0.061229285 0.05609153 0.07228946
-0.050018042 -0.09355956 0.022847971 -0.09463923 -0.020257944 -0.28151765 0.24615228 0.10118681
0.009719525 -0.012778656 0.1578506 -0.03650526 -0.027133135 0.044257667 0.19619876 0.044353306
0.06979682 0.14931037 -0.02074404 -0.012588903 0.072812594 0.020040756 0.08016878 0.06552927
-0.073998764 -0.049477093 0.08358015 -0.04896527 -0.01100658 -0.123704225 -0.03021203 0.020506622
-0.09240747 0.11963523 0.12228857 0.041709512 -0.19633198 0.072534844 0.009468263 0.057776034
-0.078199565 0.08570604 0.015728384 0.22057395 0.01986094 0.11320226 0.27124754 0.111250594
-0.028218793 -0.0047261617 -0.100709565 0.23754494 0.016148113 0.02531884 -0.04290389 -0.057931885
0.03748169 -0.05344061 0.045265365 0.09407461 0.11392226 0.017956534 0.030744592 0.044993397
-0.008948467 -0.023244366 0.094547294 -0.026901608 -0.21757774 -0.0034568824 0.03240065 -0.0875753
-0.08628797 -0.0024389618 -0.06467271 0.0537553 -0.06762684 -0.048984483 -0.08198679 -0.08439178
-0.08982138 0.04351862 -0.009553824 0.048343305 0.018198386 -0.09518959 -0.006318237 -0.03271452
-0.16017787 0.085238956 0.0007319646 -0.021514911 0.057447147 0.17693402 -0.05665017 0.03915297
0.09635825 0.04665274 -0.006880131 -0.040094595 -0.027648246 0.029034566 0.1671712 0.07255822
0.097955905 0.16409749 -0.058737602 0.10847498 0.084592566 0.007864579 0.21519984 0.096891396
-0.06531145 -0.042558596 0.0054758326 0.114149116 0.15505281 -0.0014906353 0.08786442 -0.048442323
-0.027451292 -0.0152034145 -0.019967597 -0.09685597 -0.009688653 0.02191418 0.0072485358 -0.071366206
00000000: 1f16 cf3d cda4 c13b ccbc 02be 1761 b33d
00000010: 5fa0 6f3b 8896 4539 d103 ecbc 4ade 3ebe
00000020: 6ea4 d3bc 00d3 883c 9e37 d53a 7e5f 00be
00000030: e21b 8f3c 182c 4dbc af3e 863d 8197 043d
00000040: fa93 3439 38a2 af3c 0b2b d33b e9d5 2cbd
00000050: 1b98 703d 57b2 14bc abe9 80bd 3ac7 95bd
00000060: d178 e53d de8b f23d 3139 ccbd 6305 08bc
00000070: 0efb bf3c 5836 943d 9adc a4bc d84f 5dbe
00000080: 4b46 fb3c ec03 87bd 0041 833d fb56 473e
00000090: 188f ad3c 45a7 dabd cf07 a0bd 022c 6b3b
000000a0: c196 853d 4fdc 243e 33c8 c9bd 27c2 6b3e
000000b0: 48a7 a23c b33a af39 fb3a e73d 53cc 01be
000000c0: d84a e8b7 c112 90bc 09a9 b93b ab97 da3d
000000d0: f8b5 b83c e318 b6bc b5d4 c33d fdab 98bc
000000e0: 6240 ae3c 214f eb3c 43f3 293d e8d1 c13c
000000f0: e49c 953e cf57 d83c a1f5 ff3c d481 343b
00000100: df77 fcbd f100 f83c 1993 cd3e 16a1 213e
00000110: d19b 563d 01ed c93d a6d6 723e c33e a7bd
00000120: 6039 7fbc 36d3 db3d df86 7b3d 07c9 43bd
00000130: 6139 b2bd 707b fd3d 4585 09be 1d12 dc3d
00000140: c290 4d3d 5ab2 1ebe 101f ca3b f856 18be
00000150: ebad 4b3d 6447 7b3d cf50 80bd be31 0a3d
00000160: 5a24 ac3c d3c6 19be c276 2c3d 598c fe3c
00000170: 3ad8 e13d 5236 183c af56 adbd 4b54 8bbd
00000180: 41e1 abbd 73e3 e43d 6417 9ebd 1ed9 f53d
00000190: 0d39 ee3d 4fec 05bc 56da 1e3e fced a13d
000001a0: aff1 083d eb79 9ebc ac14 94bd 7c40 553e
000001b0: 056a 293e e942 c5bb 55d7 9abd 3793 c53d
000001c0: 41fd cebc a4c7 c2bd 1ade 6cbd b197 0bbc
000001d0: 0cc1 05bd e41f 23bb e406 873d a008 13be
000001e0: 8e2e f8bc 12ec ab3d f4d4 a93e 691a 01bb
000001f0: e2f3 04bd 8fcb 7abd 3bc0 653d 7f0c 943d
00000200: b8df 4cbd 289c bfbd ab2b bb3c 36d2 c1bd
00000210: fdf3 a5bc 1523 90be 580f 7c3e 083b cf3d
00000220: a53e 1f3c 915d 51bc 96a3 213e 8a86 15bd
00000230: 4f46 debc 8747 353d 54e8 483e d0ab 353d
00000240: a3f1 8e3d d1e4 183e 68ef a9bc b041 4ebc
00000250: c51e 953d 832c a43c 882f a43d 3634 863d
00000260: aa8c 97bd 7ea8 4abd 122c ab3d cf8f 48bd
00000270: f154 34bc a458 fdbd 387f f7bc 81fd a73c
00000280: 2140 bdbd 5103 f53d 6e72 fa3d 98d7 2a3d
00000290: 400b 49be 268d 943d c620 1b3c 90a6 6c3d
000002a0: 1827 a0bd a686 af3d d0d8 803c 23de 613e
000002b0: 69b3 a23c 96d6 e73d f5e0 8a3e 5ad7 e33d
000002c0: 192b e7bc ebdd 9abb d140 cebd fb3e 733e
000002d0: 0c49 843c 7569 cf3c fdbb 2fbd fc49 6dbd
000002e0: 6786 193d 8be4 5abd 2d68 393d 30aa c03d
000002f0: 1350 e93d 9519 933c 15dc fb3c ff4a 383d
00000300: 979c 12bc f86a bebc 03a2 c13d c360 dcbc
00000310: b3cc 5ebe dd8c 62bb 8bb6 043d ae5a b3bd
00000320: bfb7 b0bd fdd6 1fbb 2073 84bd 842e 5c3d
00000330: f17f 8abd f4a3 48bd b1e8 a7bd 99d5 acbd
00000340: 46f4 b7bd 9540 323d a487 1cbc a103 463d
00000350: c814 953c c2f2 c2bd 3709 cfbb a9ff 05bd
00000360: ab05 24be c391 ae3d 50e1 3f3a 0a40 b0bc
00000370: b34d 6b3d 312e 353e 020a 68bd dd5e 203d
00000380: 7957 c53d f216 3f3d b972 e1bb 3b3a 24bd
00000390: 937e e2bc e6d9 ed3c ed2e 2b3e 6799 943d
000003a0: 1b9d c83d 2c09 283e d796 70bd 2128 de3d
000003b0: de3e ad3d 6fda 003c 595d 5c3e ff6e c63d
000003c0: 02c2 85bd ec51 2ebd 9d6e b33b 03c7 e93d
000003d0: 2ac6 1e3e 6c61 c3ba 43f2 b33d 756b 46bd
000003e0: 88e1 e0bc be17 79bc 1693 a3bc 6c5c c6bd
000003f0: 28bd 1ebc 5e85 b33c 2085 ed3b 7228 92bd

layers.4.bias f4 [256]
-0.5314019 -0.27585196 -0.14211616 -0.07721847 -0.42255896 -0.043580584 -0.09710668 -0.63421273
-0.11704353 -0.14823383 -0.17290896 -0.047721233 0.06746804 0.015419256 -0.4882169 -0.3895415
-0.11275612 -0.03452184 -0.1200341 -0.24391344 0.051447593 -0.22801185 -0.29933414 -0.18403916
0.04465844 -0.31270564 -0.6713539 0.02168274 0.09380489 -0.4319583 -0.17366004 -0.83824474
-0.08782112 -0.10421548 0.029781718 -0.77941084 -0.29215172 -0.73703 -0.12612545 0.049727287
-0.1470215 -0.20910032 -0.07809108 -0.2866983 -0.25332555 -0.14056757 -0.30672824 -0.03778889
-0.48305216 -0.37988326 -0.55837214 -0.028073436 -0.1064116 -0.76693666 -0.1893931 -0.19368944
-0.0913393 0.033487048 -0.2091281 -0.72077596 -0.08386113 -0.038463145 -0.004174667 0.1044448
-0.2511638 -0.7088656 -0.15663399 -0.0278167 0.100159675 -0.00062573527 -0.13277653 -0.10040868
0.09320077 -0.28799802 -0.36159468 -0.10880995 -0.39122817 -0.29774037 -0.32750544 -0.25339475
-0.0758496 -0.5367885 0.037163563 -0.01445694 -0.041325383 -0.6265516 -0.21444952 -0.44036472
-0.076392464 -0.20118794 -0.12903857 -0.55484277 -0.102373876 -0.35400105 -0.47390938 -0.28897163
-0.6317338 -0.29602355 0.09653847 -0.65313905 -0.2536855 0.17201397 -0.5862539 -0.25048372
-0.30874023 -0.09967863 -0.20084243 -0.13164857 -0.62626463 -0.11402424 0.082048215 0.0029432182
-0.8008082 -0.26720262 -0.0998421 -0.3052873 -0.44320613 -0.7736845 0.0148195475 -0.46814314
-0.49054143 -1.0064044 -0.36889136 0.07339681 -0.12890948 -0.22166425 0.17054705 -0.3262636
-0.3494845 -0.80281335 -0.58585703 -0.3852663 -0.07378231 -0.5208418 -0.10533778 -0.5428262
-0.26266953 -0.49567997 0.051694296 -0.16866454 0.10289608 -0.040486988 -0.29705554 -0.07559822
-0.41282314 -0.56900615 -0.004166312 0.066005014 -0.26465243 0.0049551423 -0.3471056 -0.18729024
-0.08309923 -0.16227706 -0.30847055 -0.36553434 -0.6109805 -0.43156633 -0.6811119 -0.26123196
-0.047779057 -0.1312414 -0.12648533 -0.107196175 -0.38640422 -0.23144025 -0.30543494 -0.52643585
0.011651632 -0.24191488 -0.19050208 -0.07070424 -0.09051787 -0.19648385 -0.09197244 -0.56746554
-0.32894814 -0.3348732 -0.24127692 -0.38510484 -0.44495434 -0.31563458 -0.20740323 -0.087408476
-0.4931631 -0.26873758 -0.048135445 -0.09582615 0.018020762 -0.33522472 0.018154385 -0.18638079
-0.3002751 -0.21395282 -0.12710251 -0.18005219 0.07089717 -0.28216732 -0.049589295 -0.048028365
-0.2437796 -0.05858196 -0.5676649 -0.2396753 -0.25041217 -0.25451195 -0.45775262 -0.09145758
-0.3663625 -0.25881216 0.04048914 -0.12951238 -0.73444116 -0.32334316 -0.29515582 -0.5740074
-0.033259846 -0.7514462 -0.40582561 -0.33611277 -0.78375155 -0.09054584 -0.39174342 -0.13663565
-0.02894621 -0.08920741 -0.34129053 -0.12686948 -0.06178263 -0.24993226 -0.26603612 -0.027793424
0.0365382 -0.06158111 -0.11716682 0.06811064 -0.40320393 -0.3097145 -0.14208756 -0.20235081
-0.44709307 -0.061809268 -0.23909974 -0.547457 -0.3943312 -0.0014620371 0.06980693 -0.2491192
-0.1770284 -0.23423709 -0.38713524 0.03104604 -0.14264238 -0.11802772 -0.2141067 -0.37210488
00000000: f409 08bf 783c 8dbe e686 11be b824 9ebd
00000010: a659 d8be 8e81 32bd dedf c6bd c45b 22bf
00000020: 85b4 efbd 9cca 17be 0c0f 31be 5777 43bd
00000030: af2c 8a3d 0ca1 7c3c 91f7 f9be fc71 c7be
00000040: aeec e6bd c666 0dbd 70d4 f5bd 72c4 79be
00000050: b6ba 523d f07b 69be 5342 99be c374 3cbe
00000060: c5eb 363d f41a a0be d9dd 2bbf 00a0 b13c
00000070: c71c c03d a329 ddbe f0d3 31be 3597 56bf
00000080: 8fdb b3bd ed6e d5bd caf8 f33c 7887 47bf
00000090: e994 95be 00ae 3cbf 0827 01be d7ae 4b3d
000000a0: ce8c 16be 651e 56be 37ee 9fbd 1fca 92be
000000b0: e3b3 81be f2f0 0fbe 7c0b 9dbe 86c8 1abd
000000c0: 9d52 f7be 0f80 c2be 7af1 0ebf 43fa e5bc
000000d0: 53ee d9bd f655 44bf 44f0 41be 8656 46be
000000e0: 1910 bbbd b729 093d ad25 56be c684 38bf
000000f0: 62bf abbd 888b 1dbd a5cb 88bb 28e7 d53d
00000100: 8b98 80be 3778 35bf a964 20be d9df e3bc
00000110: 8420 cd3d 6208 24ba 92f6 07be 11a3 cdbd
00000120: 0ce0 be3d 7a74 93be f022 b9be c0d7 debd
00000130: 0f4f c8be 6d71 98be cbae a7be f5bc 81be
00000140: 0957 9bbd f96a 09bf d238 183d cddc 6cbc
00000150: ce44 29bd b065 20bf a898 5bbe 7c77 e1be
00000160: a773 9cbd 3604 4ebe b022 04be 2d0a 0ebf
00000170: 65a9 d1bd a03f b5be 40a4 f2be 17f4 93be
00000180: 4eb9 21bf 6690 97be f6b5 c53d 1f34 27bf
00000190: 11e3 81be 6e24 303e bc14 16bf 673f 80be
000001a0: 3313 9ebe 4f24 ccbd a3a9 4dbe e2ce 06be
000001b0: e152 20bf 8a85 e9bd e508 a83d 02e3 403b
000001c0: c401 4dbf c8ce 88be 047a ccbd 9e4e 9cbe
000001d0: eaeb e2be 3010 46bf b0cd 723c 75b0 efbe
000001e0: 3f28 fbbe dcd1 80bf 54df bcbe 1151 963d
000001f0: d900 04be f4fb 62be e3a3 2e3e 060c a7be
00000200: a2ef b2be 2d85 4dbf bafa 15bf a041 c5be
00000210: 2e1b 97bd e355 05bf 56bb d7bd a8f6 0abf
00000220: 9f7c 86be c4c9 fdbe 66bd 533d 66b6 2cbe
00000230: 2ebb d23d afd5 25bd aa17 98be 3dd3 9abd
00000240: 8e5d d3be 63aa 11bf 8f85 88bb a32d 873d
00000250: 8680 87be bf5e a23b d3b7 b1be 03c9 3fbe
00000260: ee2f aabd f52b 26be daef 9dbe 5127 bbbe
00000270: 3869 1cbf 43f6 dcbe 595d 2ebf 32c0 85be
00000280: f9b3 43bd 2564 06be 5f85 01be ab89 dbbd
00000290: c6d6 c5be acfe 6cbe f861 9cbe 80c4 06bf
000002a0: 7de6 3e3c 89b8 77be fa12 43be 62cd 90bd
000002b0: 6f61 b9bd 1033 49be 0c5c bcbd 6c45 11bf
000002c0: e46b a8be 8074 abbe 4c11 77be 762c c5be
000002d0: 0ed1 e3be db9a a1be 8361 54be 3703 b3bd
000002e0: e07f fcbe f997 89be ac29 45bd 8040 c4bd
000002f0: 47a0 933c 93a2 abbe 81b8 943c 9bda 3ebe
00000300: a8bd 99be 7316 5bbe 2927 02be 9a5f 38be
00000310: 8932 913d 3c78 90be 251e 4bbd 64b9 44bd
00000320: 5ca1 79be a3f3 6fbd 7d52 11bf 716d 75be
00000330: 0636 80be 644f 82be 8d5e eabe 1d4e bbbd
00000340: de93 bbbe 0783 84be f1d7 253d e59e 04be
00000350: 5604 3cbf 3c8d a5be aa1e 97be 26f2 12bf
00000360: 7a3b 08bd c75e 40bf 60c8 cfbe f916 acbe
00000370: f1a3 48bf 1970 b9bd 9892 c8be 37ea 0bbe
00000380: 9a20 edbc 60b2 b6bd a2bd aebe 13ea 01be
00000390: c80f 7dbd 3eee 7fbe e335 88be 09af e3bc
000003a0: 14a9 153d 793c 7cbd 28f5 efbd 977d 8b3d
000003b0: bf70 cebe e692 9ebe 677f 11be 0d35 4fbe
000003c0: 62e9 e4be b72b 7dbd 90d6 74be 2426 0cbf
000003d0: c7e5 c9be d3a1 bfba f0f6 8e3d 1b19 7fbe
000003e0: ef46 35be d9db 6fbe 9736 c6be 4454 fe3c
000003f0: d810 12be 84b8 f1bd c93e 5bbe 8884 bebe
