cushion/h2_cushion_rom.pt (torch, 102215 bytes, 32 tensors)

layers.0.weight f4 [32, 12]
0	0x3e9d665f	0.30742165
1	0xbf0c19aa	-0.5472666
2	0x3eb65e45	0.35618797
3	0xbefdbe07	-0.49559042
4	0xbdbac5e0	-0.09119773
5	0x3ccdf3b9	0.02514063
6	0xbe5ce6eb	-0.21572463
7	0xbd8cfd7d	-0.068842866
8	0x3e10c708	0.14138424
9	0x004c3c60	7.001156e-39
10	0x3c221016	0.0098915305
11	0x3e8bf9d4	0.2733904
12	0x3e3243c3	0.17408662
13	0xbdc97e6e	-0.09838568
14	0x3dcf3b62	0.10118748
15	0xbdca12a2	-0.09866835
16	0xbdb0d098	-0.08633536
17	0x3c90471c	0.017612033
18	0xbd9c04ad	-0.07618079
19	0xbd25577f	-0.040366646
20	0x3da0dffe	0.07855223
21	0x004c0aa3	6.983313e-39
22	0xbf3ada26	-0.7298912
23	0xbf7876c3	-0.97056216
24	0x3c00f163	0.007870051
25	0xbb52dafa	-0.0032173977
26	0xc01a640c	-2.4123564
27	0x3d61b1fe	0.055101387
28	0x3bef862e	0.0073096966
29	0x3c1762d3	0.00923987
30	0xbd016910	-0.031594336
31	0xbc23e735	-0.0100038545
32	0x3c45adb5	0.012065341
33	0x004c28a2	6.994074e-39
34	0x3ad501cf	0.0016251149
35	0xbc735161	-0.014850945
36	0x3d959b87	0.07305055
37	0xbd8ce155	-0.06878916
38	0x3eebf48c	0.46085012
39	0xbf7fd3d9	-0.9993263
40	0x3c9421d7	0.018082542
41	0xbc23734d	-0.00997622
42	0xbe1975b9	-0.14986314
43	0xbd3986fc	-0.045294747
44	0x3d75a2ff	0.0599699
45	0x004c47bf	7.005235e-39
46	0xbd01b91e	-0.031670682
47	0x3e6cefdd	0.23138376
48	0x3d4f4555	0.05060323
49	0xbc94a143	-0.018143302
50	0xbc9ace64	-0.018897243
51	0x3d8b7376	0.06809132
52	0xbcaa7a66	-0.020810317
53	0xba11f2c8	-0.0005567488
54	0x3c8ccd60	0.017187774
55	0xbb86e2ea	-0.0041164057
56	0x3d3bf8a0	0.045891404
57	0x004c2c54	6.9954e-39
58	0xbe158aac	-0.1460368
59	0xbfe315ea	-1.7741063
60	0x3c757cf9	0.014983409
61	0xbd5696f3	-0.05239005
62	0x3d94f7ae	0.07273804
63	0xbd8bbcbf	-0.0682311
64	0xbb8fb7da	-0.0043859305
65	0x3c2436cb	0.010022829
66	0xbda17d54	-0.078852326
67	0xbc58ecee	-0.013240082
68	0x3ed43aae	0.4145102
69	0x004c4483	7.004075e-39
70	0xbd437857	-0.047722187
71	0xbf9de300	-1.23349
72	0x3ddc145d	0.107460715
73	0xbd8180c8	-0.06323391
74	0x3d5d3379	0.054004166
75	0xbce52525	-0.027971813
76	0xbbd61a1c	-0.006533874
77	0x3c5ba353	0.013405639
78	0xbd3bbc8d	-0.045834113
79	0xbd2b4c48	-0.041820794
80	0x3dd662d0	0.10468066
81	0x804c3d91	-7.001584e-39
82	0xbe1a52d7	-0.15070663
83	0xbfd530c0	-1.6655502
84	0x3e8303e4	0.25588906
85	0xbdf1f2d8	-0.11813897
86	0x3d9f26c8	0.07771069
87	0xbd50157c	-0.05080174
88	0xbe9599f8	-0.2921903
89	0x3cce3f1e	0.025176581
90	0xbe7ae790	-0.24502397
91	0xbd3eb12d	-0.046555687
92	0xbe5eb3d5	-0.21748288
93	0x804c12fe	-6.986311e-39
94	0x3f3d6b8b	0.7399222
95	0x3e9f875f	0.31157967
96	0x3ccb4292	0.024812017
97	0xbda2a87d	-0.07942293
98	0x3d40a3ac	0.04703109
99	0xbccb068e	-0.024783399
100	0x3c820228	0.015870169
101	0xbc8980ec	-0.016785108
102	0xbd78e93e	-0.060769312
103	0xbcb32ddd	-0.021872455
104	0x3e3106c6	0.1728774
105	0x004c3634	6.998942e-39
106	0x3e18933a	0.14899912
107	0xbfd4fd53	-1.6639808
108	0x3d93d029	0.07217438
109	0x3e880040	0.2656269
110	0x3d8603d3	0.06543698
111	0xbe04208d	-0.12903042
112	0xbd93a7cd	-0.0720974
113	0x3c1e0e42	0.009646954
114	0x3f64c120	0.89357185
115	0x3e0238c7	0.12716971
116	0xbbfcd03f	-0.0077152546
117	0x804c0dd8	-6.984464e-39
118	0x3d0815c4	0.033223882
119	0x3d5f969a	0.054586984
120	0xbddeaddf	-0.10873007
121	0xbdd7a7bc	-0.1053004
122	0xbe2fd217	-0.17169987
123	0x3e18a43a	0.14906397
124	0xbb850b53	-0.004060188
125	0xbddac872	-0.10682763
126	0xbf4a76a5	-0.7908729
127	0xbd877861	-0.06614757
128	0xbe0b72e9	-0.13618053
129	0x804c484b	-7.005432e-39
130	0xbd2ebd97	-0.042661276
131	0xbd9f00b9	-0.0776381
132	0xbe4c753c	-0.19966596
133	0xbd66c105	-0.05633642
134	0xbc9553c0	-0.018228412
135	0x3c9e3c00	0.01931572
136	0x3d0b062b	0.03394143
137	0xbbc59156	-0.0060292883
138	0xbb7e2713	-0.0038780614
139	0xbbbbc082	-0.005729736
140	0x3dcf1611	0.10111631
141	0x804c0f5c	-6.985008e-39
142	0x3f510500	0.81648254
143	0xbeeb0b0f	-0.45906875
144	0xbf620379	-0.8828655
145	0x3f0229a9	0.5084482
146	0x3e9575c6	0.29191417
147	0xbe9788fe	-0.29596704
148	0x3e165f94	0.14684898
149	0xbd057f82	-0.032592304
150	0x3d2061a5	0.03915562
151	0xbca6e7e9	-0.020374255
152	0x3d8158de	0.06315778
153	0x004c30c2	6.996989e-39
154	0xbd076c17	-0.033062067
155	0x3e1f5f03	0.15563588
156	0x3d128859	0.035774563
157	0x3d99febf	0.07519292
158	0xbd02c5b3	-0.031926822
159	0x3dc56134	0.09637681
160	0x3cd09b49	0.02546467
161	0xbc136f74	-0.00899874
162	0x3e51d634	0.20491868
163	0xbc0a9167	-0.008457518
164	0x3e1a8bd3	0.15092401
165	0x004c2dbb	6.995903e-39
166	0xbe0f6d18	-0.1400646
167	0x3fc1aa59	1.5130111
168	0xbf1dc854	-0.616338
169	0x3eefe39c	0.4685334
170	0xbe85d277	-0.26137134
171	0x3e3b4055	0.1828626
172	0x3d7c0428	0.0615274
173	0xbc50db3f	-0.012747585
174	0x3ca0dd9a	0.019636918
175	0x3ddfe4b7	0.10932296
176	0xbe29862f	-0.16555093
177	0x004c4ad3	7.00634e-39
178	0xbcff8639	-0.031191932
179	0xbe90d0f0	-0.28284407
180	0x3d3f9975	0.046777207
181	0x3d3cef16	0.046126448
182	0x3c740f58	0.014896236
183	0x3abddfc3	0.0014486242
184	0xbc78d907	-0.015188462
185	0x3bff1c9b	0.0077853925
186	0x3dcfd891	0.10148729
187	0xbba6fb21	-0.005095855
188	0xbef9f65f	-0.4882078
189	0x004c3d74	7.001543e-39
190	0x3cd2cf2a	0.02573355
191	0x3fafa20b	1.3721327
192	0xbddc8f58	-0.10769528
193	0xbc3c1d86	-0.011481648
194	0xbdce1897	-0.10063284
195	0x3df8d1ec	0.121494144
196	0x3cdc0e02	0.026862148
197	0x3c327746	0.010892695
198	0x3d3dda87	0.046350982
199	0x3b3bebac	0.0028674407
200	0xbcd216a6	-0.025645565
201	0x804c34ef	-6.998487e-39
202	0x3e3494a5	0.17634828
203	0xbfba1d1b	-1.4540132
204	0xbf5cc8c6	-0.86243856
205	0x3ed255dd	0.41081133
206	0xbe2f8bb9	-0.17143144
207	0x3e1633e1	0.14668228
208	0xbc0ac6bf	-0.008470236
209	0x3d38b9a3	0.045098912
210	0xbe2cb782	-0.16866878
211	0xbbc3446e	-0.005959085
212	0xbd2ff8b5	-0.042961795
213	0x004c131e	6.986356e-39
214	0x3cfe2d26	0.031027388
215	0xbe224997	-0.15848385
216	0x3ba2c244	0.004967006
217	0xbba5122f	-0.005037568
218	0xbd679015	-0.05653389
219	0x3cf2490f	0.029575853
220	0x3d3eda9b	0.046595197
221	0x3c55e69c	0.01305547
222	0x3c4d75a6	0.012540257
223	0xbc105866	-0.008810138
224	0xbf74485d	-0.9542292
225	0x004c1887	6.988296e-39
226	0xbdbfee31	-0.09371603
227	0x3f02f436	0.51153886
228	0x3c75a13f	0.014992057
229	0xbbe5b307	-0.007009867
230	0xc018eb36	-2.3893561
231	0x3d6faa1b	0.058511835
232	0x3c64046b	0.013917069
233	0x3c2bfc44	0.0104971565
234	0xbd0eef06	-0.03489592
235	0xbc909d5a	-0.017653156
236	0x3c30527e	0.010761855
237	0x004c3aa9	7.000541e-39
238	0xbba39247	-0.004991803
239	0xbcc1a1f6	-0.0236368
240	0x3f06ca12	0.52652085
241	0xbf0f0487	-0.55866283
242	0x3e5f674d	0.2181675
243	0xbe00b453	-0.12568788
244	0xbdf8461a	-0.12122746
245	0xbb661115	-0.0035105397
246	0x3da93405	0.08261875
247	0xbd973dd5	-0.073848404
248	0x3e001759	0.12508906
249	0x804c14ad	-6.986915e-39
250	0x3ccf580d	0.02531054
251	0x3ebd8839	0.37017992
252	0x3d9acb47	0.07558303
253	0xbdd0c14c	-0.101931185
254	0x3e1edfe4	0.15515095
255	0xbd39a70b	-0.04532532

layers.0.bias f4 [32]
0	0x3e052447	0.1300212
1	0x3e9a4cbf	0.30136678
2	0x3e1a7177	0.15082346
3	0xbd4ad63e	-0.049520724
4	0x3e3e16a5	0.18563326
5	0x3dc82c02	0.09774019
6	0x3e6001b9	0.21875657
7	0xbe9c8000	-0.30566406
8	0x3e09c271	0.1345308
9	0xbf1b0505	-0.60554534
10	0x3f06cfe1	0.5266095
11	0xbe986f37	-0.2977235
12	0xbe703b04	-0.23460013
13	0xbedcf91f	-0.43158814
14	0x3e414fbb	0.18878071
15	0x3d472981	0.048623566
16	0x3e6135ef	0.2199323
17	0x3e994270	0.299335
18	0x3eaa1c2c	0.33224618
19	0x3e08e93c	0.13370222
20	0xbe9a60ce	-0.3015198
21	0x3e935528	0.28775907
22	0x3eea9c13	0.458222
23	0x3ec5bb8e	0.38619655
24	0x3ebe15e3	0.37126073
25	0x3eaab9f4	0.33344996
26	0xbf0b3374	-0.54375386
27	0x3e89913d	0.2686862
28	0xbf1a65fd	-0.6031187
29	0x3e03ef52	0.12884262
30	0x3de912be	0.11380528
31	0x3e7a03d2	0.2441552

layers.3.weight f4 [32]
0	0x3f47bd46	0.78023183
1	0x3f29f754	0.6639302
2	0x3f484b52	0.7823993
3	0x3f41217b	0.7544171
4	0x3f6b97c2	0.9202844
5	0x3f788bc5	0.9708827
6	0x3f8b5fc1	1.0888597
7	0x3f5a6b57	0.8532004
8	0x3f8b799e	1.089649
9	0x3f327881	0.69715124
10	0x3f27fd42	0.65620816
11	0x3f88e311	1.0694295
12	0x3f1a767c	0.6033704
13	0x3f678f15	0.904527
14	0x3f584552	0.84480774
15	0x3f871081	1.0551912
16	0x3f659c53	0.89691657
17	0x3f41cfab	0.757075
18	0x3f4ea044	0.80713296
19	0x3f948332	1.1602538
20	0x3f70465d	0.93857366
21	0x3f1ada48	0.6048932
22	0x3f363b15	0.711839
23	0x3f4b7ca8	0.79487085
24	0x3f2a8ee9	0.66624314
25	0x3f1cd3ed	0.61260873
26	0x3f1eb82a	0.6199976
27	0x3f29a24b	0.66263264
28	0x3f19b91a	0.6004807
29	0x3f0b918d	0.5451897
30	0x3f0bdc81	0.5463334
31	0x3f478085	0.7793048

layers.3.bias f4 [32]
0	0x3e461a82	0.1934605
1	0xbefb090e	-0.49030346
2	0xbf958e17	-1.1683987
3	0xbe8ae24c	-0.27125776
4	0xbf54cf95	-0.83129245
5	0xbe59bcfa	-0.21263495
6	0xbf6863d9	-0.90777355
7	0x3ece1579	0.40250757
8	0xbf321fac	-0.6957958
9	0x3f25d2ec	0.64774966
10	0x3dcd114d	0.100130655
11	0xbed94c35	-0.42440954
12	0x3e5fb220	0.21845293
13	0x3f325d7d	0.696739
14	0xbe271f32	-0.16320494
15	0x3f731b1e	0.9496325
16	0xbf2e7645	-0.68149215
17	0xbdbe0935	-0.092791
18	0x3e507590	0.20357347
19	0xbedcd15a	-0.43128473
20	0x3e6eb221	0.23310138
21	0x3c08329f	0.00831285
22	0xbebdbfb9	-0.37060335
23	0x3d4022e8	0.04690829
24	0x3da52450	0.08063567
25	0xbe91fa69	-0.2851136
26	0x3e1a30f1	0.15057732
27	0xbd84b146	-0.06479125
28	0xbe042737	-0.12905584
29	0xbe509c5f	-0.20372151
30	0xbe92aee8	-0.28649068
31	0x3ef3bdb3	0.47605667

layers.3.running_mean f4 [32]
0	0x3d52e241	0.051485304
1	0xbe2a2063	-0.16613917
2	0xbe989e69	-0.29808357
3	0xbd6e8701	-0.05823422
4	0xbe5b8338	-0.21436775
5	0xbdf51dd1	-0.11968578
6	0xbe40b31d	-0.18818326
7	0x3d829d25	0.06377629
8	0xbe311a6d	-0.17295237
9	0x3dfecfcc	0.12441978
10	0xbd2aff43	-0.041747343
11	0xbc8b6fe8	-0.017021134
12	0xbd2d3ea6	-0.042296074
13	0x3f0e1bc0	0.55511093
14	0x3d1efb72	0.038814016
15	0x3f2460c7	0.6421017
16	0xbde0fa3e	-0.1098523
17	0x3d12c84d	0.035835553
18	0x3e338299	0.17530288
19	0xbe9a3252	-0.30116516
20	0x3cd9287a	0.026508559
21	0xbca4c9fa	-0.020115841
22	0xbdf2f8c6	-0.11863856
23	0xbdddaaa5	-0.108235635
24	0xbdc33cca	-0.09533079
25	0xbe053fe1	-0.13012649
26	0x3d8961ef	0.067081325
27	0xbdd21f60	-0.102598906
28	0xbd03b625	-0.03215613
29	0xbdab3d63	-0.08361318
30	0xbe0eb326	-0.13935527
31	0x3e89ca21	0.26912025

layers.3.running_var f4 [32]
0	0x3d13d7ba	0.036094405
1	0x3cce985a	0.025219131
2	0x3d7c9f18	0.06167516
3	0x3ce4c345	0.027925143
4	0x3d230c13	0.039806437
5	0x3ccb29d4	0.024800219
6	0x3d171e02	0.036893852
7	0x3d7d70cd	0.061875153
8	0x3d1864ad	0.037205387
9	0x3d3f202c	0.04666154
10	0x3c566c27	0.013087309
11	0x3cf886e6	0.030337762
12	0x3cd790cb	0.02631416
13	0x3e87a5a3	0.26493558
14	0x3d0022fd	0.031283367
15	0x3e7ec4eb	0.24879806
16	0x3d1c0916	0.038094603
17	0x3d0e4969	0.034737978
18	0x3d9262e1	0.07147766
19	0x3d73cc5c	0.059521064
20	0x3ce76fee	0.028251614
21	0x3ce35e69	0.02775498
22	0x3c1028a9	0.008798757
23	0x3cb38885	0.021915684
24	0x3cb6dced	0.022322142
25	0x3ceecb56	0.029149693
26	0x3cee446d	0.029085362
27	0x3cb94bb5	0.022619108
28	0x3c0d2f11	0.008617179
29	0x3cc0c597	0.023531718
30	0x3cd0b241	0.025475623
31	0x3dba55ee	0.09098421

layers.4.weight f4 [64, 32]
0	0x3cf8671b	0.030322602
1	0x3d2a7e18	0.04162416
2	0xbda8f39b	-0.08249589
3	0xbd4ecf0d	-0.050490428
4	0x3c8caf0c	0.017173313
5	0x3d3039a6	0.043023728
6	0x3c02a7ef	0.007974609
7	0xbbd3fef8	-0.0064696036
8	0xbc237f78	-0.009979121
9	0xbf6178e0	-0.88075066
10	0x3ee583b9	0.4482706
11	0x3cb6b3d7	0.022302551
12	0xbc88860b	-0.01666548
13	0xbd3e4242	-0.046449907
14	0x3dc85b5f	0.09783053
15	0xbc98dc2e	-0.018659677
16	0xbd71fc2f	-0.05907839
17	0xbe0f063c	-0.13967222
18	0xbbcd018f	-0.0062562893
19	0xbd35b952	-0.04436619
20	0xbd6c0d47	-0.05762985
21	0x3f8417e1	1.0319787
22	0x3d125835	0.035728652
23	0xba385ff6	-0.0007033342
24	0x3b651bb0	0.003495913
25	0x3d0742a9	0.033022556
26	0xbf93deb8	-1.1552343
27	0x3e9075f1	0.28214982
28	0xbe04bf9c	-0.12963718
29	0xbcad4b0f	-0.021153955
30	0xbe063b08	-0.13108456
31	0x3c12d0f4	0.008960951
32	0xbd5fd9e2	-0.05465115
33	0xbdf16c1b	-0.117881976
34	0x3ce51179	0.027962433
35	0x3df39ac9	0.11894757
36	0xbd6906e6	-0.056891344
37	0xbe87d233	-0.26527557
38	0xbcecabe9	-0.028890567
39	0xbd3ec2a6	-0.04657235
40	0x3dd8fe5a	0.10595389
41	0x3df83f63	0.12121465
42	0x3cb03fed	0.021514857
43	0x3eadc74e	0.3394112
44	0x3c9a013a	0.018799413
45	0xbde1c6a7	-0.11024218
46	0xbdebdea6	-0.11517076
47	0x3d9ba3fa	0.075996354
48	0x3d96cf62	0.07363774
49	0x3d2b8493	0.04187448
50	0xbc564fcf	-0.013080551
51	0x3b0de9e6	0.0021654307
52	0x3d116aba	0.035502173
53	0x3e05ee1e	0.13079116
54	0x3e0df82f	0.13864206
55	0xbd6bdd70	-0.057584226
56	0x3f6b987e	0.9202956
57	0x3f7fc48a	0.9990927
58	0xbd0effa8	-0.03491178
59	0x3d56344e	0.052295975
60	0x3e00b087	0.1256734
61	0x3d93d728	0.07218772
62	0xbd55b8b7	-0.05217811
63	0x3d5599b3	0.052148532
64	0x3e0ef5e6	0.1396099
65	0xbc962b7b	-0.01833128
66	0x3fb137ff	1.3845214
67	0x3cb1f50d	0.021723295
68	0xbd718e2d	-0.05897348
69	0x3d9a3f21	0.07531572
70	0xbc14f302	-0.009091141
71	0xbc98feaa	-0.01867612
72	0xbd0f100a	-0.034927405
73	0xbccaf9d2	-0.024777327
74	0xbbb597f2	-0.005541795
75	0x3d356755	0.044288
76	0xbd40377a	-0.046927907
77	0x3c11df17	0.008903286
78	0x3dc50fd8	0.096221626
79	0xbbe8bbed	-0.0071024806
80	0xbd517c4b	-0.051143926
81	0xbd1f1e53	-0.03884728
82	0xb88684fb	-6.4143875e-05
83	0x3f828fe5	1.0200163
84	0x3c08f7ec	0.00835989
85	0xbd393b46	-0.045222543
86	0xbde2e058	-0.110779464
87	0x3e5c48ec	0.21512192
88	0xbc38737b	-0.011258001
89	0xbd9c9a0e	-0.07646571
90	0xbc6041ce	-0.013687564
91	0xbd10fef3	-0.03539939
92	0xbcb8587b	-0.022503128
93	0x3d531617	0.05153474
94	0xbd6a64bb	-0.05722497
95	0xbc1e141a	-0.009648347
96	0xbdb01665	-0.085980214
97	0x3cf61443	0.030038958
98	0xbce0476b	-0.027377805
99	0xbe4cbfbc	-0.19995016
100	0xbb312b08	-0.0027033705
101	0x3dd7671c	0.105177134
102	0xbc811e02	-0.01576138
103	0xbb64223d	-0.0034810447
104	0x3c2ac31f	0.010422497
105	0xbe4f80ee	-0.20264027
106	0xbebec3ef	-0.3725886
107	0xbd1aa5d6	-0.03775581
108	0x3e298a48	0.16556656
109	0x3d94585d	0.072434165
110	0xbd979fc9	-0.074035235
111	0x380ac6a7	3.3086773e-05
112	0x3d3bedfe	0.045881264
113	0xbe0249fc	-0.12723535
114	0x3d10f179	0.035386536
115	0x3c326c4c	0.010890078
116	0x3d82de53	0.06390061
117	0x3d6ad6e8	0.057333857
118	0x3f86cab6	1.0530612
119	0x3e41dc5f	0.18931721
120	0x3e4fc3eb	0.2028958
121	0x3e17e6b6	0.14834103
122	0x3dff9628	0.12479812
123	0x3ed8c071	0.4233432
124	0xbd5f46ac	-0.054510757
125	0x3d919d2a	0.07110055
126	0x3e01415f	0.12622593
127	0x3d034181	0.03204489
128	0xbc37a6e3	-0.0112092225
129	0x3e047da0	0.12938547
130	0x3cc27918	0.023739383
131	0x3e0faf72	0.14031771
132	0xbd04bfae	-0.032409362
133	0xbed9857e	-0.4248466
134	0xbdc8ea6e	-0.09810339
135	0x3e65d3ba	0.22444049
136	0x3deaad91	0.114588864
137	0x3d3f4213	0.046693873
138	0xbdadc4d8	-0.084848106
139	0x3ed40f80	0.41418076
140	0xbe9b3ad2	-0.30318314
141	0xbe232464	-0.1593185
142	0x3d37ffc1	0.04492164
143	0x3aa4e69b	0.0012580933
144	0x3e155f0e	0.14587042
145	0x3c13d815	0.009023686
146	0xbe74d6f6	-0.23910126
147	0xbcb77868	-0.022396281
148	0xbd9ce1d7	-0.07660263
149	0x3d5744fb	0.05255602
150	0x3ca3718c	0.019951604
151	0xbe2ff0b7	-0.17181669
152	0x3f2e8da2	0.68184865
153	0x3f51cfbc	0.819576
154	0xbdde1956	-0.10844676
155	0xbd1468f8	-0.03623292
156	0x3d793811	0.060844485
157	0xbcaf0a67	-0.021367265
158	0xbd9f8a58	-0.07790059
159	0xbda57072	-0.08078088
160	0x3cf18b7e	0.02948546
161	0x3d56050e	0.052250914
162	0x3c9bddab	0.019026598
163	0x3d96e385	0.07367615
164	0xbe06f453	-0.1317914
165	0xbe7a6882	-0.24453929
166	0xbdd546e8	-0.10413915
167	0x3f34d7c6	0.70641744
168	0x3b097b74	0.0020978125
169	0x3d5aa132	0.053376384
170	0xbd801df8	-0.06255716
171	0x3d417147	0.04722717
172	0xbd84b7ba	-0.064803556
173	0x3efe796c	0.49702013
174	0x3d222824	0.039589062
175	0xbf80c9f4	-1.0061631
176	0x3d34c6d0	0.044134915
177	0xbd21befb	-0.039488774
178	0x3ed712c6	0.4200651
179	0xbc88fda5	-0.01672251
180	0x3b8c9352	0.004290023
181	0x3c7770ae	0.0151025485
182	0x3d1557e4	0.036460772
183	0xbcd62949	-0.026142733
184	0x3e0dd202	0.13849643
185	0x3e0e102f	0.13873361
186	0xbcbaa7da	-0.022785116
187	0xbbcad722	-0.0061901966
188	0xbd3be017	-0.045868006
189	0xbd606c0a	-0.054790534
190	0xbb7ee052	-0.003889103
191	0xbdae5905	-0.08513073
192	0x3dc45af2	0.09587659
193	0x3f11511a	0.56764376
194	0x3d05d2d2	0.032671757
195	0x3db1c81e	0.086807474
196	0x3dbea296	0.093083546
197	0x3c8338dd	0.016018325
198	0x3da0e133	0.07855453
199	0x3e205fd3	0.15661554
200	0xbddd52f6	-0.10806839
201	0xbddd82e9	-0.10815985
202	0xbc284d60	-0.010272354
203	0xbf8e41ab	-1.111379
204	0xbde2bb81	-0.1107092
205	0x3dfdac34	0.12386361
206	0x3e17c17e	0.14819905
207	0xbc9ab31d	-0.018884236
208	0x3dc7048e	0.097176656
209	0xbcc9d561	-0.02463788
210	0xbe864b72	-0.26229435
211	0x3bf29431	0.0074029197
212	0x3d871b76	0.06597035
213	0x3cf9f570	0.030512542
214	0x3d419059	0.0472568
215	0x3dd3e381	0.10346127
216	0x3c760b1c	0.015017297
217	0x3c10d6fb	0.008840318
218	0x3da74c81	0.08168889
219	0x3df40927	0.11915808
220	0x3b92ce96	0.0044801934
221	0x3d870ea0	0.06594586
222	0x3dd504be	0.10401295
223	0xbe21005b	-0.15722792
224	0x3f360143	0.71095675
225	0x3d626b58	0.055278152
226	0x3e8e9ae4	0.27852547
227	0x3f3895a8	0.7210336
228	0xbc691050	-0.014225081
229	0x3df79656	0.12089221
230	0x3ca81c1b	0.020521214
231	0x3d865f51	0.06561149
232	0x3e25e920	0.16202211
233	0x3e07ae1e	0.13250014
234	0xbe08f88c	-0.13376063
235	0x3cfbca30	0.030736059
236	0x3ed0b70f	0.40764663
237	0x3dafc91a	0.08583279
238	0xbe894692	-0.26811653
239	0x3bfc9596	0.0077082617
240	0xbd89098a	-0.066912726
241	0xbe5ba432	-0.21449354
242	0x3c4f542f	0.012654348
243	0x3e847962	0.25873858
244	0xbea95a90	-0.33076906
245	0x3d3cdaaa	0.04610697
246	0x3c2ffc37	0.010741285
247	0xbeadb6a4	-0.33928406
248	0x3e6ab946	0.22922239
249	0x3df17cff	0.11791419
250	0xbc18f318	-0.009335302
251	0xbdb52c26	-0.08846311
252	0xbd20e871	-0.039284173
253	0x3d06bd7e	0.032895558
254	0x3d96e505	0.07367901
255	0xbcb2155f	-0.021738706

layers.4.bias f4 [64]
0	0x3e7a8be2	0.24467424
1	0xbf224623	-0.6338827
2	0xbf5201c2	-0.8203393
3	0xbf627541	-0.88460165
4	0xbf1c7afb	-0.61125153
5	0x3e30bb34	0.17258912
6	0xbf3eaf82	-0.74486554
7	0x3ee1c311	0.44094136
8	0xbf21ff35	-0.6328004
9	0xbd2a6609	-0.041601215
10	0xbf44d516	-0.76887643
11	0xbe7e3200	-0.24823761
12	0xbe15ceec	-0.14629716
13	0xbf1b8e5b	-0.6076409
14	0xbe2b64dc	-0.16737694
15	0xbf3dd869	-0.7415834
16	0xbef810c9	-0.48450306
17	0xbf0c6cbc	-0.54853415
18	0xbe95fd11	-0.29294637
19	0xbdd644fd	-0.10462377
20	0xbf6d6cd9	-0.92744213
21	0xbce9ea1e	-0.028554019
22	0xbd77719a	-0.060411073
23	0xbe8f52e0	-0.27992916
24	0xbedca570	-0.4309497
25	0xbeaaae95	-0.3333632
26	0xbe24c0a7	-0.16089116
27	0xbebda652	-0.37040955
28	0xbf2f0253	-0.6836292
29	0xbf104aa8	-0.56363916
30	0xbf0a0fb2	-0.539302
31	0xbddaacba	-0.10677476
32	0x3ea3236a	0.31862956
33	0xbf005ee7	-0.5014481
34	0xbd4ca3fd	-0.04996108
35	0xbf42ef68	-0.76146555
36	0xbf238029	-0.6386743
37	0xbf488f2f	-0.7834348
38	0xbe2876e2	-0.164516
39	0xbf0588fb	-0.5216214
40	0xbecdd5bd	-0.40202132
41	0xbf09937d	-0.53740674
42	0xbe78c357	-0.24293266
43	0xbe777665	-0.24166258
44	0xbef4c123	-0.47803602
45	0xbf212868	-0.6295228
46	0xbf66a97a	-0.9010235
47	0xbf1f9009	-0.62329155
48	0xbee404e7	-0.4453499
49	0xbeea2eb3	-0.45738754
50	0xbf2da79c	-0.67833877
51	0xbefdbe9a	-0.4955948
52	0xbe53ce83	-0.20684247
53	0xbdd59978	-0.104296625
54	0xbf0fb0ab	-0.5612895
55	0xbf122f0f	-0.57103056
56	0xbf378672	-0.7168952
57	0xbf02d342	-0.51103604
58	0x3a3979ec	0.0007075358
59	0xbed73ab3	-0.4203697
60	0xbe5290aa	-0.20562997
61	0x3eb5835f	0.3545179
62	0xbd97676f	-0.07392775
63	0xbed28eda	-0.41124612

layers.7.weight f4 [64]
0	0x3f51c550	0.819417
1	0x3f85700f	1.0424823
2	0x3f575bbf	0.8412437
3	0x3f64ae6b	0.8932864
4	0x3f8440eb	1.0332311
5	0x3f79f7b5	0.97643596
6	0x3f710f15	0.9416364
7	0x3f5f3113	0.87184256
8	0x3f6f8b22	0.93571675
9	0x3f65c4b5	0.89753276
10	0x3f776cee	0.9665059
11	0x3f8e5745	1.1120383
12	0x3f0efb9d	0.5585268
13	0x3f383e8f	0.71970457
14	0x3f7098c6	0.93983114
15	0x3f5ed110	0.87037754
16	0x3f5bfd8f	0.85933775
17	0x3f4b16b3	0.7933151
18	0x3f4b0a1c	0.793123
19	0x3f504bab	0.8136546
20	0x3f808a85	1.0042273
21	0x3f302cd1	0.68818384
22	0x3f501402	0.8128053
23	0x3f55277b	0.8326337
24	0x3f6e9dbe	0.93209445
25	0x3f46fce6	0.7772964
26	0x3f67537a	0.9036175
27	0x3f61e867	0.8824524
28	0x3f753aa5	0.9579261
29	0x3f4cfae2	0.80070317
30	0x3f910425	1.132939
31	0x3f54f508	0.8318639
32	0x3f51fec9	0.82029396
33	0x3f6891af	0.90847296
34	0x3f5d02b5	0.86332256
35	0x3f7b33ee	0.98126113
36	0x3f73767a	0.95102656
37	0x3f55e60b	0.8355414
38	0x3f5a0a81	0.8517228
39	0x3f7b54e9	0.9817644
40	0x3f89e494	1.0772882
41	0x3f85788f	1.0427417
42	0x3f73a244	0.9516947
43	0x3f42e5b5	0.76131755
44	0x3f6d1667	0.9261231
45	0x3f62b416	0.8855604
46	0x3f626ac1	0.88444144
47	0x3f4aca64	0.79215074
48	0x3f6d8d9f	0.9279422
49	0x3f5f50a6	0.87232435
50	0x3f7357a0	0.9505558
51	0x3f577139	0.8415714
52	0x3f60dd9a	0.8783814
53	0x3f947f7f	1.1601409
54	0x3f7b7683	0.9822771
55	0x3f44927a	0.76786005
56	0x3f7b476d	0.9815586
57	0x3f4f6240	0.8100929
58	0x3f833637	1.025092
59	0x3f50e4e2	0.8159925
60	0x3f568a0b	0.83804387
61	0x3f442e35	0.76633006
62	0x3f7871e0	0.9704876
63	0x3f841659	1.031932

layers.7.bias f4 [64]
0	0x3ebd60c7	0.36987898
1	0xbe7a2053	-0.24426393
2	0xbf17b83e	-0.59265506
3	0xbf3cd3ae	-0.737605
4	0xbbab5522	-0.0052286545
5	0xbd012f63	-0.031539332
6	0xbe285bc2	-0.16441253
7	0x3a41d07f	0.0007393434
8	0xbf044f14	-0.51683164
9	0xbef5f871	-0.48041108
10	0xbf6f91a1	-0.9358159
11	0xbe543f13	-0.20727186
12	0x3f19a7f7	0.6002192
13	0xbe92ad54	-0.28647864
14	0x3f4f0444	0.80865884
15	0xbebe5085	-0.37170807
16	0xbe136f79	-0.14397992
17	0x3d40b190	0.047044337
18	0xbcf46891	-0.029835017
19	0xbdd85f14	-0.1056501
20	0xbea9707f	-0.3309364
21	0x3e1e1ef1	0.1544149
22	0xbbb50499	-0.0055242297
23	0x3e445543	0.1917315
24	0x3d92d820	0.07170129
25	0xbece80e5	-0.40332714
26	0x3edc9cd7	0.4308841
27	0xbc5dba60	-0.013533205
28	0x3e40fc91	0.18846346
29	0xbef0398b	-0.46918902
30	0xbf3506e0	-0.70713615
31	0xbe37f8b0	-0.1796596
32	0x3f150920	0.5821705
33	0x3e48d6cd	0.1961319
34	0x3efcb571	0.4935718
35	0xbf4b1fd4	-0.7934544
36	0xbf09151f	-0.53547853
37	0xbe23b79d	-0.15988012
38	0x3f1b7e05	0.60739166
39	0x3de82ac1	0.1133628
40	0x3eeb40dd	0.45947924
41	0xbe96ad28	-0.29428983
42	0x3e651b71	0.2237375
43	0x3db59f06	0.08868222
44	0xbe0aac56	-0.13542303
45	0xbd716a0c	-0.058939025
46	0xbf2c4b23	-0.6730215
47	0xbeb87f40	-0.36034584
48	0x3e12993c	0.14316267
49	0xbd1e3cf6	-0.038632356
50	0xbeafc1be	-0.343275
51	0xbd61b44c	-0.055103585
52	0x3d038f1a	0.032118894
53	0x3eedfc3e	0.46481508
54	0x3ed363ae	0.41286987
55	0xbd8c37c2	-0.068465725
56	0xbf163702	-0.58677685
57	0xbe976705	-0.29570785
58	0x3f09a40b	0.53765935
59	0xbe47abb2	-0.1949909
60	0xbf01c09b	-0.5068452
61	0x3eb07628	0.34465146
62	0x3f098fb1	0.5373488
63	0x3eea2517	0.45731422

layers.7.running_mean f4 [64]
0	0x3ecc95c7	0.3995802
1	0xbd99fe0f	-0.07519161
2	0xbf4511b4	-0.7698014
3	0xbec3651f	-0.38163087
4	0xbe4be0e1	-0.19910003
5	0x3e833874	0.25629008
6	0xbe14aea0	-0.14519739
7	0x3e89e25e	0.26930517
8	0xbf4a1e8c	-0.7895286
9	0xbdf4dcb7	-0.119561605
10	0xbf397aa1	-0.7245274
11	0x3e57e909	0.2108499
12	0xbdcdc601	-0.10047532
13	0xbf825ae8	-1.0183992
14	0x3cbb4c71	0.022863599
15	0xbf4717d5	-0.7777074
16	0xbe83d68f	-0.25749633
17	0xbc509a12	-0.012732046
18	0xbf21dea1	-0.6323033
19	0xbef762dc	-0.4831761
20	0xbe664fc6	-0.22491369
21	0x3ea853d2	0.3287645
22	0xbedb9744	-0.42888844
23	0x3e0d797b	0.13815872
24	0xbd07ffa3	-0.03320278
25	0xbf24444e	-0.64166725
26	0x3f0312b8	0.5120044
27	0x3dd2765f	0.10276484
28	0x3d78b4c3	0.060719263
29	0xbf147ed6	-0.58006036
30	0xbf013ade	-0.5048045
31	0xbe8e8145	-0.27833
32	0x3f0619ae	0.52382934
33	0xbe13389f	-0.14377068
34	0x3f2099b3	0.62734526
35	0xbf4a1a67	-0.78946537
36	0xbf25dde7	-0.6479172
37	0xbe252260	-0.16126394
38	0x3f45d550	0.77278614
39	0x3f2956d4	0.66148114
40	0x3e42d5a4	0.1902681
41	0x3f14a1f8	0.58059645
42	0xbe177a42	-0.14792731
43	0x3e3328f1	0.17496087
44	0x3da2b799	0.07945175
45	0xbf1874d9	-0.59553295
46	0xbf311992	-0.6917964
47	0x3e86c2ae	0.26320404
48	0x3ea8f5cf	0.33000037
49	0x3ea67241	0.32509044
50	0xbed09ab9	-0.40743044
51	0x3e389376	0.18025002
52	0xb8143110	-3.5331643e-05
53	0x3f7ae98a	0.980126
54	0xbd6608b7	-0.056160655
55	0xbdd04051	-0.101685174
56	0xbed75617	-0.4205787
57	0xbe85ab7e	-0.261074
58	0x3ea1950c	0.31559026
59	0xbf4ad8b9	-0.7923694
60	0x3e9f8b2d	0.3116087
61	0x3d35de4b	0.04440145
62	0x3e08366a	0.13302007
63	0x3d74e811	0.05979163

layers.7.running_var f4 [64]
0	0x400715fe	2.1107173
1	0x3f78420b	0.96975774
2	0x3f379a0b	0.71719426
3	0x3e224eba	0.15850344
4	0x3f428010	0.7597666
5	0x3f164bc0	0.58709335
6	0x3ed92a8f	0.42415282
7	0x3f22d965	0.6361297
8	0x3f03db22	0.51506245
9	0x3f9534d5	1.1656748
10	0x3ef990a3	0.48743162
11	0x3f8d530e	1.1040971
12	0x3e0febf4	0.14054853
13	0x3faa35fd	1.3297726
14	0x3f2830dc	0.65699553
15	0x3f11e1dd	0.56985265
16	0x3ebcd9c7	0.368849
17	0x3ee26e3c	0.44224727
18	0x40019542	2.024735
19	0x400b286a	2.1743417
20	0x3e26077a	0.1621379
21	0x3f3cbf91	0.7372981
22	0x4007c409	2.12134
23	0x3fe67dad	1.8007103
24	0x3f4dcc2c	0.80389667
25	0x3ff01bcc	1.8758483
26	0x3fb9d049	1.4516689
27	0x3f678fd3	0.90453833
28	0x3e2e6aff	0.17033003
29	0x3f79dfb4	0.9760697
30	0x3e8e374b	0.2777656
31	0x3fdbf0bc	1.7182841
32	0x3f82b9eb	1.0212988
33	0x3f863802	1.0485842
34	0x3fe22e35	1.7670351
35	0x3f0ba46a	0.5454775
36	0x3e8bd04c	0.27307355
37	0x3e98bd00	0.29831696
38	0x40107f91	2.257786
39	0x4005fe96	2.0936637
40	0x3fa12524	1.258946
41	0x400da504	2.2131968
42	0x3ee2d241	0.44301036
43	0x3fe314dc	1.7740741
44	0x3f819afe	1.0125425
45	0x3f655824	0.89587617
46	0x3eeffe49	0.46873692
47	0x3f7581cd	0.95901185
48	0x3f892f0c	1.0717483
49	0x3f50be51	0.815404
50	0x3f849ef5	1.036101
51	0x3e8b0d46	0.27158564
52	0x3e94068b	0.28911242
53	0x40057ebf	2.085861
54	0x3e4901ca	0.19629589
55	0x3f1f6774	0.6226723
56	0x3e422b17	0.1896175
57	0x3e3391dd	0.17536111
58	0x3fac9ea9	1.3485919
59	0x3f41381b	0.75476235
60	0x3ff619a4	1.9226575
61	0x3f6769a4	0.9039557
62	0x3ed885ac	0.42289484
63	0x3f264d55	0.6496175

layers.8.weight f4 [128, 64]
0	0xbd65eeca	-0.05613593
1	0x3e5e739e	0.21723792
2	0x3d275877	0.04085585
3	0x3ef84268	0.48488164
4	0xbcecca08	-0.02890493
5	0x3d5069ef	0.050882276
6	0x3e0aaca2	0.13542417
7	0xbd0f79c7	-0.035028245
8	0xbd07c1e6	-0.0331439
9	0xbe2b4b70	-0.16727996
10	0xbdc9bd6d	-0.09850583
11	0xbcb2c9fd	-0.021824831
12	0x3d9ed243	0.07754948
13	0xbda70311	-0.08154882
14	0x3ced36bc	0.028956763
15	0xbca288d0	-0.019840628
16	0x3ea55a6c	0.3229555
17	0xbd9a124b	-0.0752302
18	0x3d754b4e	0.05988627
19	0x3e6cfdab	0.23143642
20	0x3f36a1db	0.7134072
21	0xbd4e72c4	-0.050402418
22	0x3e84bbd7	0.2592456
23	0x3e6f7779	0.23385419
24	0xbe3f585d	-0.18686052
25	0xbdf3385d	-0.11875985
26	0x3d81e622	0.063427225
27	0xbdd92b74	-0.10603991
28	0xbdb2bd09	-0.08727462
29	0xbe47a2f1	-0.19495751
30	0xbdb6f818	-0.08934039
31	0x3d6875a2	0.05675281
32	0xbecf2abb	-0.40462288
33	0x3d095092	0.033524103
34	0xbe11f7e7	-0.14254723
35	0xbb049106	-0.0020228042
36	0xbd0b0568	-0.033940703
37	0x3e5d29d8	0.21597993
38	0x3e146709	0.1449243
39	0x3da7d3be	0.081946835
40	0x3e78bc87	0.24290667
41	0xbe59c8b9	-0.21267976
42	0x3e88c877	0.26715443
43	0x3d85e216	0.06537263
44	0xbedd8f03	-0.43273172
45	0xbd703e31	-0.05865306
46	0x3d0ed5a7	0.034871724
47	0x3e4449a8	0.19168723
48	0x3e2250a9	0.15851082
49	0xbe395549	-0.1809894
50	0x3d8316f3	0.064008616
51	0x3e5f19a9	0.21787132
52	0xbbbe926a	-0.0058157938
53	0xbc904cf0	-0.017614812
54	0xbe493bac	-0.1965167
55	0x3dbf11c8	0.093295634
56	0xbe2cf3bc	-0.16889852
57	0xbe4f9537	-0.20271765
58	0xbf1e843b	-0.6192052
59	0x3d225f9d	0.039641965
60	0xbe720a7c	-0.23636812
61	0x3d785dce	0.060636334
62	0x3e4c421f	0.19947098
63	0xbe346039	-0.17614831
64	0x3e50fbac	0.20408505
65	0x3e7bb39e	0.24580237
66	0x3e5ff3ad	0.21870299
67	0x3e9c817d	0.30567542
68	0x3e6e9918	0.23300588
69	0x3d85e6da	0.06538172
70	0x3de2dc3a	0.11077161
71	0xbe37c61d	-0.17946668
72	0x3d1ed101	0.03877354
73	0x3e15ee40	0.14641666
74	0x3d341be5	0.043971915
75	0xbc99d2d2	-0.018777285
76	0xbe2b326b	-0.16718452
77	0xbd62b4a1	-0.055348042
78	0x3e479005	0.19488533
79	0x3dca4e9e	0.09878276
80	0x3eba1e5f	0.36351296
81	0x3e08d9fa	0.13364401
82	0xbdc8c426	-0.09803037
83	0xbdf9ba61	-0.12193752
84	0xbea46266	-0.32106322
85	0xbeb47a96	-0.35249776
86	0xbe278321	-0.16358615
87	0x3eac800c	0.33691442
88	0xbc85cc64	-0.016332813
89	0x3e11bc2a	0.14231935
90	0xbe3ad917	-0.18246876
91	0xbd60b042	-0.054855593
92	0x3db0d56e	0.086344585
93	0x3e3715d7	0.17879425
94	0x3ce5482b	0.027988514
95	0xbe1b90c3	-0.15191941
96	0x3e2fd910	0.17172647
97	0x3da782d5	0.08179251
98	0x3e911fd8	0.28344607
99	0x3be5b066	0.0070095537
100	0xbb09bd1f	-0.0021017266
101	0xbd1e0414	-0.038578108
102	0x3df84e26	0.12124281
103	0x3de6d12f	0.11270367
104	0x3e2c2811	0.16812159
105	0x3e182f3e	0.14861771
106	0xbda2983a	-0.07939191
107	0x3e98f591	0.29874852
108	0x3e56b7e4	0.20968586
109	0x3e778e87	0.24175464
110	0x3db4d2c3	0.08829262
111	0xbe04167d	-0.12899204
112	0xbec5183f	-0.3849506
113	0xbef6888c	-0.48151052
114	0x3e9089d5	0.28230157
115	0x3d2cb772	0.042167135
116	0x3e09efeb	0.13470428
117	0x3dc0ae91	0.09408296
118	0x3c2dc36a	0.010605672
119	0x3eb6dfe3	0.35717687
120	0x3dfb1139	0.12259144
121	0x3d0ac7ba	0.03388188
122	0x3e45d086	0.19317827
123	0xbb44a20c	-0.0030003814
124	0x3dd236a3	0.102643274
125	0x3e28c1ed	0.16480227
126	0xbefbbd4b	-0.49167857
127	0x3e7ec46d	0.24879618
128	0x3b6cbb9d	0.0036122568
129	0xbe9fb679	-0.31193903
130	0x3b962a17	0.004582654
131	0x3dfd7303	0.12375452
132	0xbea25939	-0.31708696
133	0xbeec7e18	-0.46189952
134	0x3e117465	0.14204557
135	0x3ddc59eb	0.10759338
136	0x3dd97ee0	0.106199026
137	0x3d9e7350	0.07736838
138	0x3decba1b	0.11558934
139	0xbcdcc2f6	-0.026948433
140	0x3de57f8a	0.11205967
141	0x3e96bf7a	0.2944296
142	0xbe8f017b	-0.27930817
143	0xbc7cd05e	-0.015430538
144	0x3caf7fb3	0.021423196
145	0xbcb2a33a	-0.021806348
146	0x3f3efaf8	0.746017
147	0x3f3ea4ee	0.7447041
148	0xbd81cab1	-0.063374884
149	0x3d867c5c	0.065666884
150	0x3f47211c	0.77784896
151	0x3ce0068a	0.027346868
152	0xbeaa05c0	-0.33207512
153	0x3e8bb8c4	0.27289402
154	0xbb222186	-0.002473922
155	0x3e4ae9a1	0.19815685
156	0xbe82c9de	-0.25544637
157	0x3c391615	0.011296769
158	0x3dab880e	0.0837556
159	0x3f0978e9	0.5370012
160	0x3c1e8cd0	0.009677127
161	0x3db44fd2	0.08804287
162	0xbca733f9	-0.020410525
163	0xbc2aa965	-0.010416363
164	0x3e1acc04	0.15116888
165	0x3b86c574	0.0041128937
166	0x3c58339b	0.013195897
167	0xbce0c606	-0.027438175
168	0xbec33d65	-0.38132778
169	0x3d2543c3	0.040347826
170	0xbe17834c	-0.1479618
171	0xbcc48455	-0.023988882
172	0x3e191e65	0.14953001
173	0xbdc17118	-0.09445399
174	0x3db187e8	0.086685
175	0x3d95d20b	0.07315453
176	0x3dbacf18	0.09121531
177	0xbe72cc9e	-0.23710868
178	0xbd13116f	-0.035905298
179	0xbe900bce	-0.28134006
180	0xbd684ce5	-0.056713957
181	0xbe2fdadd	-0.17173333
182	0xbe227965	-0.15866621
183	0x3d42a319	0.047518823
184	0x3d1b786f	0.03795665
185	0xbc37c5ad	-0.011216563
186	0x3ddef594	0.10886684
187	0x3eb43404	0.35195935
188	0xbb3b1d55	-0.0028551419
189	0x3d5057e4	0.05086507
190	0xbda20dad	-0.07912765
191	0xbdaa489e	-0.08314632
192	0x3e34a119	0.17639579
193	0x3e5e81b1	0.21729161
194	0xbd1e2c19	-0.038616274
195	0x3e3eb65f	0.18624257
196	0x3ddd733f	0.10812997
197	0x3ce6e3ca	0.02818479
198	0x3a00838f	0.0004902416
199	0x3e4a718e	0.1976988
200	0x3d66d81b	0.056358438
201	0xbed2abcf	-0.41146705
202	0x3df5a029	0.11993439
203	0xbc160048	-0.0091553405
204	0xbe84108a	-0.25793868
205	0xbdf64ff1	-0.12026966
206	0x3e18c72c	0.14919728
207	0x3ceb11db	0.028695038
208	0x3d16798d	0.036737014
209	0xbdc14d95	-0.09438626
210	0xbe1fe827	-0.15615903
211	0xbe3e6cd8	-0.18596208
212	0x3f08154e	0.5315751
213	0xbd9304fa	-0.071786836
214	0xbe3d79d7	-0.1850351
215	0x3cbb2aa9	0.02284749
216	0x3cd4b4f4	0.025965191
217	0xbe3158c1	-0.17319013
218	0xbcf388a7	-0.029728247
219	0x3e07be48	0.1325618
220	0x3da4ebaa	0.08052762
221	0xbde369aa	-0.11104138
222	0x3d971df1	0.07378758
223	0xbe04af53	-0.12957506
224	0xbe490c25	-0.19633539
225	0xbdb638b5	-0.08897535
226	0xbdae378e	-0.0850669
227	0xbd52d09c	-0.051468477
228	0x3d7a8c34	0.061168864
229	0x3e86dc4b	0.26339945
230	0x3d21517a	0.039384343
231	0xbdc1f750	-0.09470999
232	0x3e0ae0a4	0.13562256
233	0x3b4b65c6	0.0031036003
234	0x3ea22c7a	0.31674558
235	0xbdf2c681	-0.11854268
236	0xbf47ea18	-0.78091574
237	0x3cdf2af8	0.027242169
238	0x3da98aed	0.08278451
239	0xbd7f67bd	-0.062354792
240	0x3c54c024	0.012985263
241	0xbdb5f5ca	-0.08884771
242	0x3c94dc46	0.01817144
243	0x3cfbca07	0.030735983
244	0xbe3bfbf2	-0.18357828
245	0x3de09d52	0.109675065
246	0xbe9c26a3	-0.30498227
247	0x3e3f927a	0.1870822
248	0x3d87cfbb	0.06631418
249	0xbe24e4a5	-0.16102846
250	0xbf4d2eed	-0.8014973
251	0xbc850adf	-0.016240535
252	0xbd1e1ce1	-0.03860176
253	0x3e423b26	0.18967876
254	0x3e5332c3	0.20624833
255	0xbda8db7e	-0.0824499

layers.8.bias f4 [128]
0	0xbf12776e	-0.57213485
1	0x3e1d4771	0.15359284
2	0xbaee9927	-0.0018203602
3	0x3eb7fc40	0.3593464
4	0x3dce0888	0.10060221
5	0x3f00866e	0.50205123
6	0xbf6af951	-0.91786677
7	0x3ce8bccc	0.028410338
8	0xbe01f211	-0.12689997
9	0xbf11dbc5	-0.56975967
10	0xbee22004	-0.4416505
11	0xbe072acd	-0.13199921
12	0xbd9cc2f8	-0.07654375
13	0xbec45e13	-0.38353023
14	0xbf04f522	-0.51936543
15	0xbf264bad	-0.6495922
16	0xbed4e79d	-0.41582957
17	0xbf3447a4	-0.70421815
18	0xbee6453d	-0.449747
19	0xbeeba0ca	-0.4602111
20	0xbeb4c31e	-0.35305113
21	0xbf80f200	-1.0073853
22	0xbef3b6ba	-0.47600347
23	0xbf21028e	-0.62894523
24	0xbee689fa	-0.45027143
25	0xbe96d28a	-0.29457504
26	0x3e217855	0.1576856
27	0xbf1468c7	-0.5797238
28	0xbe9603d8	-0.29299808
29	0xbe7b639e	-0.2454972
30	0xbead60b1	-0.33862832
31	0xbeb7634a	-0.3581794
32	0xbe434d04	-0.19072348
33	0xbe8560a1	-0.26050285
34	0x3e05fe44	0.13085276
35	0xbdb6b89e	-0.08921932
36	0xbe893664	-0.2679931
37	0xbd8d524a	-0.06900461
38	0xbf26a999	-0.65102535
39	0xbef8da34	-0.48603976
40	0xbe9e43e0	-0.3091116
41	0xbe16fc8c	-0.14744776
42	0x3cd166e6	0.025561761
43	0xbe9cf83a	-0.30658132
44	0xbcc8ddae	-0.024519768
45	0x3e8b77b0	0.27239752
46	0xbf1aca53	-0.6046497
47	0xbf308346	-0.6895031
48	0xbdc79d61	-0.097468145
49	0xbf06a6f0	-0.52598476
50	0xbe7dcc7e	-0.24785039
51	0xbdc6dbc3	-0.09709885
52	0xbe8c5fa3	-0.27416715
53	0xbf8103a4	-1.0079236
54	0x3f062e81	0.5241471
55	0xbea19104	-0.3155595
56	0xbe6ef4e9	-0.23335613
57	0xbeb67b79	-0.35641077
58	0xbe81f772	-0.25384098
59	0x3e2cf124	0.16888863
60	0xbe2b6fb2	-0.16741827
61	0x3df52bf3	0.11971273
62	0x3b98a55c	0.0046583842
63	0xbed1093a	-0.40827352
64	0xbf3e748c	-0.74396586
65	0x3e32f252	0.1747525
66	0xbda56fcc	-0.08077964
67	0x3cce7141	0.025200488
68	0xbeded2c9	-0.4352019
69	0x3eb39cde	0.35080618
70	0x3d18cadd	0.03730284
71	0xbeba2b44	-0.36361134
72	0x3edc305e	0.4300565
73	0xbee048b0	-0.43805456
74	0xbef77fe4	-0.4833976
75	0x3e83dc22	0.25753886
76	0x3cc76d36	0.024344068
77	0xbe07c836	-0.13259968
78	0xbec224a9	-0.37918594
79	0xbf2e9e4b	-0.68210286
80	0x3d49abc6	0.04923608
81	0xbeeb9509	-0.46012142
82	0xbed546ff	-0.41655728
83	0xbf360f39	-0.7111698
84	0xbd82e6b9	-0.06391663
85	0xbeb75140	-0.35804176
86	0x3e13cc6f	0.14433454
87	0xbf1edb90	-0.62053776
88	0x3d64c50f	0.055851992
89	0xbeefbffc	-0.4682616
90	0xbf006cd4	-0.5016606
91	0x3d9ec2c6	0.07751994
92	0xbf23657d	-0.63826734
93	0xbf3d1886	-0.73865545
94	0x3e81a155	0.253184
95	0xbf25d192	-0.64772904
96	0xbe9cff64	-0.30663598
97	0x3e19ff69	0.15038837
98	0x3e64df36	0.22350773
99	0x3de83963	0.11339071
100	0xbeaff5b1	-0.34367135
101	0x3d872cb6	0.06600325
102	0xbe8ea41e	-0.27859586
103	0x3e55a018	0.20861852
104	0xbeb40d26	-0.3516628
105	0x3ca557c9	0.02018346
106	0xbf110bce	-0.5665864
107	0x3e37ea8a	0.17960563
108	0xbe912323	-0.2834712
109	0xbe333203	-0.17499547
110	0xbe095190	-0.1341002
111	0xbec5cee4	-0.38634408
112	0xbe9ed95e	-0.31025213
113	0xbf1b3730	-0.60631084
114	0xbe519944	-0.20468622
115	0x3ed99f9b	0.42504582
116	0xbd70ddfe	-0.05880546
117	0xbf2bd858	-0.6712699
118	0xbe485f17	-0.19567524
119	0x3ea4d687	0.3219492
120	0x3e9510dd	0.29114428
121	0xbf1a5dfc	-0.6029966
122	0xbe169fe5	-0.14709432
123	0xbed876a3	-0.42278013
124	0xbf32e45e	-0.6987971
125	0xbf016482	-0.5054399
126	0xbe8e70ab	-0.27820334
127	0xbe92370a	-0.28557616

layers.11.weight f4 [128]
0	0x3f5ad2fd	0.8547819
1	0x3f52a1b3	0.82277983
2	0x3f9485d0	1.1603336
3	0x3f58a3c8	0.8462491
4	0x3f55ae11	0.8346873
5	0x3f43e414	0.76519895
6	0x3f76eb3b	0.96452683
7	0x3f41fca9	0.75776154
8	0x3f6e255d	0.9302576
9	0x3f5ff9e7	0.87490696
10	0x3f5d91cb	0.8655059
11	0x3f73b177	0.95192665
12	0x3f68d44f	0.9094896
13	0x3f8206c6	1.0158317
14	0x3f307a3f	0.6893653
15	0x3f5de41f	0.8667621
16	0x3f597084	0.8493731
17	0x3f78af6f	0.9714269
18	0x3f8a23c9	1.0792171
19	0x3f5f59ad	0.8724621
20	0x3f707728	0.9393182
21	0x3f6d9fb3	0.92821807
22	0x3f501a4b	0.8129012
23	0x3f530ef4	0.8244469
24	0x3f4eb62b	0.80746716
25	0x3f64d569	0.8938814
26	0x3f3e865f	0.74423784
27	0x3f6c7e1d	0.92379934
28	0x3f401a91	0.7504054
29	0x3f850d53	1.0394691
30	0x3f6b56b5	0.9192918
31	0x3f341ca9	0.7035623
32	0x3f64026d	0.890662
33	0x3f8e6cc7	1.1126946
34	0x3f9594c5	1.1686026
35	0x3f8fc68f	1.123247
36	0x3f6766ff	0.90391535
37	0x3f542f72	0.82884896
38	0x3f75f861	0.9608212
39	0x3f5eaf04	0.869858
40	0x3f5a1a3d	0.85196286
41	0x3f523199	0.8210693
42	0x3f60f4d6	0.8787359
43	0x3f69e978	0.9137187
44	0x3f7537b2	0.9578811
45	0x3f6a10e9	0.9143205
46	0x3f4e324b	0.8054549
47	0x3f74df95	0.9565366
48	0x3f7b79bd	0.9823263
49	0x3f5229b6	0.82094896
50	0x3f49357c	0.78597236
51	0x3f827172	1.0190871
52	0x3f43b241	0.7644387
53	0x3f94413a	1.1582406
54	0x3f38f7f1	0.7225333
55	0x3f6fb0a8	0.9362893
56	0x3f7a0340	0.9766121
57	0x3f7815cb	0.96908253
58	0x3f596bad	0.84929925
59	0x3f6bb28e	0.9206933
60	0x3f8801b4	1.062552
61	0x3f8ccc8e	1.0999925
62	0x3fa4cac8	1.2874384
63	0x3f366fa1	0.7126408
64	0x3f96b914	1.1775231
65	0x3f3381d7	0.70119995
66	0x3f8bfb0a	1.0935986
67	0x3f538ef4	0.82640004
68	0x3f4d0a85	0.80094177
69	0x3f722e20	0.9460163
70	0x3f8879ff	1.066223
71	0x3f847b00	1.0350037
72	0x3f3c095a	0.7345177
73	0x3f8ba0bb	1.0908426
74	0x3f5a82a7	0.8535561
75	0x3f629d76	0.88521516
76	0x3f990280	1.1953888
77	0x3f910280	1.1328888
78	0x3f67d765	0.9056304
79	0x3f6fdd4c	0.9369705
80	0x3f68e87e	0.90979755
81	0x3f49b6db	0.7879464
82	0x3f824be6	1.0179412
83	0x3f4da5c1	0.80331045
84	0x3f6a4b56	0.91521204
85	0x3f4d69b7	0.80239433
86	0x3f6f5af7	0.93498176
87	0x3f85b657	1.0446271
88	0x3f809fcc	1.0048766
89	0x3f5f9e26	0.8735069
90	0x3f701d66	0.9379486
91	0x3f7b060d	0.9805611
92	0x3f4eb9b8	0.80752134
93	0x3f7acb26	0.9796623
94	0x3f8c844a	1.0977871
95	0x3f66ef0a	0.90208495
96	0x3f3d52d5	0.73954517
97	0x3f81ba1f	1.0134925
98	0x3f3d49c6	0.73940694
99	0x3f8055a4	1.0026135
100	0x3f73e8e5	0.95277244
101	0x3f677e65	0.9042724
102	0x3f563243	0.83670443
103	0x3f92d81e	1.1472204
104	0x3f55f08b	0.83570164
105	0x3f2cc0a7	0.67481464
106	0x3f4895de	0.7835368
107	0x3f415f21	0.7553578
108	0x3f651400	0.8948364
109	0x3f47ee77	0.78098243
110	0x3f820ac7	1.0159539
111	0x3f76d67c	0.9642103
112	0x3f457e4f	0.77145857
113	0x3f6044bf	0.876049
114	0x3f4cbcf7	0.7997584
115	0x3f90d883	1.1316074
116	0x3f64dcc3	0.89399356
117	0x3f6e49f9	0.93081623
118	0x3f669599	0.9007202
119	0x3f6e54b2	0.93097985
120	0x3f94a91f	1.1614112
121	0x3f5dbcd1	0.86616236
122	0x3f49b815	0.7879651
123	0x3f5dd6df	0.8665599
124	0x3f5cfe11	0.86325175
125	0x3f657c6b	0.8964297
126	0x3f624036	0.8837923
127	0x3f3fd0ce	0.74927986

layers.11.bias f4 [128]
0	0xbef68079	-0.48144892
1	0x3ec7497d	0.38923255
2	0x3e8e93fd	0.2784728
3	0x3f0bb957	0.5457968
4	0x3ec74185	0.38917175
5	0x3ea93126	0.3304531
6	0x3e7a009c	0.24414295
7	0x3f004276	0.5010141
8	0x3eac7d59	0.33689383
9	0xbec45245	-0.38344017
10	0x3e2543b4	0.16139108
11	0x3e685dab	0.22691981
12	0x3e80e889	0.2517741
13	0xbdd5870b	-0.10426148
14	0xbd8f3fb0	-0.06994569
15	0x3e8b073f	0.27153966
16	0xbe67109c	-0.2256493
17	0x3eee6692	0.4656263
18	0x3d468f5b	0.04847656
19	0xbdc1215d	-0.09430192
20	0x3e9da865	0.30792537
21	0x3ebb5386	0.3658716
22	0x3d0a48fc	0.03376101
23	0xbe117bca	-0.14207378
24	0xbe039d7e	-0.12853047
25	0x3e841bb4	0.25802386
26	0xbf452b00	-0.7701874
27	0x3bcb43db	0.0062031574
28	0xbeac11b8	-0.33607268
29	0x3e152597	0.1456512
30	0xbee190de	-0.44055837
31	0xbe487163	-0.19574504
32	0xbed2a9b7	-0.41145107
33	0xbdea4efc	-0.11440846
34	0x3ec457cc	0.38348234
35	0x3d8da087	0.06915384
36	0x3e690c93	0.22758703
37	0x3e465169	0.19366993
38	0xbed68950	-0.41901636
39	0xbf09e375	-0.53862697
40	0xbecded30	-0.40220022
41	0xbdb7ab5b	-0.0896823
42	0x3e3437fa	0.17599478
43	0x3f066941	0.52504355
44	0xbcb6eee7	-0.022330714
45	0xbed61029	-0.41809204
46	0xbef9d718	-0.48796916
47	0xbe92c1e5	-0.28663555
48	0xbc0ce04e	-0.0085984
49	0xbea834a3	-0.3285266
50	0x3cd8f197	0.026482387
51	0x3f2ef442	0.6834146
52	0x3f73facd	0.95304567
53	0xbe453f88	-0.19262516
54	0x3e368253	0.17823152
55	0x3e1ac2f1	0.15113427
56	0x3dc1493f	0.09437799
57	0xbd992af3	-0.07478895
58	0x3dc07ede	0.09399198
59	0x3dcdde9e	0.100522265
60	0x3ea0241b	0.31277546
61	0xbcf69e85	-0.030104885
62	0x3f0588d4	0.5216191
63	0x3e26038d	0.16212292
64	0xbde90770	-0.11378372
65	0xbf0dcde7	-0.5539231
66	0x3e0e85be	0.13918206
67	0x3f500764	0.8126128
68	0xbded2bc3	-0.115806125
69	0x3f317d8e	0.69332206
70	0xbe8236f4	-0.2543255
71	0x3ef413eb	0.47671446
72	0x3e19eaa9	0.15030922
73	0xbda446ac	-0.08021292
74	0x3dfbf96e	0.12303434
75	0x3eabba72	0.33540684
76	0xbdaad64f	-0.08341657
77	0x3ea1460c	0.31498754
78	0x3cc92f10	0.024558574
79	0xbf0cd305	-0.5500949
80	0x3ef99cb5	0.4875237
81	0xbedeb847	-0.43499967
82	0xbf047a73	-0.5174934
83	0xbdfe6bff	-0.12422942
84	0x3e2f0c7f	0.1709461
85	0xbd2bba01	-0.041925434
86	0x3e11d2e4	0.14240605
87	0xbe492d2d	-0.1964614
88	0xbd49cedf	-0.049269553
89	0x3c8f96d2	0.017527971
90	0xbeb8af89	-0.36071423
91	0x3ef7fa93	0.4843336
92	0xbe979721	-0.2960749
93	0x3e23110e	0.15924475
94	0x3f22337d	0.63359815
95	0xbf24b8ef	-0.64344686
96	0xbe83fd21	-0.2577906
97	0x3e5df8a2	0.21676877
98	0x3daf19ec	0.08549866
99	0x3d8052e4	0.0626581
100	0x3de8cd52	0.11367287
101	0x3f039754	0.51402783
102	0xbcba8638	-0.022769079
103	0x3e8032c3	0.25038728
104	0xbee3f7e6	-0.4452507
105	0x3f470822	0.77746785
106	0xbde17911	-0.1100942
107	0x3cfcca7e	0.030858275
108	0xbe0a0f62	-0.1348243
109	0xbe402e15	-0.18767579
110	0x3d609179	0.054826234
111	0xbe0ecedf	-0.13946103
112	0x3f126fd0	0.5720186
113	0x3cad608f	0.021164207
114	0xbe9671a8	-0.29383588
115	0x3f323f7f	0.6962814
116	0x3e470d0d	0.19438572
117	0x3caeb368	0.021325782
118	0x3e8fcc98	0.2808578
119	0x3eb78ce1	0.3584967
120	0xbd24f643	-0.040273916
121	0xbe1218aa	-0.14267221
122	0xbf27b592	-0.6551143
123	0xbf00616c	-0.50148654
124	0xbf64d8aa	-0.89393103
125	0xbee644fe	-0.44974512
126	0x3f1a2b2a	0.60222113
127	0x3ef4d80b	0.47821078

layers.11.running_mean f4 [128]
0	0xbe03a115	-0.12854417
1	0x3f346e2b	0.704806
2	0x3e730e24	0.23735863
3	0x3f05510f	0.5207681
4	0x3f775258	0.9661002
5	0x3f1a8d52	0.6037189
6	0xbedf86f0	-0.43657637
7	0x3d131b22	0.035914548
8	0x3f46ec54	0.7770436
9	0xbf70612c	-0.9389827
10	0x3cfcb1aa	0.030846436
11	0x3ed203dd	0.41018572
12	0xbe1d373c	-0.15353101
13	0xbeb50e05	-0.3536226
14	0xbf52e2bb	-0.82377213
15	0xbe8f8c8c	-0.28036916
16	0xbd998033	-0.07495155
17	0x3edcbd1d	0.43113032
18	0xbca22f20	-0.019797862
19	0xbc8edd19	-0.017439412
20	0xbf72fb51	-0.9491473
21	0xbd5fac95	-0.054607946
22	0xbde053ae	-0.10953461
23	0x3ed35ad8	0.41280246
24	0x3e0055ef	0.12532781
25	0xbe0a5194	-0.13507682
26	0x3e8d485c	0.27594268
27	0xbf015a5c	-0.505285
28	0x3cc7c3a1	0.024385275
29	0x3eba2dba	0.36363012
30	0x3e71a951	0.23599745
31	0xbf00b7e6	-0.50280607
32	0xbf292c7a	-0.6608349
33	0x3ed7d4c8	0.42154527
34	0x3f177e5a	0.5917717
35	0x3f1a16fd	0.6019133
36	0xbd63a903	-0.055581104
37	0x3f162d96	0.5866331
38	0xbf1c3f97	-0.6103453
39	0xbd895039	-0.067047544
40	0xbe9f94cf	-0.3116822
41	0xbf026e26	-0.50949323
42	0x3f78814f	0.9707231
43	0xbe43cf76	-0.19122109
44	0x3f0a64ad	0.5405987
45	0x3ed1a1dc	0.409438
46	0xbf772a8a	-0.96549284
47	0x3f108ea0	0.5646763
48	0x3f0e0b34	0.55485845
49	0xbf864258	-1.0488997
50	0xbef5b5d3	-0.47990283
51	0x3f83031f	1.0235327
52	0x3e0df5fa	0.13863364
53	0xbf1aad2a	-0.6042048
54	0x3ec1a62e	0.37822098
55	0x3f0d0eee	0.55100906
56	0x3eb65b12	0.35616356
57	0xbe801d3b	-0.250223
58	0x3d8c80ee	0.06860529
59	0x3e04f3aa	0.12983575
60	0x3ee75a77	0.45186207
61	0x3f8a2356	1.0792034
62	0x3fd7ec63	1.6869015
63	0xbf330bc9	-0.6993986
64	0x3e923992	0.28559548
65	0xba12cf30	-0.00056003314
66	0x3f057d81	0.5214463
67	0x3ecad28b	0.39613757
68	0xbea94deb	-0.3306726
69	0x3f61de33	0.88229674
70	0x3e693f77	0.22778116
71	0x3f1023ea	0.563048
72	0x3f2d4563	0.67684
73	0x3df43ee2	0.119260564
74	0xbe120b58	-0.1426214
75	0x3f2984eb	0.6621844
76	0x3f4878ca	0.7830931
77	0x3f2e36fa	0.6805264
78	0x3e14a7e7	0.14517175
79	0xbf066180	-0.52492523
80	0x3f3be022	0.73388875
81	0xbe38dec8	-0.18053734
82	0xbebc9387	-0.36831304
83	0xbe80ed20	-0.25180912
84	0x3e68c304	0.22730643
85	0xbf22401b	-0.6337907
86	0x3faab654	1.3336892
87	0x3e944ee3	0.28966436
88	0x3e30f4bd	0.1728086
89	0x3f00943c	0.5022619
90	0x3ee5b85e	0.44867224
91	0x3f31840c	0.6934211
92	0xbf8a3285	-1.0796667
93	0xbc331477	-0.010930172
94	0x3f03838a	0.5137259
95	0xbf286ac3	-0.65787905
96	0xbef9764a	-0.4872306
97	0x3efaac0e	0.48959392
98	0x3e42d831	0.19027783
99	0x3f4584be	0.77155674
100	0xbe9cd5c5	-0.30631843
101	0x3f0c92a4	0.54911256
102	0x3e1ea506	0.15492639
103	0x3f29c548	0.6631665
104	0xbd984e21	-0.07436777
105	0x3e4eecb9	0.2020749
106	0xbf80fa95	-1.0076472
107	0x3edbbcfa	0.42917615
108	0xbe036b5b	-0.12833922
109	0xbe4b1278	-0.19831264
110	0x3d9f014e	0.07763921
111	0x3f1f0896	0.62122476
112	0x3e027659	0.12740459
113	0x3f68f39c	0.9099672
114	0xbf151e15	-0.58249027
115	0x3f86d263	1.0532955
116	0x3f0f24c4	0.55915475
117	0x3f2fbd3d	0.6864813
118	0x3f0b4ba5	0.544123
119	0x3fb28c7b	1.3949121
120	0x3f08c55c	0.53426147
121	0xbf86d892	-1.0534842
122	0xbf2ad98c	-0.667382
123	0xbf29969e	-0.6624545
124	0xbf2783ca	-0.6543547
125	0x3da3331f	0.07968735
126	0xbdef4314	-0.11682716
127	0x3e1de926	0.1542097

layers.11.running_var f4 [128]
0	0x3f4947ad	0.78624994
1	0x40b9a767	5.801685
2	0x40db9acd	6.8626466
3	0x40276f16	2.6161551
4	0x40971e1a	4.7224245
5	0x40a2e030	5.0898666
6	0x3fb6fb75	1.4295489
7	0x3fda0741	1.7033464
8	0x407ac94a	3.9185357
9	0x3f74271b	0.9537217
10	0x3fee8d24	1.8636823
11	0x4090b67c	4.522276
12	0x408e38ec	4.4444485
13	0x3f3215df	0.6956462
14	0x3ff46503	1.9093326
15	0x407c5928	3.9429417
16	0x3f700664	0.9375975
17	0x40459316	3.0871024
18	0x402588bd	2.5864708
19	0x4096566e	4.6980505
20	0x3fb1c32b	1.3887686
21	0x403752e4	2.8644342
22	0x40917f0b	4.546758
23	0x40426f78	3.0380535
24	0x405e1e25	3.4705899
25	0x3fba68e7	1.4563264
26	0x40b8f774	5.7802067
27	0x3f45e009	0.77294976
28	0x409be568	4.8717537
29	0x40a22fac	5.0683193
30	0x40545c4b	3.318133
31	0x4026c0f8	2.6055279
32	0x3fcc1a0d	1.594545
33	0x40a64645	5.196078
34	0x40fc92d1	7.892922
35	0x40dc2351	6.879311
36	0x3fee8722	1.8634989
37	0x401f7174	2.4912996
38	0x40153322	2.331246
39	0x402fcfa7	2.747049
40	0x3f9ed727	1.2409409
41	0x40651961	3.579674
42	0x40b32e2c	5.599386
43	0x3fd1c317	1.6387662
44	0x40d07f27	6.5155215
45	0x40a7df8f	5.24604
46	0x3fa8b6ea	1.3180821
47	0x4007fe40	2.1248932
48	0x408938c0	4.2881775
49	0x3fb6b837	1.4274968
50	0x403a69bd	2.9127038
51	0x40f30f38	7.5956078
52	0x4096b659	4.709759
53	0x3f2da4d0	0.6782961
54	0x4039f755	2.905721
55	0x401d2835	2.455579
56	0x3f8d6232	1.1045592
57	0x3ff26f57	1.8940228
58	0x3fd54ebe	1.6664655
59	0x406df9cb	3.7183712
60	0x40b6d804	5.713869
61	0x403a3a1f	2.9097974
62	0x405bbc67	3.4333742
63	0x400253a4	2.036355
64	0x40031d7d	2.0486748
65	0x40a349dc	5.102766
66	0x40b52f12	5.661996
67	0x3fe24072	1.7675917
68	0x3f05a809	0.52209526
69	0x410891f2	8.535631
70	0x4027dff2	2.6230435
71	0x4047be42	3.1209874
72	0x408fad4c	4.4899044
73	0x40097156	2.1475425
74	0x40103649	2.2533133
75	0x40b6eb07	5.71619
76	0x40610827	3.5161226
77	0x40c7425d	6.226851
78	0x403d858f	2.9612768
79	0x3fad5ec9	1.3544551
80	0x3fef883d	1.8713452
81	0x3f67ce42	0.905491
82	0x3f61e56e	0.88240707
83	0x3f9582a9	1.1680499
84	0x3fa89933	1.3171753
85	0x40299a25	2.6500332
86	0x40f5b907	7.6788363
87	0x3fdc00da	1.718776
88	0x3fd2fa09	1.6482555
89	0x40738042	3.8047032
90	0x40511a96	3.2672477
91	0x40dc0345	6.875399
92	0x3fd8dad6	1.6941783
93	0x3fdd5762	1.7292292
94	0x40e64faf	7.197227
95	0x3fd08207	1.6289681
96	0x40280138	2.6250744
97	0x3faad6f6	1.3346851
98	0x4035a70e	2.8383212
99	0x40718096	3.7734733
100	0x405b5420	3.4270096
101	0x4005dc9d	2.0915902
102	0x40a751ba	5.2287264
103	0x41058584	8.345097
104	0x3f13d6dd	0.5774973
105	0x404661c8	3.099718
106	0x3fcfa746	1.6222923
107	0x40b52e1e	5.6618795
108	0x3fbf1b20	1.4930153
109	0x409305bb	4.5944495
110	0x40a8f3b3	5.2797484
111	0x402fc68f	2.746494
112	0x40719652	3.7747998
113	0x4087f3cf	4.248512
114	0x4011f985	2.2808545
115	0x4009d52e	2.1536365
116	0x40a612f3	5.189813
117	0x4075526d	3.8331559
118	0x40705be0	3.7556076
119	0x40f7e32e	7.746482
120	0x40e49f37	7.1444354
121	0x3fcf319c	1.6187015
122	0x3f544353	0.8291523
123	0x3ffe8fa3	1.9887584
124	0x3ff0a94b	1.8801664
125	0x405a2dba	3.409041
126	0x404d8f0c	3.211856
127	0x3fb25b1b	1.3934053
