cushion/h2_cushion_rom.pt (torch, 102215 bytes, 32 tensors)

layers.0.weight f4 [32, 12]
-0.0061342586 0.0070993165 -2.306032 0.06565171 0.01260164 0.0025352377 -0.03196393 -0.015465981
-0.010334199 6.997734e-39 -0.004560653 -0.021875327 0.040936667 -0.062236525 0.030540757 -0.014538818
-0.015093142 -0.00667935 -0.091686495 0.014312117 0.31480056 7.004252e-39 -0.15516064 -1.2677481
0.2996102 -0.31478474 0.44053277 -0.5356351 -0.01782978 -0.00016445153 -0.3319026 -0.08080512
0.12511331 -6.999498e-39 -0.017388385 0.33985108 0.68076587 -0.48512194 0.22343245 -0.08831513
-0.17503431 0.053877648 -0.12601744 -0.051197134 0.1918038 6.987082e-39 -0.00872499 0.28321108
0.0079760915 0.01956858 0.11690561 -0.16275266 -0.09466493 -0.020657985 0.70304435 0.2439059
0.041447908 6.99403e-39 0.012292607 0.20294105 -0.216668 0.01916087 -1.0007198 0.17342798
-0.026176102 -0.027688581 -0.15747455 -0.010391396 -0.11736185 6.998917e-39 -0.044525255 -0.0672477
-1.2525462 0.36236247 0.06702628 -0.012285292 -0.042094447 0.0018092255 0.007105152 -0.104903035
0.021597866 6.993383e-39 0.011779999 0.041843377 0.37649676 -0.16664201 0.05761049 -0.0558439
-0.18149868 -0.06307234 0.649508 0.016980482 0.07172072 7.002794e-39 -0.034057483 0.25528026
0.12360955 -0.090345606 -0.117588885 0.053433765 -0.020675685 -0.006826712 -0.034169752 -0.045312565
-0.46000013 6.988474e-39 0.06871955 1.0253149 0.10789201 -0.27740178 -0.060288377 0.059248537
-0.010253304 -0.062890194 -0.54088193 -0.038298942 -0.5491097 -6.984514e-39 -0.13053244 0.013137484
-1.0320107 0.28179133 -0.20857388 0.06788016 -0.034165632 0.018261576 -0.16883463 0.1699439
-0.12959427 6.984911e-39 -0.05805378 -0.045820877 0.27589938 -0.24121433 0.11039208 -0.07893747
-0.027851092 0.010482309 0.53078085 0.029580593 0.09899882 -7.005055e-39 0.014478352 0.14661433
0.35859513 -0.8373338 0.22920652 -0.14338951 -0.016350135 0.03659241 -0.16154325 -0.058043048
0.17483345 -6.98559e-39 0.092433125 0.1981034 0.15235186 -0.10053355 0.08242205 -0.05306517
-0.034378782 0.00509026 -0.042365365 -0.03689558 0.09182384 6.99085e-39 -0.23204193 -1.6575621
0.04712203 -0.07129147 0.019353358 -0.013542766 0.011886036 -0.011424127 -0.09154372 -0.029295111
0.22650437 -6.994336e-39 -0.07742305 -1.4395438 -0.2924143 -0.00033807915 -0.022548119 0.017448666
0.01801754 -0.014826243 -0.017177664 0.021158395 0.10447587 -6.988954e-39 0.85238975 -0.40069675
-0.019516937 -0.031265583 -0.05550741 0.0756555 0.013704193 -0.015071786 0.013449464 -0.004661303
0.056532525 6.993581e-39 0.08445117 -1.7476254 -0.03482535 -0.07142958 -0.13189825 0.12433224
0.019971956 -0.06893249 -1.0169188 -0.00014501644 -0.07392934 6.986249e-39 -0.00407143 -0.061004218
-0.32827398 0.1267791 -0.16287795 0.12894157 0.09759949 0.030103782 -0.7359885 -0.10934124
-0.10790984 6.994315e-39 0.015840204 -0.22984922 0.19013046 -0.05727327 0.052923772 -0.03176737
-0.2758595 0.008901287 -0.0942321 -0.05097075 -0.35198182 7.006317e-39 0.6305782 0.6210403
-0.033587683 -0.0052555953 -0.020729076 0.020338904 0.0430729 0.03628221 0.0031161385 -0.027381575
-0.88050425 6.994329e-39 -0.13037579 -0.24541628 0.04199576 -0.0010423884 -0.0097091645 0.0025448333
00000000: e401 c9bb 62a1 e83b 0796 13c0 6774 863d
00000010: 1c77 4e3c 3b26 263b 9cec 02bd 0765 7dbc
00000020: c650 29bc d632 4c00 8871 95bb e333 b3bc
00000030: 35ad 273d baeb 7ebd 9c30 fa3c 3934 6ebc
00000040: 3a49 77bc 73de dabb 21c6 bbbd 5f7d 6a3c
00000050: 8a2d a13e 0145 4c00 6ee2 1ebe 9245 a2bf
00000060: 8266 993e 772b a1be 838d e13e 621f 09bf
00000070: c20f 92bc 9f70 2cb9 23ef a9be 287d a5bd
00000080: b41d 003e c137 4c80 1672 8ebc f600 ae3e
00000090: ac46 2e3f e761 f8be 7acb 643e 90de b4bd
000000a0: 323c 33be cfae 5c3d b70a 01be 16b4 51bd
000000b0: 3768 443e 2415 4c00 43f3 0ebc 0b01 913e
000000c0: 27ae 023c 494e a03c 356c ef3d a2a8 26be
000000d0: b0df c1bd ef3a a9bc b7fa 333f 78c2 793e
000000e0: 48c5 293d 8328 4c00 ee66 493c c7cf 4f3e
000000f0: 37de 5dbe 42f7 9c3c 9617 80bf 1b97 313e
00000100: 446f d6bc 2ad3 e2bc 0241 21be ac40 2abc
00000110: 695b f0bd 2236 4c00 1d60 36bd 2ab9 89bd
00000120: 6f53 a0bf 9387 b93e 1345 893d 4048 49bc
00000130: 3a6b 2cbd 8923 ed3a 56d2 e83b 67d7 d6bd
00000140: 02ee b03c b526 4c00 e600 413c f663 2b3d
00000150: 2fc4 c03e 34a4 2abe faf8 6b3d 93bc 64bd
00000160: cada 39be 122c 81bd 2846 263f a71a 8b3c
00000170: 50e2 923d f140 4c00 dc7f 0bbd 18b4 823e
00000180: 0127 fd3d 1e07 b9bd 71d2 f0bd 5ddd 5a3d
00000190: 0e60 a9bc 9cb2 dfbb 95f5 0bbd ab99 39bd
000001a0: 2385 ebbe 0619 4c00 d6bc 8c3d 853d 833f
000001b0: 7cf6 dc3d 9b07 8ebe f2f0 76bd 98ae 723d
000001c0: 79fd 27bc 93cc 80bd 3d77 0abf 5adf 1cbd
000001d0: 7492 0cbf fc0d 4c80 4caa 05be 9a3e 573c
000001e0: ed18 84bf f446 903e 6494 55be c104 8b3d
000001f0: 43f1 0bbd 4d99 953c fce2 2cbe c605 2e3e
00000200: 5cb4 04be 170f 4c00 cdc9 6dbd acae 3bbd
00000210: af42 8d3e e400 77be 3e15 e23d f8a9 a1bd
00000220: f927 e4bc febd 2b3c 41e1 073f 0053 f23c
00000230: e5bf ca3d 3e47 4c80 9c36 6d3c 1122 163e
00000240: c899 b73e 825b 56bf 1db5 6a3e b3d4 12be
00000250: b8f0 85bc ece1 153d 986b 25be 8cbe 6dbd
00000260: 8a07 333e fc10 4c80 944d bd3d 9edb 4a3e
00000270: 2002 1c3e 89e4 cdbd e4cc a83d dd5a 59bd
00000280: c4d0 0cbd 32cc a63b 4e87 2dbd d21f 17bd
00000290: 230e bc3d a51f 4c00 669c 6dbe ff2a d4bf
000002a0: 0803 413d 4301 92bd ef8a 9e3c 7ae2 5dbc
000002b0: a6bd 423c 432c 3bbc 467b bbbd 4dfc efbc
000002c0: c3f0 673e 5d29 4c80 fa8f 9ebd f942 b8bf
000002d0: 54b7 95be 3740 b1b9 d5b6 b8bc 81f0 8e3c
000002e0: 8599 933c c5e9 72bc 2cb8 8cbc 5f54 ad3c
000002f0: 72f7 d53d 5c1a 4c80 3736 5a3f 2028 cdbe
00000300: fce1 9fbc 5710 00bd bd5b 63bd 45f1 9a3d
00000310: 8d87 603c a7ef 76bc 245b 5c3c d8bd 98bb
00000320: a68e 673d 4227 4c00 bcf4 ac3d 30b2 dfbf
00000330: 07a5 0ebd ac49 92bd 5610 07be e7a1 fe3d
00000340: 3a9c a33c 7a2c 8dbd 652a 82bf 8e0f 18b9
00000350: 4468 97bd d212 4c00 a169 85bb 8fdf 79bd
00000360: 8713 a8be 61d2 013e 7ac9 26be 4209 043e
00000370: 3ee2 c73d 359c f63c be69 3cbf 4dee dfbd
00000380: d6ff dcbd 4e29 4c00 51c3 813c 985d 6bbe
00000390: 8fb1 423e 6097 6abd 99c6 583d 801e 02bd
000003a0: 753d 8dbe b4d6 113c c2fc c0bd b5c6 50bd
000003b0: f636 b4be c34a 4c00 936d 213f 7ffc 1e3f
000003c0: 3d93 09bd 2137 acbb 06d0 a9bc c69d a63c
000003d0: 366d 303d a89c 143d 2138 4c3b 534f e0bc
000003e0: ba68 61bf 5829 4c00 3b81 05be 684e 7bbe
000003f0: bf03 2c3d c0a0 88ba 3013 1fbc 38c7 263b

layers.0.bias f4 [32]
0.17051457 0.20459175 0.103146285 -0.18825193 -0.47861147 0.3966451 0.1001196 -0.5245102
0.17593893 0.5561894 0.25633863 -0.54280394 0.06706522 0.128632 0.2162838 -0.3246956
0.14960107 0.40613735 0.5101752 -0.2295538 0.3676687 0.23607774 -0.34859696 0.2920105
-0.43508142 0.32958966 -0.2146189 0.46705 0.0883217 0.23758298 0.09203852 -0.003933168
00000000: 5f9b 2e3e 8080 513e 5c3e d33d 1dc5 40be
00000010: 900c f5be 1115 cb3e 810b cd3d 4d46 06bf
00000020: 5629 343e 6e62 0e3f d13e 833e 33f5 0abf
00000030: 7d59 893d 1bb8 033e 8079 5d3e 803e a6be
00000040: 0631 193e 3cf1 cf3e d89a 023f 2710 6bbe
00000050: 123f bc3e 5dbe 713e 4d7b b2be 6682 953e
00000060: fec2 debe fabf a83e 0fc5 5bbe 2d21 ef3e
00000070: 02e2 b43d f448 733e b17e bc3d cee1 80bb

layers.3.weight f4 [32]
1.2355843 0.96987814 1.0016769 0.8861929 0.65471995 0.78288484 0.60669345 0.6042803
1.0181191 0.60909724 0.5545841 0.67650604 0.65823716 0.78963786 0.97975266 0.9511548
0.74841 0.5711521 0.615238 1.0479385 0.728541 0.7319322 0.8534715 0.83893305
0.63678706 0.7040437 0.85867685 0.6523211 0.9608894 0.9084844 0.87246764 0.5710506
00000000: a027 9e3f ef49 783f f336 803f 8add 623f
00000010: ba9b 273f 246b 483f 4350 1b3f 1db2 1a3f
00000020: ba51 823f cced 1b3f 39f9 0d3f 802f 2d3f
00000030: 3b82 283f b525 4a3f 12d1 7a3f e27e 733f
00000040: cc97 3f3f 0637 123f 3d80 1d3f d922 863f
00000050: aa81 3a3f e95f 3b3f 1c7d 5a3f 51c4 563f
00000060: 7a04 233f 353c 343f 3fd2 5b3f 84fe 263f
00000070: d9fc 753f 6f92 683f 0a5a 5f3f 5f30 123f

layers.3.bias f4 [32]
-0.90212494 -0.27654845 0.4933565 0.24772002 0.37737685 -0.46512866 0.2072032 0.052745584
0.7484903 -0.0862913 -0.45953265 0.22187413 0.34779638 -0.97919476 -0.46885142 -0.38070005
-0.79929787 0.11936309 -0.1931929 0.3364462 0.10942486 -0.8314338 0.82646847 -0.31696436
0.17348221 -0.060466744 -0.36102057 -0.3663168 0.24062645 -0.49345836 -0.29328468 -0.09038142
00000000: a9f1 66bf c297 8dbe 3999 fc3e 51aa 7d3e
00000010: 8a37 c13e 5825 eebe 132d 543e c10b 583d
00000020: 0f9d 3f3f 7eb9 b0bd dd47 ebbe f932 633e
00000030: 5e12 b23e 82ac 7abf 4b0d f0be 1eeb c2be
00000040: c99e 4cbf a374 f43d 5cd4 45be ad42 ac3e
00000050: 241a e03d d8d8 54bf 7093 533f 2749 a2be
00000060: 52a5 313e faab 77bd b0d7 b8be e08d bbbe
00000070: c866 763e 93a6 fcbe 6929 96be e519 b9bd

layers.3.running_mean f4 [32]
-0.28332967 -0.12102148 0.11910546 0.12072092 0.10056637 -0.0810695 -0.08133243 0.024564078
0.49045372 -0.020152928 -0.067258045 -0.013802191 0.085323654 -0.24474365 -0.14439435 -0.018064417
-0.20196094 -0.044915643 -0.00016970442 0.1986373 -0.042037696 -0.22940081 0.60838115 -0.11077192
-0.018542077 -0.091988005 -0.09458179 -0.13861224 0.4226864 -0.20512003 0.02896147 -0.116549045
00000000: 9610 91be 1cda f7bd 90ed f33d 883c f73d
00000010: bef5 cd3d c407 a6bd 9e91 a6bd 9b3a c93c
00000020: c01c fb3e c117 a5bc 96be 89bd 9622 62bc
00000030: 2bbe ae3d 149e 7abe 1ddc 13be d4fb 93bc
00000040: d9ce 4ebe 77f9 37bd aff2 31b9 9467 4b3e
00000050: b82f 2cbd 0ce8 6abe debe 1b3f 63dc e2bd
00000060: 8ee5 97bc 3564 bcbd 19b4 c1bd 5ef0 0dbe
00000070: 5a6a d83e fc0a 52be 9b40 ed3c 44b1 eebd

layers.3.running_var f4 [32]
0.0581493 0.027294828 0.052990906 0.05097379 0.029860165 0.016549038 0.028347183 0.021374336
0.15848011 0.014870155 0.021384407 0.010253694 0.043093253 0.034481946 0.029065317 0.029884527
0.040469114 0.019087398 0.021708686 0.10437919 0.01649131 0.040865388 0.2400021 0.022607528
0.023117458 0.028918574 0.033321783 0.01043161 0.16287436 0.041488905 0.044308007 0.02218681
00000000: f62d 6e3d 6799 df3c fe0c 593d e5c9 503d
00000010: 4e9d f43c d991 873c 5a38 e83c 3b19 af3c
00000020: 9c48 223e f3a1 733c 5a2e af3c 1cff 273c
00000030: 8d82 303d f13c 0d3d 631a ee3c 65d0 f43c
00000040: f1c2 253d 2d5d 9c3c 6ad6 b13c c2c4 d53d
00000050: c918 873c 7762 273d 1cc3 753e 6c33 b93c
00000060: d360 bd3c a5e6 ec3c 6c7c 083d 58e9 2a3c
00000070: 89c8 263e 45f0 293d 507c 353d 1dc1 b53c

layers.4.weight f4 [64, 32]
-0.024931205 0.12081009 -0.10475903 -0.146811 0.7492203 0.051064216 -0.0008649 0.654253
-0.081953086 0.29539552 0.20001838 0.4741792 0.18160668 -0.0042348215 -0.005213797 0.032525826
-0.102733694 -0.2806434 -1.0222422 0.09121804 -0.09957958 -0.03717428 -0.011360564 0.23507738
0.033282895 -0.042888433 -0.15384924 -0.29417214 -0.051522177 0.06782367 -0.14108787 0.014050038
-0.007369301 0.03499689 0.02878824 -0.0077194534 0.10707547 -0.05173227 0.017552737 -0.024158584
1.449843 0.09405493 -0.024597358 -0.009805844 -0.02010501 0.16921738 0.09023298 0.021922752
0.17859109 0.02799293 0.059625648 -0.20005721 -0.054078102 0.18582605 -0.29724106 -0.005353519
0.021124816 -0.043730963 0.08531338 -0.037768736 -0.29961357 -0.028111918 0.02895897 0.0038356348
-0.06170947 -0.046343975 0.17437741 -0.31544852 -0.11035332 0.05426998 0.5776976 -0.58959687
0.041558903 -0.3179444 0.7019614 -0.7859452 0.013723024 -0.014569088 -0.021163635 0.17464088
-0.0249627 -0.030226734 0.074283905 0.074042395 -0.09674847 -0.045525163 -0.05810239 0.036181744
0.18292776 -0.15404284 0.049302436 -0.10566679 -0.017335862 -0.06386764 -0.16922233 0.69468313
-0.03683308 0.05525917 -0.24020454 -1.1763177 0.02977696 0.40406188 0.37655598 0.18916434
0.06058047 0.055354726 0.5806241 -0.19091272 -0.4848288 -0.018401971 -0.029577876 0.24294609
-0.08851093 0.13982019 0.03781294 0.062250912 -0.1734862 -0.015012235 -0.017754037 0.028089503
-0.1360391 -0.17561124 -0.014628785 0.10750127 -0.0152793005 -0.024085525 -0.19240017 0.31326923
1.1369756 -0.018589817 -0.042754974 0.1465014 0.21078984 0.29052985 0.14453214 0.0942222
0.02812924 -0.11773508 0.035522293 -0.07217031 -0.039533447 -0.01629904 -0.009100929 0.035677582
0.055236112 0.09424233 0.17250982 -0.06347705 -0.0069158175 -0.043979302 0.090054035 0.073540635
0.063969225 -0.007654115 0.18590648 -0.05414381 -0.016733432 0.03648655 0.06977253 0.0043442883
-0.017635398 0.11672635 0.01648014 -0.3230618 0.21373183 -0.27698407 0.7009197 0.15310109
0.076941155 0.1604425 0.26601535 0.056957714 -0.46494365 0.00076814333 0.106208526 -0.059215866
-0.0430978 0.01698308 0.026063418 0.043833733 0.026424224 -0.016285283 0.063165076 -0.08032704
0.0077081723 0.08921122 -0.07508889 0.2373233 0.06710391 -0.24861737 0.16139257 0.58899075
0.0012426215 0.3565612 -0.018108457 0.0017327922 0.015510995 -0.05811634 -0.072545245 0.047819983
-0.32425487 0.04241443 0.006611379 -0.094119675 -0.008722443 0.64910924 0.04048775 0.33877277
0.62235004 -0.054897226 0.015422829 0.023349209 0.12713775 0.36496732 -0.93445754 -0.048598833
0.062282912 0.07918681 0.059013315 -0.019051502 -0.07532087 0.0320783 0.024731705 -0.004049982
0.012965226 0.11891734 -0.014515451 -0.015035194 -0.11913325 -0.12119517 -0.14711572 -0.061201606
-0.7303029 -0.027079359 -0.048824042 -0.025889477 -0.0647881 0.47090292 -0.43043646 -0.39442798
0.48679084 -0.06601742 -0.02897101 -0.1173991 0.07422984 0.09708555 -0.6435753 0.022423882
-0.16041595 0.06792221 0.19464262 -0.0026553222 -0.51665187 0.0057785963 0.14079462 -0.1110671
00000000: 873c ccbc 486b f73d e78b d6bd 9f55 16be
00000010: e7cc 3f3f b628 513d 75ba 62ba 207d 273f
00000020: 05d7 a7bd 153e 973e 9ed1 4c3e 9ec7 f23e
00000030: 1af7 393e 42c4 8abb 80d8 aabb cd39 053d
00000040: 0b66 d2bd 7eb0 8fbe d5d8 82bf 86d0 ba3d
00000050: 61f0 cbbd 0f44 18bd a921 3abc 20b8 703e
00000060: a553 083d c8ab 2fbd a88a 1dbe bb9d 96be
00000070: eb08 53bd 23e7 8a3d 5779 10be 2132 663c
00000080: 2d7a f1bb e658 0f3d 51d5 eb3c 78f3 fcbb
00000090: 624a db3d 37e5 53bd c2ca 8f3c 39e8 c5bc
000000a0: 7594 b93f df9f c03d 6680 c9bc b1a8 20bc
000000b0: 43b3 a4bc 5247 2d3e 12cc b83d 5897 b33c
000000c0: 95e0 363e 6e51 e53c 063a 743d ccdb 4cbe
000000d0: 0081 5dbd 2f49 3e3e fb2f 98be 936c afbb
000000e0: f30d ad3c 3d1f 33bd c8b8 ae3d 64b3 1abd
000000f0: f366 99be f74a e6bc 5d3b ed3c 465f 7b3b
00000100: 12c3 7cbd 2ed3 3dbd fe8f 323e 7882 a1be
00000110: ec00 e2bd 334a 5e3d fde3 133f d2ef 16bf
00000120: ab39 2a3d 9cc9 a2be beb3 333f b433 49bf
00000130: 89d6 603c 2fb3 6ebc 5c5f adbc 0fd5 323e
00000140: 947e ccbc 0e9e f7bc 2922 983d 8aa3 973d
00000150: 1024 c6bd 9878 3abd c6fc 6dbd 4f33 143d
00000160: 6a51 3b3e 68bd 1dbe 5af1 493d d467 d8bd
00000170: f003 8ebc 0acd 82bd 9e48 2dbe c1d6 313f
00000180: 49de 16bd 7057 623d 2ef8 75be 9491 96bf
00000190: d0ee f33c 33e1 ce3e f2cb c03e 4cb4 413e
000001a0: 3a23 783d a3bb 623d c8a3 143f a07e 43be
000001b0: 7b3b f8be bbbf 96bc 4d4d f2bc dcc6 783e
000001c0: 3845 b5bd 062d 0f3e bee1 1a3d d0fa 7e3d
000001d0: 5ea6 31be e1f5 75bc ea70 91bc f51b e63c
000001e0: d54d 0bbe 6fd3 33be 92ad 6fbc a029 dc3d
000001f0: 0856 7abc 024f c5bc 8d04 45be d364 a03e
00000200: 6b88 913f ac49 98bc d71f 2fbd 7704 163e
00000210: 4bd9 573e 54c0 943e 3c00 143e 92f7 c03d
00000220: 4b6f e63c 171f f1bd d37f 113d 07ce 93bd
00000230: d3ed 21bd 9085 85bc 101c 15bc a822 123d
00000240: 433f 623d 1f02 c13d 6aa6 303e 4100 82bd
00000250: 159e e2bb a423 34bd 406e b83d 799c 963d
00000260: 4c02 833d 5fcf fabb 455e 3e3e e6c5 5dbd
00000270: 8d14 89bc ec72 153d e6e4 8e3d 885a 8e3b
00000280: 1c78 90bc 390e ef3d 5c01 873c 5b68 a5be
00000290: 84dc 5a3e dbd0 8dbe 796f 333f 88c6 1c3e
000002a0: 5393 9d3d 0a4b 243e 2a33 883e 7e4c 693d
000002b0: 180d eebe 3a5d 493a db83 d93d 568c 72bd
000002c0: 5287 30bd 1a20 8b3c f382 d53c 008b 333d
000002d0: 9d77 d83c b768 85bc b15c 813d 8182 a4bd
000002e0: d694 fc3b 5fb4 b63d 34c8 99bd e104 733e
000002f0: c66d 893d 8d95 7ebe 1844 253e 19c8 163f
00000300: 75df a23a 318f b63e 3058 94bc dc1e e33a
00000310: d421 7e3c 660b 6ebd 9a92 94bd e3de 433d
00000320: bc04 a6be c1ba 2d3d 44a4 d83b d1c1 c0bd
00000330: 94e8 0ebc 062c 263f 7cd6 253d a073 ad3e
00000340: 5552 1f3f eadb 60bd 09b0 7c3c d746 bf3c
00000350: 6630 023e ffdc ba3e 9c38 6fbf 920f 47bd
00000360: 5e1c 7f3d b22c a23d f2b7 713d e511 9cbc
00000370: d441 9abd 8964 033d 259a ca3c b6b5 84bb
00000380: 196c 543c ef8a f33d 37d2 6dbc 2d56 76bc
00000390: 22fc f3bd 2c35 f8bd 81a5 16be 89ae 7abd
000003a0: 21f5 3abf 88d5 ddbc b8fb 47bd 2b16 d4bc
000003b0: a0af 84bd 301a f13e 2b62 dcbe 77f2 c9be
000003c0: a63c f93e 2434 87bd 9d54 edbc f06e f0bd
000003d0: d005 983d cad4 c63d 5ac1 24bf 4ab2 b73c
000003e0: 1444 24be cd1a 8b3d 6550 473e ea04 2ebb
000003f0: 4c43 04bf 615a bd3b 772c 103e 2677 e3bd

layers.4.bias f4 [64]
-0.19771835 -0.14152886 -0.3689206 -0.06291956 -1.022204 -0.9453693 -0.8186375 -0.7301085
-0.22791451 -0.5466265 -0.8681723 -0.3484009 -0.4395403 -0.22101279 -0.78963786 -0.03240848
-0.20420213 -0.2147749 -0.18845439 -0.7090541 0.3353474 -0.35311007 -0.30474877 -0.53587264
-0.75428164 -0.39379635 -0.105738506 -0.6398542 -0.21993986 -0.16971977 -0.83094317 -0.31398827
-0.21503633 -0.28744128 -0.7683568 -0.48392493 -0.79805744 -0.10427363 -0.48854586 -0.63291967
-0.72611195 -0.25191608 -0.049794357 -0.7009467 0.06463034 -0.29540303 -0.70938724 -0.27679732
-0.4034074 -0.18933037 -0.7506245 -0.27852932 -0.863482 -0.68055445 -0.29711342 -0.19358142
-0.18480176 0.21264173 -0.21917285 -0.4078184 0.24267806 -0.8441253 -0.64609826 -0.47683993
00000000: ae76 4abe f1ec 10be 29e3 bcbe f8db 80bd
00000010: 95d7 82bf b903 72bf 3a92 51bf 64e8 3abf
00000020: 6c62 69be b7ef 0bbf 8a40 5ebf 9a61 b2be
00000030: 6d0b e1be 2d51 62be b525 4abf c1be 04bd
00000040: 5d1a 51be f4ed 5bbe 30fa 40be 9284 35bf
00000050: a8b2 ab3e d8ca b4be 0808 9cbe f32e 09bf
00000060: 9a18 41bf ad9f c9be 6e8d d8bd 7ccd 23bf
00000070: ea37 61be 05cb 2dbe b1b8 54bf 12c3 a0be
00000080: 7c32 5cbe 812b 93be 08b3 44bf 02c5 f7be
00000090: 7e4d 4cbf 6a8d d5bd af22 fabe 0607 22bf
000000a0: 79e2 39bf 25fb 80be 2bf5 4bbd 3e71 33bf
000000b0: e95c 843d 113f 97be 679a 35bf 61b8 8dbe
000000c0: 6a8b cebe d2df 41be ed28 40bf 659b 8ebe
000000d0: 280d 5dbf d138 2ebf 401f 98be 353a 46be
000000e0: ac3c 3dbe c1be 593e d96e 60be 93cd d0be
000000f0: 9980 783e 9818 58bf b266 25bf 5d24 f4be

layers.7.weight f4 [64]
0.9680346 1.0004203 0.788404 0.7484469 0.82745427 0.9115637 0.7948374 0.8539546
0.8666242 1.0655288 1.1943042 1.0025635 0.9782194 0.9623312 1.1428336 0.82271117
0.8643501 1.1384429 0.84965414 0.78912824 0.99226034 0.9238674 0.8829886 0.74539495
1.0468798 0.87319785 0.8672759 0.79382044 0.85857934 0.77906483 0.99929243 0.7221727
0.7743211 0.83480966 0.93505454 0.8541831 0.91484785 0.78072417 0.91704255 1.0622768
0.7952459 0.9757615 1.0173501 0.72121316 1.1521206 0.8628072 1.0600646 0.7822775
0.7395606 1.0210978 0.9447543 0.9321893 0.7838875 0.7234276 0.77706397 0.9278967
0.9935699 0.72990906 0.6350235 0.8428479 0.8597921 1.1975754 0.97567856 0.915732
00000000: 1ed1 773f c60d 803f d8d4 493f 379a 3f3f
00000010: 0bd4 533f 3d5c 693f 777a 4b3f c59c 5a3f
00000020: 15db 5d3f 3f63 883f f6de 983f 0054 803f
00000030: 966c 7a3f 565b 763f 5f48 923f 339d 523f
00000040: 0c46 5d3f 7fb8 913f ef82 593f 4f04 4a3f
00000050: c604 7e3f 9382 6c3f 8a0b 623f 34d2 3e3f
00000060: 2800 863f e589 5f3f cb05 5e3f d137 4b3f
00000070: dbcb 5b3f cb70 473f a1d1 7f3f 4fe0 383f
00000080: e839 463f 16b6 553f bc5f 6f3f beab 5a3f
00000090: 7833 6a3f 8add 473f 4dc3 6a3f b0f8 873f
000000a0: 3c95 4b3f 81cb 793f 8738 823f 6da1 383f
000000b0: b078 933f efe0 5c3f 32b0 873f 5743 483f
000000c0: d853 3d3f 55b3 823f 6bdb 713f f5a3 6e3f
000000d0: daac 483f 8d32 393f aaed 463f a38a 6d3f
000000e0: 995a 7e3f 52db 3a3f e690 223f e1c4 573f
000000f0: 561b 5c3f 274a 993f 12c6 793f 6a6d 6a3f

layers.7.bias f4 [64]
0.23240092 0.11523543 0.19156067 0.5603696 -0.7501433 -0.29806006 -0.48014042 -0.6645914
0.19981673 -0.53604215 0.18840261 0.10364842 -0.12386313 -0.4139235 -0.1545083 -0.3250655
-0.4289639 0.24327889 0.39535496 -0.93840194 0.18373786 0.20214672 0.07800145 0.106210016
0.002597136 0.15232097 0.046595782 -0.3454086 -0.34278506 0.36591443 0.18618557 0.18398525
-0.02495509 0.8198492 0.6153767 0.5655896 -0.49294162 -0.030682532 -0.26042354 0.33966792
-0.66476476 0.33015493 0.34512064 -0.32656834 0.3103986 -0.056274015 -0.44504115 -0.034143507
-0.33688697 -0.018566724 -0.19196036 0.6896609 -0.47729945 -0.44215122 0.09344151 0.052115317
-0.2133814 -0.04055273 -0.10301897 -0.12894443 0.27481732 -0.8795884 0.56217283 -0.08345812
00000000: 82fa 6d3e 8e00 ec3d 7b28 443e 6274 0f3f
00000010: 6409 40bf 549b 98be f7d4 f5be a922 2abf
00000020: c29c 4c3e 0f3a 09bf 9dec 403e 9f45 d43d
00000030: f4ab fdbd c8ed d3be 6c37 1ebe fc6e a6be
00000040: 28a1 dbbe 1a1e 793e f76b ca3e 1c3b 70bf
00000050: c725 3c3e 8dff 4e3e 39bf 9f3d a384 d93d
00000060: b634 2a3b 07fa 1b3e 38db 3e3d 65d9 b0be
00000070: 8681 afbe 2359 bb3e 6ea7 3e3e a166 3c3e
00000080: 9e6e ccbc a3e1 513f 5489 1d3f 7bca 103f
00000090: d862 fcbe ef59 fbbc 3c56 85be f4e8 ad3e
000000a0: 062e 2abf 110a a93e a7b3 b03e f733 a7be
000000b0: 91ec 9e3e 957f 66bd 6fdc e3be 10da 0bbd
000000c0: 737c acbe 3e19 98bc 4291 44be 9e8d 303f
000000d0: 9860 f4be a561 e2be 435e bf3d df76 553d
000000e0: a780 5abe 9f1a 26bd 9cfb d2bd 020a 04be
000000f0: dbb4 8c3e b52c 61bf 8fea 0f3f 17ec aabd

layers.7.running_mean f4 [64]
0.68271697 0.25611907 0.13599369 0.00013944485 -0.61039305 -0.08732043 -1.0072423 -0.8028478
0.10979564 -0.5690899 0.3545784 0.5011294 -0.35465387 0.22295038 0.026808944 -0.4141763
-0.27976012 0.635299 0.17910221 -0.4099686 1.0220658 -0.3903198 0.018885285 0.059576385
-0.2724952 0.19028108 0.31693593 -0.37694296 -0.5871296 0.07761836 -0.55209017 0.2753644
0.14544609 0.58731186 -0.10082237 -0.031540014 -0.41645637 -0.45912313 0.016926624 0.090444475
-0.99481475 0.2488547 0.08465416 -1.0353056 0.8665964 0.12785697 -0.7641482 -0.14062472
-0.15056619 0.3674042 -0.16119966 0.41526425 -0.6277699 -1.0347874 0.015113617 0.24569333
-0.35026678 0.29592845 -0.24886084 0.19857404 0.79344004 -0.55399483 -0.0027978998 0.051138807
00000000: 8ac6 2e3f 0a22 833e ee41 0b3e f137 1239
00000010: b842 1cbf 0ed5 b2bd 51ed 80bf 6f87 4dbf
00000020: 89dc e03d e0af 11bf 4d8b b53e 044a 003f
00000030: 3195 b5be 1b4d 643e 6e9e db3c ea0e d4be
00000040: b83c 8fbe f5a2 223f 9266 373e 68e7 d1be
00000050: 0dd3 823f ffd7 c7be 50b5 9a3c 5e06 743d
00000060: 7e84 8bbe 0bd9 423e 6d45 a23e abfe c0be
00000070: 204e 16bf 60f6 9e3d c855 0dbf 90fc 8c3e
00000080: d2ef 143e 125a 163f f57b cebd 1a30 01bd
00000090: c539 d5be 3012 ebbe b4a9 8a3c f43a b93d
000000a0: 2eac 7ebf c4d3 7e3e 295f ad3d e584 84bf
000000b0: 43d9 5d3f f0ec 023e 379f 43bf edff 0fbe
000000c0: 062e 1abe 671c bc3e 8611 25be 849d d43e
000000d0: 87b5 20bf ea73 84bf 1b9f 773c 0897 7b3e
000000e0: 2b56 b3be ef83 973e 60d5 7ebe fe56 4b3e
000000f0: e31e 4b3f 9bd2 0dbf f85c 37bb ed76 513d

layers.7.running_var f4 [64]
1.6750079 0.29206437 1.4593751 1.3906108 0.37033534 0.55646265 1.0707017 0.5760169
0.6955287 0.31570014 0.7755123 1.0814385 1.1198109 1.3872582 0.14123364 1.4626096
1.9101771 1.2519511 0.8815048 0.18317112 2.506521 2.0621965 1.2431779 0.274069
0.1703661 1.2006273 1.8495604 0.40480843 0.8076809 0.4672259 0.90954584 0.74738806
0.32475123 1.0317454 0.765677 0.5995393 0.21625689 2.2351007 1.0043362 0.19187528
1.242349 0.56938905 0.39431155 1.2788553 2.1687503 0.85123116 0.5695053 0.99661076
0.97722447 0.8325139 0.5592544 1.3228962 0.8605121 1.2766907 1.0889698 1.2384337
2.1782377 1.1685988 0.7950325 1.3462514 1.5363324 0.25949004 0.6234357 0.51769876
00000000: a966 d63f 7689 953e cecc ba3f 89ff b13f
00000010: 989c bd3e 5674 0e3f c10c 893f d875 133f
00000020: 2b0e 323f 73a3 a13e f987 463f 946c 8a3f
00000030: f755 8f3f ad91 b13f 8d9f 103e cb36 bb3f
00000040: af80 f43f ef3f a03f 4caa 613f 3691 3b3e
00000050: d76a 2040 07fb 0340 7420 9f3f c652 8c3e
00000060: 7374 2e3e 28ae 993f 65be ec3f 0d43 cf3e
00000070: 2dc4 4e3f 3c38 ef3e ffd7 683f d354 3f3f
00000080: cb45 a63e 3c10 843f 6803 443f 687b 193f
00000090: 7272 5d3e e40b 0f40 178e 803f f47a 443e
000000a0: 4b05 9f3f 7bc3 113f 34e3 c93e 88b1 a33f
000000b0: cecc 0a40 49ea 593f 19cb 113f e221 7f3f
000000c0: 622b 7a3f a21f 553f 4c2b 0f3f aa54 a93f
000000d0: 854a 5c3f 9a6a a33f 5d63 8b3f ff84 9e3f
000000e0: 3f68 0b40 a594 953f 4087 4b3f f751 ac3f
000000f0: 8aa6 c43f e1db 843e 7b99 1f3f e887 043f

layers.8.weight f4 [128, 64]
0.073368505 -0.32166633 0.06696791 0.20304218 -0.036110766 -0.10767913 -0.004638332 0.24974176
-0.12304476 0.15855347 0.048967596 -0.15439503 0.107705645 0.007484098 0.025981277 -0.03506227
0.55995417 -0.27286446 0.10510297 -0.06314157 0.10813163 0.8735329 0.08324122 0.043334022
0.05516323 -0.019451657 0.011339217 -0.002740707 -0.0028192804 0.112173244 0.0100990655 -0.10581652
-0.04836849 0.16948 -0.29535672 -0.37840047 -0.010339258 0.23147693 0.01416401 0.01713126
0.016779305 -0.028997464 -0.2825536 0.067121595 0.018693667 -0.22976644 0.104711466 0.078446366
-0.0004457134 0.001758271 -0.30026165 -0.45154896 -0.07156523 0.019037642 0.01278581 -0.35477534
0.9567602 0.0027907065 0.10077475 0.0066735093 -0.13811633 -0.0229323 -0.091786616 0.12210411
0.18678577 0.04013255 -0.10985374 0.07905115 -0.04573255 0.23472703 -0.116798 0.003952666
0.021881685 0.02110791 0.2593458 0.04671808 -0.16050822 0.059030324 0.438223 -0.16140214
0.09363015 0.08727576 0.10457012 -0.03232748 -0.23208289 0.11290744 -0.06872706 0.25596958
0.55578595 0.029787889 0.14291926 0.1766033 -0.18323117 0.1542502 -0.10089598 0.013355962
-0.08301892 0.019256368 0.037567485 -0.11005292 0.46734172 -0.20018396 -0.38170773 -0.019956809
-0.0518433 -0.16475876 0.0016621185 -0.09004761 0.13524084 0.18276848 0.00838493 -0.1672701
-0.06725977 0.1850356 0.0004985524 0.10012717 -0.10175444 -0.1027634 0.012229072 0.16954723
0.18942557 0.36835682 -0.27472866 -0.027500557 0.0628457 0.06692287 -0.5001329 0.04561256
-0.5599468 -0.061328482 -0.04048338 -0.37803835 -0.0271496 -0.30240652 -0.026908468 -0.0019346899
-0.41256252 0.012552437 -0.05339259 0.006293538 -0.4094033 0.027327484 -0.26304305 -0.17729159
-0.07307693 0.052495096 -0.43756774 -0.086120345 0.1071303 -0.11897049 -0.37448916 -0.54786015
-0.09197501 -0.16050221 -0.16849007 0.0007760135 -0.09947934 -0.21291856 -0.21460465 -0.4107441
-0.22167696 -0.085288435 0.07728401 -0.005423896 -0.16343682 -0.09684041 -0.2611948 -0.46205923
0.015423304 0.07069149 0.050644856 -0.07141292 -0.265489 -0.10129741 0.0053274203 -0.24015145
-0.30243492 -0.06309175 0.019319417 -0.13300788 -0.115911745 -0.001589743 -0.2478339 -0.07715751
-0.09089087 0.18382503 -0.3806788 -0.07559598 -0.10895273 0.03336035 0.19155619 -0.24410202
-0.0507207 -0.2088642 0.15328985 0.105478264 0.0037196213 -0.07133173 0.17337508 0.035129942
-0.33773994 0.73440254 0.10759392 -0.025527555 0.09275514 0.47316986 -0.00080216833 -0.28833875
0.0567111 -0.232993 0.134151 -0.04671865 -0.022405377 0.17087111 0.0043058735 -0.017774226
-0.058487937 -0.15596193 0.019404601 -0.03165662 -0.15298401 -0.086297385 0.082788 0.14754386
-0.25295076 -0.087407604 0.086665034 -0.35993418 -0.08866232 0.08081086 -0.015545799 -0.025007071
0.3237211 -0.065443635 -0.27422723 0.23909824 0.09918246 -0.047952965 0.50153947 0.032205865
-0.08936293 -0.0008694594 0.12889251 -0.4149764 -0.027486077 0.2635997 -0.0016790611 -0.3842168
-0.69223106 0.008209056 0.008517845 0.025031582 -0.45290974 -0.035295144 0.043023057 0.031956516
00000000: 3a42 963d 73b1 a4be 7926 893d 4aea 4f3e
00000010: e2e8 13bd e086 dcbd 26fd 97bb 4ebc 7f3e
00000020: e4fe fbbd d75b 223e 3f92 483d bb19 1ebe
00000030: c794 dc3d 2a3d f53b b0d6 d43c 749d 0fbd
00000040: 2859 0f3f e4b4 8bbe 3a40 d73d 5e50 81bd
00000050: 1e74 dd3d da9f 5f3f 5f7a aa3d 047f 313d
00000060: d7f2 613d 1559 9fbc 20c8 393c 6f9d 33bb
00000070: adc3 38bb 16bb e53d 8d76 253c 55b6 d8bd
00000080: 0a1e 46bd 2a8c 2d3e ff38 97be b5bd c1be
00000090: fe65 29bc 4a08 6d3e 2a10 683c db56 8c3c
000000a0: c174 893c 178c edbc deaa 90be 0c77 893d
000000b0: 7623 993c e547 6bbe f772 d63d 7da8 a03d
000000c0: a4ae e9b9 c975 e63a e5bb 99be 6d31 e7be
000000d0: cb90 92bd d4f4 9b3c 937b 513c 1da5 b5be
000000e0: 3dee 743f 49e4 363b fe62 ce3d 74ad da3b
000000f0: 5e6e 0dbe 85dc bbbc 9ffa bbbd b811 fa3d
00000100: c544 3f3e 0762 243d fffa e0bd 92e5 a13d
00000110: 0e52 3bbd 485c 703e ca33 efbd 5e85 813b
00000120: 3841 b33c 7fea ac3c f9c8 843e 755b 3f3d
00000130: 445c 24be c8c9 713d c45e e03e 9a46 25be
00000140: 2ac1 bf3d a2bd b23d dc28 d63d d269 04bd
00000150: 23a7 6dbe 043c e73d c6c0 8cbd 720e 833e
00000160: fd47 0e3f bb05 f43c 6d59 123e 7fd7 343e
00000170: f4a0 3bbe c4f3 1d3e 8da2 cebd f7d2 5a3c
00000180: d305 aabd 88bf 9d3c 5de0 193d 6d63 e1bd
00000190: 6a47 ef3e 06fd 4cbe 326f c3be 767c a3bc
000001a0: a459 54bd 85b6 28be 71db d93a e26a b8bd
000001b0: 937c 0a3e a927 3b3e f260 093c da48 2bbe
000001c0: 7ebf 89bd f979 3d3e 49b1 023a 790f cd3d
000001d0: a264 d0bd 9e75 d2bd 725c 483c ca9d 2d3e
000001e0: c7f8 413e 4499 bc3e 3ca9 8cbe d948 e1bc
000001f0: 3fb5 803d dc0e 893d b608 00bf 3cd4 3a3d
00000200: ac58 0fbf 9333 7bbd e7d1 25bd 3e8e c1be
00000210: d768 debc 07d5 9abe 266f dcbc 6c95 fdba
00000220: 653b d3be bda8 4d3c 30b2 5abd 063a ce3b
00000230: 4f9d d1be e3dd df3c 94ad 86be ed8b 35be
00000240: 5ca9 95bd 1905 573d e108 e0be dd5f b0bd
00000250: 2167 db3d cda6 f3bd 0bbd bfbe 9040 0cbf
00000260: 655d bcbd b15a 24be a988 2cbe 626d 4b3a
00000270: d3bb cbbd 5307 5abe 52c1 5bbe 0d4d d2be
00000280: 49ff 62be b4ab aebd 1447 9e3d f0ba b1bb
00000290: fb5b 27be 4454 c6bd 53bb 85be 0793 ecbe
000002a0: 07b2 7c3c b3c6 903d fb70 4f3d f040 92bd
000002b0: 2dee 87be 0475 cfbd a491 ae3b 43ea 75be
000002c0: c0d8 9abe 3f36 81bd c143 9e3c 3833 08be
000002d0: 2363 edbd ec5e d0ba 2bc8 7dbe c204 9ebd
000002e0: fe24 babd a13c 3c3e 55e8 c2be 11d2 9abd
000002f0: 9c22 dfbd dda4 083d 4e27 443e e1f5 79be
00000300: 82c0 4fbd 7fe0 55be 04f8 1c3e fd04 d83d
00000310: e4c4 733b 5f16 92bd 3d89 313e 6ae4 0f3d
00000320: 40ec acbe ce01 3c3f 335a dc3d 2a1f d1bc
00000330: 68f6 bd3d 5243 f23e 9b48 52ba 23a1 93be
00000340: e649 683d b895 6ebe e15e 093e 0e5c 3fbd
00000350: 7b8b b7bc d6f8 2e3e 4918 8d3b 419b 91bc
00000360: 0c91 6fbd 7cb4 1fbe 66f6 9e3c 5faa 01bd
00000370: d7a7 1cbe afbc b0bd c18c a93d bd15 173e
00000380: c382 81be c202 b3bd 707d b13d 4b49 b8be
00000390: 9794 b5bd 2a80 a53d cfb3 7ebc a1db ccbc
000003a0: c6be a53e 5007 86bd 8367 8cbe 2bd6 743e
000003b0: 2c20 cb3d 546a 44bd e464 003f 4cea 033d
000003c0: e903 b7bd 6fec 63ba 66fc 033e c977 d4be
000003d0: 7b2a e1bc 8af6 863e f113 dcba 10b8 c4be
000003e0: 0e36 31bf 477f 063c 6e8e 0b3c 080f cd3c
000003f0: c9e3 e7be a491 10bd f238 303d d6e4 023d

layers.8.bias f4 [128]
0.26720193 -0.9110554 -0.31525683 -0.15379971 -0.40756756 0.3106648 -0.5058355 -0.9037338
-0.050400294 -0.038619928 -0.09749166 -0.35231343 -0.04917774 0.11690605 -0.3513675 -0.8117382
-0.27493513 0.0673115 0.082359955 -0.22092703 -0.36013138 0.11903133 -0.24507062 -0.09795758
-0.41505927 0.13953027 -0.54254466 0.053329457 -0.052123632 -0.45718682 -0.26584068 -0.07119197
-0.970513 -0.16430552 -0.122240975 -0.5379954 -0.21492195 -0.20215589 0.4463028 0.50886035
-0.24541385 0.19659999 -0.048557077 -1.0962955 -0.30192608 -0.835554 -0.5144901 0.1433425
-0.3303684 0.27168038 -0.20099287 -0.19232497 -0.18030696 -0.48725525 -0.022303466 0.15290938
-0.22939937 -0.9083919 0.17074816 -0.43844518 0.0793555 -0.28882173 0.6552125 -0.058474325
-0.90613323 -0.552614 -0.15867591 -0.51622945 -0.01855169 -0.22379164 -0.2910959 -0.0827714
0.4037765 0.07379507 -0.015795182 -0.57560587 -0.396787 -0.19640675 -0.7190119 -0.06057405
-0.18768935 -0.4418604 -0.39337 -0.055172708 -0.65302485 -0.7726002 -0.05014174 0.1855274
-0.56383234 -0.020473639 0.23783877 -0.95703226 -0.75921535 -0.4770544 -0.18388237 0.46882445
0.4890609 -0.8412625 -0.3619753 -0.27730614 0.0070492686 0.36202428 -0.52038413 -0.21406546
0.085395165 0.1306682 -0.5360873 -1.3955177 -0.01461052 0.06549772 -0.26127872 -0.58125347
-0.64527285 -0.7764034 -0.55372596 0.51396096 -0.007829132 -0.5045579 -0.81775177 0.13843781
-0.12515078 -0.5271512 0.014970397 -0.018891143 -0.6359398 -0.4743418 0.13124266 -0.06467426
00000000: b1ce 883e ed3a 69bf 5869 a1be ac7d 1dbe
00000010: b2ac d0be 750f 9f3e 6f7e 01bf 195b 67bf
00000020: 8a70 4ebd ee2f 1ebd b5a9 c7bd 6d62 b4be
00000030: 996e 49bd 706c ef3d 71e6 b3be 13ce 4fbf
00000040: 4cc4 8cbe 9dda 893d 56ac a83d b23a 62be
00000050: 2463 b8be b3c6 f33d cbf3 7abe fc9d c8bd
00000060: a682 d4be 06e1 0e3e 35e4 0abf fd6f 5a3d
00000070: 977f 55bd 6414 eabe 451c 88be 18cd 91bd
00000080: 8a73 78bf b53f 28be 7a59 fabd 11ba 09bf
00000090: 8014 5cbe f401 4fbe cd81 e43e ac44 023f
000000a0: c54d 7bbe 8251 493e c9e3 46bd 6953 8cbf
000000b0: 0e96 9abe dee6 55bf a0b5 03bf 60c8 123e
000000c0: 0c26 a9be b119 8b3e 13d1 4dbe d6f0 44be
000000d0: 63a2 38be 8579 f9be c2b5 b6bc 4794 1c3e
000000e0: abe7 6abe 5f8c 68bf 9bd8 2e3e e37b e0be
000000f0: 2385 a23d 71e0 93be 02bc 273f c682 6fbd
00000100: 59f8 67bf 1c78 0dbf f07b 22be 9d27 04bf
00000110: b7f9 97bc a329 65be 860a 95be 0d84 a9bd
00000120: cbbb ce3e df21 973d e664 81bc e85a 13bf
00000130: aa27 cbbe da1e 49be 2a11 38bf 7f1c 78bd
00000140: a331 40be 873b e2be cb67 c9be c7fc 61bd
00000150: a32c 27bf 20c9 45bf 6d61 4dbd e5fa 3d3e
00000160: 5157 10bf 55b8 a7bc 028c 733e 1100 75bf
00000170: f05b 42bf 7940 f4be a94b 3cbe c209 f03e
00000180: 3166 fa3e fb5c 57bf d454 b9be 12fb 8dbe
00000190: 8dfd e63b 3f5b b93e e537 05bf fa33 5bbe
000001a0: a9e3 ae3d e2cd 053e 043d 09bf 53a0 b2bf
000001b0: f660 6fbc ab23 863d 53c6 85be 07cd 14bf
000001c0: 9a30 25bf 60c2 46bf fcc0 0dbf f292 033f
000001d0: c245 00bc b52a 01bf 2e58 51bf a4c2 0d3e
000001e0: 8727 00be 62f3 06bf 6546 753c 99c1 9abc
000001f0: f3cc 22bf eedc f2be 7a64 063e f073 84bd

layers.11.weight f4 [128]
1.1355442 0.9423496 0.8143837 0.76470953 0.96862876 1.0412884 0.70307904 0.91609484
1.077743 0.96313834 0.83826584 0.76176727 0.8075669 0.98465556 0.9285354 0.9641686
0.75712013 0.8981531 1.0610025 0.908427 0.92522085 0.74524873 0.73891085 1.1546654
1.0240656 0.8636187 1.0285002 1.0725484 0.8140651 0.6321165 0.96547383 0.77704304
1.1440626 1.1985421 1.0071813 0.9559742 0.7791321 0.92968893 1.0920979 0.6882833
0.7895795 0.74515104 1.016509 1.0824155 0.6892947 0.881867 0.97915155 0.8309348
0.7692959 0.852883 0.9685579 0.8099547 0.8106044 0.8356023 0.84982365 0.97966063
0.97506183 1.0556368 0.7671109 0.89659667 0.9241095 0.8634014 1.0712888 0.89657164
0.88541645 0.6534404 1.1589973 0.73060364 0.8382345 0.9318402 0.7961853 0.7381558
1.1942 0.9270254 1.024861 0.7642443 0.71440345 0.81995636 1.0351774 0.91628677
1.1868929 0.7798306 0.7117527 1.1257907 0.8224508 0.9806677 0.77040267 0.9090751
0.95160294 0.8320755 1.3099384 1.04059 0.9942967 0.7403321 0.973411 0.7885102
0.97462654 0.8953415 0.70365626 0.81167454 0.9380107 1.1491979 0.72153443 0.89067215
0.88537014 0.8790265 0.81492466 1.2869493 0.83174884 0.8960923 0.8130095 1.1186951
0.96020424 0.8010797 0.8925434 0.74907285 0.7487352 0.86565006 1.0827792 0.8359558
1.1829922 0.7799972 0.91856223 0.8373992 0.7818037 0.94087046 0.9176759 0.89455676
00000000: 8359 913f d33d 713f 737b 503f 01c4 433f
00000010: 0ef8 773f f048 853f fdfc 333f 3185 6a3f
00000020: 7cf3 893f 3c90 763f 9798 563f 2e03 433f
00000030: b4bc 4e3f 6312 7c3f 7fb4 6d3f c1d3 763f
00000040: a0d2 413f 5ded 653f eece 873f ac8e 683f
00000050: 46db 6c3f 9fc8 3e3f 4329 3d3f 13cc 933f
00000060: 9514 833f 1d16 5d3f e5a5 833f 4449 893f
00000070: 9266 503f 63d2 213f 4b29 773f 4bec 463f
00000080: a570 923f d469 993f 51eb 803f baba 743f
00000090: 3475 473f 1800 6e3f ddc9 8b3f 5633 303f
000000a0: e221 4a3f 38c2 3e3f f81c 823f 978c 8a3f
000000b0: 9e75 303f 09c2 613f ada9 7a3f 25b8 543f
000000c0: 93f0 443f 8a56 5a3f 69f3 773f 3159 4f3f
000000d0: c583 4f3f 08ea 553f 0b8e 593f 0acb 7a3f
000000e0: a79d 793f 1b1f 873f 6161 443f 5c87 653f
000000f0: 7192 6c3f e007 5d3f fe1f 893f b885 653f
00000100: a7aa 623f df47 273f 065a 943f d708 3b3f
00000110: 8996 563f 148d 6e3f cdd2 4b3f c7f7 3c3f
00000120: 8cdb 983f 8951 6d3f a52e 833f 84a5 433f
00000130: 25e3 363f a9e8 513f b180 843f c591 6a3f
00000140: 1bec 973f faa2 473f 6d35 363f e919 903f
00000150: 238c 523f 0a0d 7b3f 1c39 453f 25b9 683f
00000160: 409c 733f e602 553f 10ac a73f 0e32 853f
00000170: 3b8a 7e3f 6886 3d3f 7731 793f cedb 493f
00000180: 2081 793f 1a35 653f d122 343f e7c9 4f3f
00000190: 7821 703f eb18 933f 7bb6 383f 1703 643f
000001a0: 9ea7 623f e107 613f e79e 503f c1ba a43f
000001b0: 7eed 543f 4e66 653f 6421 503f 6731 8f3f
000001c0: f2cf 753f 8f13 4d3f b97d 643f 3dc3 3f3f
000001d0: 1cad 3f3f 3e9b 5d3f 8298 8a3f 3301 563f
000001e0: 4a6c 973f e6ad 473f e526 6b3f cb5f 563f
000001f0: 4a24 483f e3dc 703f cfec 6a3f ac01 653f

layers.11.bias f4 [128]
-0.2601109 -0.04535622 0.32184654 -0.63284075 0.0915954 0.1174386 -0.0671692 -0.3509256
0.22697787 0.10931194 -0.2387449 0.1882062 -0.18441117 -0.0083813155 -0.1658755 -0.11970517
-0.5288086 -0.029688789 0.4647418 0.5801284 -0.42561957 0.9852856 0.4937661 0.07861096
-0.18677662 0.21588327 -0.2897604 0.30396324 -0.054217953 0.016134098 -0.18965614 -0.55489075
-0.14057763 0.29508454 -0.47868833 0.2769293 0.40579587 -0.48886663 -0.15592454 0.4268151
0.43443552 0.18907873 0.086021006 -0.41656014 0.043639906 0.01582925 -0.0048204777 0.2044287
0.3842665 0.45619854 0.14465374 0.16465352 0.6080322 -0.2804674 -0.20682023 -0.1661023
-0.17677136 0.14071336 0.25511202 -0.45817143 0.26786178 0.44683665 0.3615089 0.24427664
-0.0035359212 -0.23415735 0.0017552722 -0.16874243 0.33573252 0.5101802 -0.0038815874 -0.03820962
0.5616661 0.24919508 0.22350001 -0.06712551 0.046559434 0.3737258 -0.03974891 0.02540205
-0.0072252913 -0.8213955 -0.43330604 0.29098535 -0.56657743 0.5066568 0.50077885 0.5198017
-0.28690624 -0.062273327 0.3539783 -0.69769657 -0.24203171 -0.22187991 -0.028054416 0.7067865
0.41838506 -0.583961 -0.06717043 -0.11937935 -0.22057125 0.23044798 -0.17067802 0.2271612
0.26739207 -0.054301515 -0.18166433 0.32479337 0.69206196 -0.39750838 -0.5016092 -0.41023347
-0.53923684 -0.29352048 -0.19914764 0.20212142 0.49286255 -0.07279791 -0.5669289 0.22792615
0.115335725 -0.023235202 0.41143903 -0.42174175 -0.27054968 0.15265687 -0.272717 0.21513855
00000000: 422d 85be 72c7 39bd 12c9 a43e da01 22bf
00000010: 5e96 bb3d a683 f03d 0190 89bd 85ac b3be
00000020: e36c 683e f0de df3d 8b79 74be 20b9 403e
00000030: 48d6 3cbe c951 09bc 44db 29be fc27 f5bd
00000040: 0060 07bf e735 f3bc a3f2 ed3e 4b83 143f
00000050: cfea d9be ad3b 7c3f e9ce fc3e c8fe a03d
00000060: 5f42 3fbe 8110 5d3e 7a5b 94be 12a1 9b3e
00000070: a513 5ebd a82b 843c 3835 42be 520d 0ebf
00000080: 95f3 0fbe 5215 973e a316 f5be adc9 8d3e
00000090: 7ac4 cf3e ba4c fabe afaa 1fbe 8287 da3e
000000a0: 556e de3e db9d 413e c82b b03d 5f47 d5be
000000b0: c2bf 323d 58ac 813c 19f5 9dbb c255 513e
000000c0: 94be c43e db92 e93e 1c20 143e ef9a 283e
000000d0: 00a8 1b3f 6c99 8fbe afc8 53be b916 2abe
000000e0: 8d03 35be 2a17 103e 0b9e 823e 7295 eabe
000000f0: 2e25 893e c6c7 e43e b217 b93e a823 7a3e
00000100: eaba 67bb f2c6 6fbe 2911 e63a d1ca 2cbe
00000110: 22e5 ab3e 2b9b 023f 3b62 7ebb b181 1cbd
00000120: 59c9 0f3f ff2c 7f3e 30dd 643e 1979 89bd
00000130: 1bb5 3e3d fd58 bf3e c1cf 22bd f617 d03c
00000140: 23c2 ecbb fa46 52bf 4ada ddbe 08fc 943e
00000150: 380b 11bf 43b4 013f 0b33 003f b911 053f
00000160: 60e5 92be 5112 7fbd a53c b53e 3e9c 32bf
00000170: 29d7 77be 7d34 63be 60d2 e5bc f6ef 343f
00000180: 9136 d63e 787e 15bf a790 89bd 297d f4bd
00000190: 6edd 61be 8efa 6b3e 38c6 2ebe f29c 683e
000001a0: 9de7 883e 446b 5ebd 3706 3abe 514b a63e
000001b0: f92a 313f 3886 cbbe 7669 00bf 1f0a d2be
000001c0: 6d0b 0abf 5148 96be 5ced 4bbe ebf8 4e3e
000001d0: 7b58 fc3e 1217 95bd 4122 11bf 7965 693e
000001e0: 2335 ec3d c057 bebc 23a8 d23e 89ee d7be
000001f0: 7d85 8abe 1552 1c3e 90a1 8bbe 484d 5c3e

layers.11.running_mean f4 [128]
0.50405496 -0.018079398 0.11821323 -0.33374318 -0.05838727 0.65616465 -0.8119455 -0.13827592
0.67775387 -0.053616267 -0.07520092 -0.6010996 -0.13494267 0.65360624 -0.32359943 -0.32538065
-0.33674225 0.50865656 1.9832573 0.14489734 -0.14924796 0.6941224 -0.0051920447 0.30496177
0.097028874 0.56862617 0.19052833 0.28439572 -0.14772214 -0.80040354 0.5545835 -0.1816083
-0.4842828 0.6715925 -0.25413758 0.07304784 0.10140381 0.13032511 1.0353531 0.64975065
0.59380907 0.19975892 0.06629466 -0.83902794 -0.5036217 0.6897987 -0.80851096 0.43854004
0.0010947376 0.68324035 0.44354194 0.23753273 0.07319305 0.16380423 -0.3108628 0.08811119
-0.11683346 -0.11411692 0.22889665 0.5264662 0.8842634 0.08485314 0.44965464 0.27505755
0.58426684 -0.9017856 0.6134105 -0.80632246 0.9517389 0.17573723 0.06271374 -0.43320563
0.3505811 0.84023154 -0.004752214 -0.7708509 -0.30339426 -0.1790722 -0.041248117 0.15465567
0.36663565 -0.21663722 -0.83058393 1.106648 -0.57321507 -0.05227841 0.1327642 0.2889228
-0.3530044 0.1772506 1.0732968 -0.7368598 0.03564769 -0.8152672 0.15121567 1.2344375
0.9172035 -0.33350053 -0.7206515 -0.5104275 0.729329 2.3613253 -0.8273988 0.38323796
0.9818163 0.1421402 -0.09412056 0.046203274 0.7997743 0.36336216 -0.18249053 -0.4445035
0.28763863 -0.12656872 -0.38811243 0.7608218 0.11010899 -0.40689164 -0.7453208 1.2272145
0.2856751 -0.34870312 0.6060262 -0.2768866 -0.7734253 0.07357955 0.912674 0.0063012093
00000000: bf09 013f 3f1b 94bc c719 f23d 63e0 aabe
00000010: 7d27 6fbd 68fa 273f a9db 4fbf 3498 0dbe
00000020: 4781 2d3f bb9c 5bbd f102 9abd aae1 19bf
00000030: 692e 0abe bd52 273f d3ae a5be 4b98 a6be
00000040: 7b69 acbe 5137 023f 60db fd3f f85f 143e
00000050: 75d4 18be 01b2 313f 0722 aabb f323 9c3e
00000060: 13b7 c63d 7c91 113f dc19 433e 519c 913e
00000070: 7944 17be 3fe7 4cbf 2ff9 0d3f 87f7 39be
00000080: eaf3 f7be 7ced 2b3f 521e 82be 1b9a 953d
00000090: cdac cf3d f273 053e 7386 843f 0f56 263f
000000a0: df03 183f 9a8d 4c3e 7fc5 873d 89ca 56bf
000000b0: 5aed 00bf a696 303f 93fa 4ebf 5288 e03e
000000c0: 4c7d 8f3a d7e8 2e3f ee17 e33e c83b 733e
000000d0: 3de6 953d 4cbc 273e 6929 9fbe a473 b43d
000000e0: 6246 efbd 22b6 e9bd e263 6a3e 7dc6 063f
000000f0: 165f 623f 7cc7 ad3d 2239 e63e 58d4 8c3e
00000100: 8392 153f 6cdb 66bf 7808 1d3f 266b 4ebf
00000110: 29a5 733f 76f4 333e 1070 803d 21cd ddbe
00000120: 5e7f b33e 6a19 573f 76b8 9bbb 7c56 45bf
00000130: 7e56 9bbe b45e 37be c9f3 28bd 0e5e 1e3e
00000140: abb7 bb3e 26d6 5dbe 26a1 54bf a4a6 8d3f
00000150: 39be 12bf e321 56bd 57f3 073e b0ed 933e
00000160: febc b4be 2e81 353e ca61 893f d8a2 3cbf
00000170: 5003 123d 5ab5 50bf 48d8 1a3e 0c02 9e3f
00000180: d9cd 6a3f 95c0 aabe 9e7c 38bf 60ab 02bf
00000190: 4eb5 3a3f f41f 1740 68d0 53bf c437 c43e
000001a0: 5058 7b3f 338d 113e 48c2 c0bd a53f 3d3d
000001b0: 02be 4c3f 9b0a ba3e ccde 3abe f695 e3be
000001c0: 5f45 933e 3b9b 01be acb6 c6be 38c5 423f
000001d0: d280 e13d 1a54 d0be 58cd 3ebf 5d15 9d3f
000001e0: 0244 923e 3789 b2be 8824 1b3f 15c4 8dbe
000001f0: 33ff 45bf e0b0 963d 01a5 693f 607a ce3b

layers.11.running_var f4 [128]
6.5769653 1.5344504 1.3264611 1.3600308 1.0853219 4.397452 2.2731056 0.45866126
5.2755837 3.9087462 3.7107897 2.9320168 0.6298556 2.0993526 2.2607727 1.0823965
1.8932546 5.330426 2.9356422 1.7804167 2.3991432 3.056664 1.6929545 3.9640844
1.1263022 4.172515 2.6723406 6.048077 4.085359 2.7540457 4.585815 1.5513139
0.4469817 5.4966884 4.034452 2.0744157 1.8113875 2.1949103 2.6670182 5.502285
3.9507816 2.8732753 1.4450716 0.61619246 3.0896537 3.4189684 2.1821682 4.5010467
0.7852833 2.5894837 6.518969 5.5913725 4.760798 1.2008841 2.3986526 1.0344859
2.0105958 1.1159513 6.436541 2.4000938 6.698532 1.752591 5.4249935 1.1685861
2.968636 1.9090112 5.9642053 1.3211696 6.0643373 1.5636977 3.9946482 1.3290285
5.8884983 6.3816566 4.3483343 1.1427284 0.4743358 1.8442743 1.2734408 0.9160902
4.5643287 3.0036209 2.1600049 3.040616 1.834214 1.5930617 4.3510857 1.6326671
0.93512005 1.3810102 2.365344 0.81583625 1.8632708 1.7223713 2.599573 7.716407
2.779868 1.2206529 2.9043589 1.1863853 4.679882 3.581967 1.6670831 4.1738915
6.672204 5.7434807 4.0196624 1.5041019 3.776583 4.5660133 2.819385 0.65618455
1.6896126 0.74120444 0.6612462 6.984112 2.9065788 1.3089112 0.9090031 7.738413
2.3776343 1.0426525 3.6573424 0.63651097 1.1634808 1.7524612 6.0681744 3.9233148
00000000: 8076 d240 df68 c43f 7ac9 a93f 7d15 ae3f
00000010: d4eb 8a3f edb7 8c40 907a 1140 a6d5 ea3e
00000020: 95d1 a840 e628 7a40 947d 6d40 2aa6 3b40
00000030: 373e 213f cb5b 0640 80b0 1040 f88b 8a3f
00000040: 2b56 f23f da92 aa40 90e1 3b40 b2e4 e33f
00000050: 908b 1940 62a0 4340 bcb2 d83f 8fb3 7d40
00000060: ac2a 903f 3e85 8540 a107 2b40 d989 c140
00000070: 43bb 8240 4942 3040 ffbe 9240 7491 c63f
00000080: c9da e43e dfe4 af40 3b1a 8140 3ac3 0440
00000090: 8cdb e73f 6979 0c40 6db0 2a40 b812 b040
000000a0: 9bd9 7c40 bee3 3740 1bf8 b83f cabe 1d3f
000000b0: e3bc 4540 61d0 5a40 a5a8 0b40 9308 9040
000000c0: 5408 493f 1aba 2540 659b d040 86ec b240
000000d0: 7558 9840 92b6 993f 8683 1940 096a 843f
000000e0: 9aad 0040 7ed7 8e3f 25f8 cd40 239b 1940
000000f0: 605a d640 e754 e03f 8c99 ad40 3b94 953f
00000100: 22fe 3d40 7b5a f43f c5da be40 161c a93f
00000110: 0d0f c240 3f27 c83f 51a8 7f40 9b1d aa3f
00000120: 946e bc40 8836 cc40 8e25 8b40 ed44 923f
00000130: 24dc f23e 2e11 ec3f 1c00 a33f e384 6a3f
00000140: fb0e 9240 533b 4040 853d 0a40 7499 4240
00000150: 86c7 ea3f 72e9 cb3f 183c 8b40 3cfb d03f
00000160: 0764 6f3f f1c4 b03f cc61 1740 a5da 503f
00000170: a87f ee3f aa76 dc3f 675f 2640 ceec f640
00000180: 5be9 3140 5b3e 9c3f 04e1 3940 79db 973f
00000190: 98c1 9540 f33e 6540 fb62 d53f 8590 8540
000001a0: b282 d540 98ca b740 13a1 8040 6986 c03f
000001b0: 89b3 7140 c81c 9240 ce70 3440 b6fb 273f
000001c0: 3a45 d83f 93bf 3d3f 6e47 293f d87d df40
000001d0: 6305 3a40 678a a73f 6db4 683f 14a1 f740
000001e0: 292b 1840 a375 853f e611 6a40 62f2 223f
000001f0: f0ec 943f a650 e03f 7c2e c240 9717 7b40
