cushion/h2_cushion_rom.pt (torch, 106659 bytes, 38 tensors)

layers.0.weight f4 [32, 12]
0.19778965 -0.19587944 -0.27118915 0.011749095 0.16169304 0.18235281 0.06904982 0.14326859
0.2881902 -0.01627061 -0.12332082 0.28134713 0.1630176 0.030893512 -0.16743684 0.19795619
-0.071501315 0.33084622 -0.023796218 -0.24942967 -0.035704046 5.492342e-08 0.0054391394 -0.0536761
-0.11464997 -0.029104376 -0.15029806 0.021297716 0.119660355 0.019931909 -0.058782715 0.0064767427
0.22047879 5.842264e-05 0.029002454 0.08802763 0.009402327 -0.13978566 0.15653208 0.14989865
0.1862709 0.14759801 0.12119945 0.1648138 -0.12615731 0.010533763 0.019212624 -0.15459692
-0.034235757 0.22928369 -0.032796975 -0.19772539 0.05990827 -0.16319968 -0.029884934 0.0915069
0.30455047 -0.07884352 -0.23297949 -0.14406417 -0.24101827 0.04539072 -0.21970198 -0.034718342
-0.041368417 0.29124555 -0.24977016 0.21531564 0.133847 0.055487666 -0.0826326 0.25834188
-0.14803277 -0.20204656 -0.24795033 0.25252944 -0.017466672 0.08879124 0.015648365 0.25771898
-0.25191766 0.0007105319 0.25419325 0.1439405 -0.1085601 0.16205898 0.23750414 -0.05858908
0.26340753 -0.29734492 -0.06580165 0.22740269 0.1405808 -0.048665345 -0.06656722 0.009197301
0.18593626 -0.04177495 0.13804455 -0.13560744 -0.093272984 -0.15646964 0.099986725 0.015852552
0.1318154 0.010204972 0.016780201 0.2406197 0.051158506 -0.23707537 0.016700814 0.056691214
0.2162687 0.0609338 -0.15559807 -0.18419997 0.26261818 -0.045074143 -0.0060661347 -0.24206063
-0.10435721 0.06396182 -0.03487306 0.037065536 0.19799548 -0.068051696 0.07738789 0.13454702
-0.28761372 -0.00014343436 0.16022827 0.3059288 -0.21659982 0.054627776 -0.048120644 0.28714356
0.24940704 -0.25131255 -0.17184137 0.28423184 0.074573 -0.009720535 -0.2511379 -0.17502569
0.20446825 -0.08060082 0.062694535 -0.022346592 0.10052313 -0.24395901 -0.017142912 -0.025956256
0.14068928 -5.8347265e-05 -0.10095166 0.25050372 -0.0022408986 0.2464954 0.11897369 0.23686758
0.0008711746 0.102038965 0.21624021 0.21154712 0.053428475 0.044574294 -0.29921895 0.038121145
-0.19135684 -0.16960445 0.049902316 0.2563523 0.20489398 -0.050816018 -0.18080893 0.030900253
0.23289356 0.0725854 -0.14196377 0.044246 -0.20765312 0.1241785 0.073898114 0.26443657
0.27574262 -0.084983304 -0.27218857 -0.08802098 0.089219354 4.595272e-08 0.23495893 -0.07128483
0.06796417 -0.23023029 0.21940027 -0.18603522 -0.040147968 0.0046409178 -0.12612589 -0.06799232
0.28497097 2.3170207e-08 0.121750854 -0.11881455 0.118838094 0.1841645 0.17456429 0.019391328
0.24188419 0.18608662 0.079579696 -0.13807641 0.18214294 6.6328615e-10 -0.16249458 -0.050155442
0.050216105 -0.057719372 0.17912401 -0.013043266 0.054529853 0.19302839 0.12924276 0.16705012
-0.040904824 7.3441164e-08 -0.13516542 0.28494135 0.05800085 0.17107636 -0.043804023 -0.07473368
-0.08526729 0.24328528 0.16169737 -0.096575975 0.27453938 2.3897393e-08 0.21591265 -0.0961435
0.05436861 0.28573206 -0.116047055 -0.08715462 0.19213901 0.028355306 -0.14519714 0.27091607
-0.023280157 -0.009918926 -0.014849062 -0.25835502 0.21219973 0.10105549 -0.21763691 -0.101801224
00000000: 5f89 4a3e 9f94 48be 4ed9 8abe 477f 403c
00000010: dc92 253e b2ba 3a3e fe69 8d3d 00b5 123e
00000020: aa8d 933e f149 85bc a08f fcbd bb0c 903e
00000030: 16ee 263e 6414 fd3c 9074 2bbe 07b5 4a3e
00000040: 486f 92bd ad64 a93e 49f0 c2bc 7e6a 7fbe
00000050: 683e 12bd f0e4 6b33 cf3a b23b 78db 5bbd
00000060: 9acd eabd 4d6c eebc bce7 19be 8c78 ae3c
00000070: 7d10 f53d 3e48 a33c 25c6 70bd db3a d43b
00000080: 31c5 613e d50a 7538 8e96 ed3c d447 b43d
00000090: 380c 1a3c f923 0fbe f249 203e 087f 193e
000000a0: ccbd 3e3e ef23 173e 6b37 f83d f3c4 283e
000000b0: 622f 01be ce95 2c3c cb63 9d3c a84e 1ebe
000000c0: cb3a 0cbd 58c9 6a3e 1f56 06bd 8678 4abe
000000d0: 6062 753d d11d 27be 40d1 f4bc f867 bb3d
000000e0: 0aee 9b3e b678 a1bd 2d92 6ebe 8f85 13be
000000f0: 7ecd 76be 9feb 393d 8ef9 60be d234 0ebd
00000100: ee71 29bd 231e 953e c0c3 7fbe b47b 5c3e
00000110: 300f 093e 0947 633d 483b a9bd 6345 843e
00000120: e795 17be 4be5 4ebe b1e6 7dbe 8a4b 813e
00000130: 4416 8fbc 2ed8 b53d 0031 803c bef3 833e
00000140: 5afb 80be fd42 3a3a 9e25 823e 2365 133e
00000150: c254 debd caf2 253e 4934 733e 1afb 6fbd
00000160: 5add 863e 983d 98be 04c3 86bd 40dc 683e
00000170: 6af4 0f3e 5055 47bd 6554 88bd 47b0 163c
00000180: 1366 3e3e 361c 2bbd 8d5b 0d3e addc 0abe
00000190: e805 bfbd 9439 20be d7c5 cc3d 36dd 813c
000001a0: 9efa 063e c132 273c a276 893c 0365 763e
000001b0: 958b 513d e3c3 72be 25d0 883c 0c35 683d
000001c0: 8b75 5d3e b895 793d 1a55 1fbe eb9e 3cbe
000001d0: e475 863e aa9f 38bd 6dc6 c6bb bede 77be
000001e0: 3cb9 d5bd 6afe 823d 0ed7 0ebd 08d2 173d
000001f0: 54bf 4a3e b05e 8bbd 8b7d 9e3d b2c6 093e
00000200: 1b42 93be de66 16b9 e112 243e b3a2 9c3e
00000210: 58cc 5dbe 60c1 5f3d 271a 45bd 7b04 933e
00000220: 8f64 7f3e 0aac 80be 2ff7 2fbe d686 913e
00000230: bbb9 983d e142 1fbc 2695 80be ef39 33be
00000240: 2060 513e 0b12 a5bd fe65 803d 3310 b7bc
00000250: 12df cd3d 64d0 79be 4b6f 8cbc 37a2 d4bc
00000260: da10 103e e6b9 74b8 bebf cebd 0642 803e
00000270: 0adc 12bb 4a69 7c3e 7aa8 f33d 6a8d 723e
00000280: 8a5f 643a cef9 d03d 136e 5d3e cf9f 583e
00000290: d1d7 5a3d 8993 363d 3a33 99be eb24 1c3d
000002a0: 0cf3 43be caac 2dbe 5f66 4c3d 9c40 833e
000002b0: bacf 513e 7524 50bd fa25 39be 8722 fd3c
000002c0: a67b 6e3e a7a7 943d f35e 11be 4b3b 353d
000002d0: 05a3 54be 4c51 fe3d e557 973d 3b64 873e
000002e0: 232e 8d3e ba0b aebd 4d5c 8bbe 5844 b4bd
000002f0: a3b8 b63d 8d5d 4533 1399 703e c8fd 91bd
00000300: cc30 8b3d 7dc1 6bbe 77aa 603e 0480 3ebe
00000310: 3272 24bd d712 983b 2527 01be 8f3f 8bbd
00000320: b7e7 913e d307 c732 8358 f93d 0b55 f3bd
00000330: 6361 f33d 9e95 3c3e fbc0 323e 90da 9e3c
00000340: 7db0 773e 7e8d 3e3e aefa a23d e763 0dbe
00000350: ae83 3a3e 9d52 3630 fb64 26be cb6f 4dbd
00000360: 67af 4d3d 266b 6cbd 496c 373e 6cb3 55bc
00000370: b25a 5f3d 3ca9 453e 3758 043e 300f 2b3e
00000380: d18b 27bd b5b6 9d33 ce68 0abe d5e3 913e
00000390: 4d92 6d3d a42e 2f3e d96b 33bd f90d 99bd
000003a0: 9ea0 aebd c71f 793e ff93 253e a0c9 c5bd
000003b0: 6d90 8c3e ec46 cd32 3518 5d3e e2e6 c4bd
000003c0: 9fb1 5e3d 794b 923e 14aa edbd 1f7e b2bd
000003d0: 17c0 443e 6349 e83c 8fae 14be 83b5 8a3e
000003e0: 07b6 bebc fe82 22bc 7b49 73bc 1c47 84be
000003f0: e34a 593e 2ef6 ce3d 36dc 5ebe 297d d0bd

layers.0.bias f4 [32]
0.12008953 -0.022587584 -0.1216013 -0.09383881 0.008095466 -0.19594486 0.021631077 -0.31011328
-0.022779737 0.10839931 0.14387113 -0.22671041 -0.15155415 0.11661591 -0.09401555 -0.0041375416
0.121091634 0.089527875 0.007121685 -0.12137109 -0.108112074 0.10030351 -0.22805479 0.2069863
0.24414162 -0.15029624 -0.15938146 -0.0701469 0.07786258 -0.044291444 0.19190611 -0.033775896
00000000: 80f1 f53d 9909 b9bc 1a0a f9bd 902e c0bd
00000010: d8a2 043c c5a5 48be a833 b13c 2bc7 9ebe
00000020: 929c babc 7500 de3d f452 133e c626 68be
00000030: 0331 1bbe 52d4 ee3d 3a8b c0bd 3794 87bb
00000040: e4fe f73d 645a b73d 065d e93b 6891 f8bd
00000050: dd69 ddbd ed6b cd3d 3287 69be 37f4 533e
00000060: 4300 7a3e 42e7 19be e534 23be 2ea9 8fbd
00000070: 6b76 9f3d f26a 35bd 0983 443e 9858 0abd

layers.3.weight f4 [32]
0.96817666 0.9779927 1.0201735 0.98211014 1.0382702 0.99356025 1.0003271 0.9680822
1.0097531 1.0139306 0.96302474 0.9925816 1.0212748 0.9837869 0.9887357 0.9988152
0.99488467 1.0026 1.0237639 1.001123 1.0162985 1.0041951 1.000303 0.98531026
1.0214156 0.9506547 1.0100518 0.9951729 1.0347605 0.99933285 1.0235327 0.98379683
00000000: 6dda 773f bb5d 7a3f 0c95 823f 926b 7b3f
00000010: 0ae6 843f f759 7e3f b80a 803f 3cd4 773f
00000020: 973f 813f 7ac8 813f ca88 763f d419 7e3f
00000030: 22b9 823f 75d9 7b3f c81d 7d3f 5ab2 7f3f
00000040: c3b0 7e3f 3255 803f b20a 833f cc24 803f
00000050: 1216 823f 7789 803f ee09 803f 4b3d 7c3f
00000060: bfbd 823f 1b5e 733f 6149 813f a7c3 7e3f
00000070: 0873 843f 47d4 7f3f 1f03 833f 1cda 7b3f

layers.3.bias f4 [32]
0.01128734 0.00808336 -0.017219642 -0.014767066 -0.031927433 0.00903356 -0.015585904 -0.0076165865
-0.01973763 -0.020006813 0.017388318 -0.012225628 0.018168528 0.0057174237 0.01773973 0.00064111187
0.014464928 0.0017502159 0.023575645 -0.025089143 -0.012996946 0.0017933565 0.028672934 -0.00092694216
0.041982036 -0.03332971 0.025286175 0.019404687 -0.01731441 0.009730176 -0.010562866 -0.021361826
00000000: 89ee 383c 1270 043c 3510 8dbc 90f1 71bc
00000010: 57c6 02bd 7f01 143c 055c 7fbc 8f94 f9bb
00000020: cfb0 a1bc 54e5 a3bc f271 8e3c 004e 48bc
00000030: 2ad6 943c 3a59 bb3b e952 913c 4a10 283a
00000040: 4efe 6c3c 8067 e53a b621 c13c bf87 cdbc
00000050: 25f1 54bc 0f0f eb3a 80e3 ea3c 09fe 72ba
00000060: 5bf5 2b3d bc84 08bd f424 cf3c 94f6 9e3c
00000070: f3d6 8dbc 516b 1f3c df0f 2dbc fffe aebc

layers.3.running_mean f4 [32]
0.485162 0.07536962 -0.009911886 0.17603458 0.015466523 -0.04011366 0.1347662 -0.0040236777
0.17763859 0.04370596 0.4177033 -0.09912114 0.021732094 0.55455166 0.017090404 0.1852909
0.09955794 0.48849946 0.4047191 0.24577819 0.022972507 -0.057798382 0.0034207655 -0.044340506
0.641915 0.60092294 -0.08673782 -0.05013878 -0.12201169 0.11118819 0.2037507 -0.15855145
00000000: 2767 f83e 635b 9a3d 7765 22bc 6942 343e
00000010: 4d67 7d3c 394e 24bd 2700 0a3e 0ed9 83bb
00000020: e4e6 353e 0505 333d 35dd d53e 0600 cbbd
00000030: 8107 b23c 19f7 0d3f 2d01 8c3c e6bc 3d3e
00000040: 09e5 cb3d 9a1c fa3e 5837 cf3e 47ad 7b3e
00000050: d730 bc3c ffbd 6cbd ec2e 603b 649e 35bd
00000060: 8b54 243f 16d6 193f 99a3 b1bd 525e 4dbd
00000070: 44e1 f9bd a2b6 e33d 06a4 503e 505b 22be

layers.3.running_var f4 [32]
0.073537685 0.016773142 0.002813905 0.021371134 0.015204016 0.009504132 0.039177306 0.012047581
0.020323535 0.013835558 0.06131933 0.008161761 0.010058129 0.07792776 0.013729333 0.030550184
0.015657296 0.057334855 0.04154784 0.024744231 0.012101892 0.004052334 0.013775224 0.0058445306
0.09829797 0.061510433 0.0041166013 0.0032257088 0.0056152493 0.030947354 0.03361793 0.0060810293
00000000: ed9a 963d d467 893c 7e69 383b 8412 af3c
00000010: 441a 793c 38b7 1b3c 6278 203d 3863 453c
00000020: 8b7d a63c 89ae 623c fa29 7b3d e8b8 053c
00000030: daca 243c 9798 9f3d fff0 603c 6144 fa3c
00000040: bb43 803c f4d7 6a3d 112e 2a3d 6ab4 ca3c
00000050: 0447 463c 71c9 843b 7ab1 613c 7a83 bf3b
00000060: 7250 c93d 5df2 7b3d 8ee4 863b 6a66 533b
00000070: 2000 b83b 4e85 fd3c f4b2 093d 5f43 c73b

layers.4.weight f4 [64, 32]
-0.12036454 -0.13807482 0.18713124 -0.111825965 0.047958214 0.11419009 0.07683423 -0.050052583
0.034678504 -0.10883608 -0.094250575 0.10743203 -0.10547293 -0.18325056 0.059317444 0.0025892104
-0.10655339 -0.04491288 -0.010375879 0.071952455 -0.14211576 -0.1333461 0.15291275 -0.028035242
-0.004302079 0.14622197 0.023328396 0.05402518 -0.077471405 0.10576328 -0.045433618 -0.18525255
-0.012131804 0.07925369 0.07787716 0.07429082 -0.017612906 -0.15509658 -0.12917252 -0.16250423
0.084879935 0.1359927 -0.1260233 -0.054304957 -0.16622816 -0.113024004 0.1455482 -0.15337116
0.11362458 -0.009331649 0.14962748 0.069277175 0.07816588 0.057076648 -0.008765706 0.049576283
-0.119517736 0.05282732 0.13107589 -0.14502557 -0.15329376 0.024675405 0.013995042 -0.027262555
-0.095268264 -0.060068708 0.006584434 0.100091815 0.13658816 0.10164711 -0.12772742 -0.015820377
0.07054107 -0.038436376 0.05481073 0.14845163 0.13278848 -0.10077102 0.15123203 0.05489112
-0.050886273 -0.06372421 0.027525341 -0.085110195 -0.15080164 -0.16675329 0.022595502 -0.010292036
0.1762612 -0.10962304 -0.032522842 0.0009818563 -0.06337163 0.120145045 -0.17389725 -0.1622184
0.02523789 0.066187456 0.020216424 -0.03733383 0.10672713 -0.15966077 0.016780147 0.016441094
-0.09496632 -0.13588673 0.04323459 -0.05285871 0.13490994 -0.09961055 0.008435034 -0.0809704
-0.14555112 0.18397751 -0.17092375 0.02277456 -0.08934293 0.122615404 -0.16741918 0.021979608
-0.10103937 0.13259436 0.06668933 -0.11952598 0.1981006 0.038954277 0.08357059 -0.077474594
0.14616899 0.06745829 -0.11485604 0.1212863 0.14068365 -0.051320307 -0.1739344 -0.03130929
-0.0051795766 -0.04558399 -0.045889713 -0.13856375 -0.08480847 0.013759782 0.08445534 0.14464144
-0.03974483 0.12581928 0.1482187 0.050713856 0.066043496 0.19318783 0.0024446636 -0.1373965
-0.16335885 -0.014612747 -0.059265137 -0.059967663 -0.1251299 -0.07584023 0.14314705 0.04047454
-0.1546037 -0.15209417 0.14229128 -0.14014232 0.16044658 0.16399989 -0.16742896 -0.068581656
-0.07929544 -0.11853431 -0.10952937 0.14872833 -0.05310539 -0.090476714 -0.08050949 0.024821894
-0.0024998777 0.09668595 0.14129023 -0.026594516 -0.16419686 -0.06384115 0.018593462 -0.061142813
0.10729608 -0.1561914 -0.035582155 0.030623818 -0.008948769 0.17037126 0.08976428 0.037537068
-0.0033888011 -0.13206796 -0.17508635 0.09314222 -0.15082218 -0.048437387 0.04730105 0.10659485
-0.15530297 0.042138048 -0.18064776 -0.08476637 0.113878615 0.011351899 0.0061376086 0.041362617
0.119644284 -0.05286476 -0.11042722 0.13931128 0.07475581 0.025692394 -0.00547413 -0.09891029
0.116550185 -0.086031035 0.052185 0.17076327 0.116315715 0.064986266 -0.1036683 -0.08144544
0.024489198 0.17333005 -0.033950478 -0.039663963 0.15443361 -0.11528982 0.13824372 -0.07400148
-0.10635346 -0.004593273 0.064193085 0.16081105 -0.17304349 -0.16770177 -0.048750103 -0.017253969
0.10451864 0.01786315 -0.14194253 -0.10161642 0.13855721 -0.10588286 -0.016593315 -0.016830778
0.02942145 -0.0090849595 0.01225796 0.07797993 0.102733515 0.036010344 -0.0973142 -0.07368172
00000000: af81 f6bd 7c63 0dbe 559f 3f3e 0305 e5bd
00000010: d56f 443d 7edc e93d 445b 9d3d f003 4dbd
00000020: 0c0b 0e3d 73e5 debd 7206 c1bd 5305 dc3d
00000030: 3102 d8bd 09a6 3bbe d9f6 723d beaf 293b
00000040: aa38 dabd 91f6 37bd 97ff 29bc cf5b 933d
00000050: cb86 11be e18b 08be 2995 1c3e 2aaa e5bc
00000060: 74f8 8cbb 36bb 153e 311b bf3c 8249 5d3d
00000070: 54a9 9ebd 6b9a d83d 9a18 3abd d8b2 3dbe
00000080: 79c4 46bc c24f a23d 0f7e 9f3d c925 983d
00000090: f148 90bc a3d1 1ebe cd45 04be 8267 26be
000000a0: 88d5 ad3d ac41 0b3e 410c 01be e06e 5ebd
000000b0: b737 2abe 2179 e7bd 960a 153e 540d 1dbe
000000c0: 01b4 e83d c6e3 18bc f237 193e 31e1 8d3d
000000d0: 6f15 a03d 34c9 693d 099e 0fbc 8010 4b3d
000000e0: b7c5 f4bd 7661 583d c238 063e 9581 14be
000000f0: 0af9 1cbe 1324 ca3c 764b 653c b955 dfbc
00000100: 021c c3bd 9b0a 76bd 3cc2 d73b f0fc cc3d
00000110: c4dd 0b3e 5c2c d03d faca 02be bc99 81bc
00000120: d677 903d 766f 1dbd 3781 603d b403 183e
00000130: b4f9 073e 0961 cebd 92dc 1a3e 83d5 603d
00000140: 206e 50bd d781 82bd d37c e13c 414e aebd
00000150: bf6b 1abe 60c1 2abe 341a b93c ee9f 28bc
00000160: d17d 343e 0b82 e0bd ac36 05bd a1b1 803a
00000170: fcc8 81bd 9b0e f63d 1f12 32be 951c 26be
00000180: b1bf ce3c 4a8d 873d ea9c a53c 5ceb 18bd
00000190: c193 da3d 1d7e 23be 8576 893c 79af 863c
000001a0: b47d c2bd e425 0bbe c116 313d 6082 58bd
000001b0: d525 0a3e 9e00 ccbd 1933 0a3c cfd3 a5bd
000001c0: 5a0b 15be 9a64 3c3e a306 2fbe b791 ba3c
000001d0: 6df9 b6bd c91d fb3d ef6f 2bbe 940e b43c
000001e0: bbed cebd d1c6 073e 6a94 883d 09ca f4bd
000001f0: e2da 4a3e 858e 1f3d 0f27 ab3d 00ab 9ebd
00000200: 53ad 153e 9227 8a3d a539 ebbd f464 f83d
00000210: 600f 103e 3e35 52bd dc1b 32be 2c3e 00bd
00000220: 70b9 a9bb 47b6 3abd daf6 3bbd a8e3 0dbe
00000230: 10b0 adbd b570 613c ecf6 ac3d e31c 143e
00000240: 7acb 22bd c5d6 003e a5c6 173e 55b9 4f3d
00000250: d041 873d 08d3 453e a636 203b abb1 0cbe
00000260: 8b47 27be 4e6a 6fbc 00c0 72bd a7a0 75bd
00000270: 0d22 00be 1f52 9bbd 2495 123e a2c8 253d
00000280: 6f50 1ebe 93be 1bbe ceb4 113e 7881 0fbe
00000290: 1c4c 243e 96ef 273e 7f72 2bbe 8a74 8cbd
000002a0: a665 a2bd 1ec2 f2bd ef50 e0bd 3d4c 183e
000002b0: 0a85 59bd db4b b9bd 29e2 a4bd 4957 cb3c
000002c0: fdd4 23bb 4903 c63d 63ae 103e bedc d9bc
000002d0: 3923 28be 26bf 82bd 5151 983c e370 7abd
000002e0: 0cbe db3d a3f0 1fbe 98be 11bd cdde fa3c
000002f0: dc9d 12bc ce75 2e3e 56d6 b73d 78c0 193d
00000300: a616 5ebb d33c 07be d649 33be 59c1 be3d
00000310: 2171 1abe 4866 46bd bfbe 413d 674e da3d
00000320: be07 1fbe f298 2c3d bafb 38be fe99 adbd
00000330: 3139 e93d 51fd 393c fe1d c93b d96b 293d
00000340: 1008 f53d b888 58bd ab27 e2bd 9ea7 0e3e
00000350: 9319 993d db78 d23c 5560 b3bb 7a91 cabd
00000360: ddb1 ee3d 0a31 b0bd f0bf 553d 91dc 2e3e
00000370: ef36 ee3d 8517 853d 0c50 d4bd decc a6bd
00000380: 929d c83c 6f7d 313e a80f 0bbd ae76 22bd
00000390: d823 1e3e 121d ecbd c38f 0d3e 178e 97bd
000003a0: d8cf d9bd 2b83 96bb aa77 833d a7ab 243e
000003b0: 5032 31be 03ba 2bbe 30ae 47bd 3258 8dbc
000003c0: de0d d63d be55 923c 6259 11be 451c d0bd
000003d0: f1e1 0d3e 1dd9 d8bd b4ee 87bc b3e0 89bc
000003e0: 4105 f13c 15d9 14bc 9cd5 483c f1b3 9f3d
000003f0: f365 d23d 957f 133d ab4c c7bd 71e6 96bd

layers.4.bias f4 [64]
0.07323649 -0.04420345 -0.008481708 -0.010393356 0.11141792 -0.15470612 -0.06892057 -0.16673972
0.10410987 0.00076465873 -0.028112076 -0.03198231 -0.12906584 0.057964224 0.14508063 -0.08677208
-0.12937449 0.013135331 0.108854406 0.17828353 0.053846758 -0.024841916 0.069063045 -0.09177724
0.0989062 0.12247538 0.037051544 0.14093965 0.112321556 0.10673365 0.009762417 0.07016136
0.055592477 0.09643384 -0.13787836 0.024806576 -0.115866974 -0.06675695 0.1438084 -0.13527729
0.03573997 -0.18985595 0.04412166 -0.06492049 0.16010128 -0.092500634 0.1269949 0.07978231
0.09691574 0.1818488 0.1478931 0.17267136 -0.09418087 0.05168807 0.15974338 -0.11223507
0.0846818 -0.14567696 -0.10688424 -0.017878763 -0.120681345 -0.14420767 -0.13734101 0.030363064
00000000: 03fd 953d ad0e 35bd ddf6 0abc e548 2abc
00000010: 142f e43d 486b 1ebe 3a26 8dbd d1bd 2abe
00000020: 8e37 d53d 6173 483a 4c4b e6bc e2ff 02bd
00000030: d629 04be e56b 6d3d 0490 143e 8fb5 b1bd
00000040: bf7a 04be 9235 573c 0fef de3d f58f 363e
00000050: 6b8e 5c3d 4681 cbbc ed70 8d3d b5f5 bbbd
00000060: 558f ca3d 5fd4 fa3d 5cc3 173d 7c52 103e
00000070: d808 e63d 2c97 da3d 8bf2 1f3c c2b0 8f3d
00000080: f0b4 633d 1b7f c53d fc2f 0dbe 2937 cb3c
00000090: aa4b edbd deb7 88bd 8242 133e 2186 0abe
000000a0: 1364 123d 9969 42be eab8 343d 09f5 84bd
000000b0: 97f1 233e f970 bdbd f30a 023e e864 a33d
000000c0: c27b c63d 9236 3a3e 4a71 173e c3d0 303e
000000d0: e6e1 c0bd dfb6 533d c593 233e 80db e5bd
000000e0: a76d ad3d 572c 15be 20e6 dabd 7c76 92bc
000000f0: c827 f7bd 2dab 13be 1fa3 0cbe f6bb f83c

layers.7.weight f4 [64]
1.0011984 1.0204694 1.038259 0.9895495 0.98013157 0.986193 0.9731186 1.0194707
0.98314613 0.9992012 0.9770314 0.9843004 0.9916018 0.9950602 1.0112398 0.9934615
0.968603 1.0734488 1.0188152 0.9796244 0.981501 1.0049791 0.98772675 0.98835766
0.9733374 0.99606305 1.0254688 1.0283599 0.99354285 1.0239818 0.9923128 1.0028197
1.0106084 0.97439975 1.006219 1.0164851 1.002343 0.99560565 0.97556365 1.002602
0.96125823 1.0057439 1.0169734 1.0035335 0.98060685 1.0019124 0.9892241 1.0048844
0.9771996 0.9938713 0.97704816 1.0006261 0.9769931 0.98336613 1.0338808 0.9983423
1.0026917 1.0236301 0.97490376 1.0012841 1.017897 0.96712625 0.9819417 1.0248214
00000000: 4527 803f be9e 823f ace5 843f 1e53 7d3f
00000010: e7e9 7a3f 2577 7c3f 4d1e 793f 047e 823f
00000020: 77af 7b3f a6cb 7f3f bb1e 7a3f 1cfb 7b3f
00000030: 9ed9 7d3f 44bc 7e3f 4e70 813f 7e53 7e3f
00000040: 5ef6 773f c566 893f 8968 823f aac8 7a3f
00000050: a643 7b3f 28a3 803f a9db 7c3f 0205 7d3f
00000060: a42c 793f fdfd 7e3f 9042 833f 4ca1 833f
00000070: d358 7e3f d611 833f 3608 7e3f 655c 803f
00000080: 9e5b 813f 4372 793f c9cb 803f 2f1c 823f
00000090: c74c 803f 03e0 7e3f 8abe 793f 4355 803f
000000a0: 0515 763f 37bc 803f 2f2c 823f c973 803f
000000b0: 0d09 7b3f aa3e 803f ca3d 7d3f 0da0 803f
000000c0: c129 7a3f 596e 7e3f d41f 7a3f 8414 803f
000000d0: 381c 7a3f e2bd 7b3f 3556 843f 5c93 7f3f
000000e0: 3458 803f 5006 833f 4b93 793f 142a 803f
000000f0: 734a 823f 9695 773f 8860 7b3f 592d 833f

layers.7.bias f4 [64]
0.0023376402 0.012698172 -0.00080941746 0.003929237 -0.011100116 -0.0033013825 0.0009459705 -0.006790404
0.012759922 -0.0009383007 -0.008467393 -0.01705335 -0.033214033 0.0036234057 -0.0036418582 0.008544863
0.014158323 0.005159329 -0.0077003534 -0.0087228045 0.012464163 -0.004872012 -0.019653594 0.015064152
0.006767911 0.011557435 -0.017469931 0.011832565 0.011589722 0.004986733 -0.021265026 -0.0031400197
0.028714582 0.0058599547 0.026549954 -0.004163225 0.0184594 -0.025656033 -0.018626582 -0.00012953042
-0.009623819 -0.024121022 -0.0008441361 0.01023988 0.015322885 0.008095854 -0.049709227 -0.003799051
0.00043180602 -0.02197271 -0.010836685 -0.022460636 0.015083536 -0.006022304 -0.010444596 -0.010812415
-0.021243956 -0.0075991587 0.05072924 0.007045402 -0.010284813 0.006978359 -0.0013949674 0.023266098
00000000: 1833 193b fe0b 503c 162f 54ba d4c0 803b
00000010: 43dd 35bc 025c 58bb 01fb 773a 0a82 debb
00000020: fe0e 513c 4bf8 75ba d2ba 0abc 78b3 8bbc
00000030: 700b 08bd a976 6d3b 3eac 6ebb c1ff 0b3c
00000040: 50f8 673c 970f a93b 3f53 fcbb 18ea 0ebc
00000050: 7d36 4c3c 66a5 9fbb 9300 a1bc a2cf 763c
00000060: 5ac5 dd3b 655b 3d3c 1a1d 8fbc 60dd 413c
00000070: d1e2 3d3c c067 a33b fe33 aebc cac8 4dbb
00000080: d83a eb3c dd04 c03b 4a7f d93c aa6b 88bb
00000090: 2b38 973c 9a2c d2bc c696 98bc 8fd2 07b9
000000a0: 39ad 1dbc 7399 c5bc 0449 5dba 2bc5 273c
000000b0: d60c 7b3c 79a4 043c e79b 4bbd 80f9 78bb
000000c0: 0664 e239 1d00 b4bc 5a8c 31bc 5eff b7bc
000000d0: ef20 773c bf56 c5bb d01f 2bbc 8e26 31bc
000000e0: ce07 aebc 5d02 f9bb 77c9 4f3d 1edd e63b
000000f0: a281 28bc b8aa e43b 57d7 b6ba 8b98 be3c

layers.7.running_mean f4 [64]
0.16635591 0.14013827 0.1794914 0.11601344 0.2094314 0.09256657 0.122324534 0.029508147
0.23472054 0.22834253 0.100274324 0.10572435 0.049851593 0.22155781 0.23517612 0.104714274
0.13794407 0.17857257 0.22292106 0.27366877 0.18686245 0.18955679 0.21018608 0.11540545
0.2028473 0.25348085 0.17808731 0.32108575 0.23118897 0.2496246 0.16257656 0.20538455
0.23386541 0.24868739 0.045563377 0.2005515 0.08353806 0.0771143 0.30544275 0.085111186
0.2181809 0.059587207 0.21494171 0.13089643 0.28630185 0.118581384 0.22092351 0.25344616
0.20429231 0.31609425 0.30846435 0.25640705 0.09709961 0.16262744 0.27109644 0.06097429
0.21915047 0.048154097 0.046329428 0.15435955 0.08779058 0.043776847 0.04461906 0.23164146
00000000: 3459 2a3e 6880 0f3e 98cc 373e 7498 ed3d
00000010: 2f75 563e 8b93 bd3d 4985 fa3d 12bb f13c
00000020: 955a 703e a0d2 693e a05c cd3d 0286 d83d
00000030: 2f31 4c3d 0de0 623e 02d2 703e 7074 d63d
00000040: 3641 0d3e badb 363e 6b45 643e 501e 8c3e
00000050: df58 3f3e 2d1b 423e 053b 573e b159 ec3d
00000060: 34b7 4f3e 3ec8 813e 855c 363e 5a65 a43e
00000070: cdbc 6c3e 979d 7f3e 787a 263e 5450 523e
00000080: 6a7a 6f3e e8a7 7e3e aaa0 3a3d 5f5d 4d3e
00000090: 0116 ab3d 1aee 9d3d fe62 9c3e c64e ae3d
000000a0: d06a 5f3e b711 743d ae19 5c3e b709 063e
000000b0: 2896 923e ccda f23d c639 623e b2c3 813e
000000c0: 0132 513e 1bd7 a13e 0aef 9d3e c947 833e
000000d0: 29dc c63d cf87 263e 27cd 8a3e 2dc0 793d
000000e0: fb68 603e 3b3d 453d edc3 3d3d 6e10 1e3e
000000f0: 8ccb b33d 5a4f 333d 7ac2 363d 6b33 6d3e

layers.7.running_var f4 [64]
0.1405977 0.20795366 0.24676062 0.14068271 0.18566327 0.20998883 0.17538007 0.10308322
0.24285983 0.4025119 0.12066961 0.12282215 0.10923591 0.29750127 0.1861986 0.17599721
0.2627238 0.24518067 0.24059206 0.19721574 0.1569387 0.31662202 0.16939758 0.17493631
0.17391902 0.25510263 0.19189177 0.41010067 0.2324925 0.2488174 0.1586295 0.1978188
0.335069 0.22338665 0.11023606 0.28135026 0.15793845 0.08947517 0.38815495 0.17308366
0.2708526 0.1990968 0.28955323 0.20440465 0.23525779 0.2005361 0.20812167 0.27537456
0.15674074 0.36446556 0.35666052 0.22492199 0.17815843 0.1463338 0.19217284 0.16757502
0.21006249 0.12780923 0.096224174 0.20463017 0.1758808 0.085337184 0.11407228 0.35462824
00000000: d8f8 0f3e cef1 543e d1ae 7c3e 210f 103e
00000010: 831e 3e3e 5007 573e d596 333e 4c1d d33d
00000020: 3fb0 783e 0a16 ce3e a121 f73d 2e8a fb3d
00000030: 14b7 df3d 1652 983e d9aa 3e3e 9d38 343e
00000040: bc83 863e a410 7b3e c45d 763e ecf2 493e
00000050: 8ab4 203e 481c a23e 8f76 2d3e 8122 333e
00000060: d417 323e d09c 823e 477f 443e b7f8 d13e
00000070: 8412 6e3e fdc9 7e3e c66f 223e 0391 4a3e
00000080: 2a8e ab3e 78bf 643e 72c3 e13d 240d 903e
00000090: 9eba 213e c23e b73d 3fbc c63e d83c 313e
000000a0: 31ad 8a3e 08e0 4b3e 5240 943e 744f 513e
000000b0: 6be7 703e 5659 4d3e d91d 553e e5fd 8c3e
000000c0: a580 203e 3b9b ba3e 359c b63e f351 663e
000000d0: 2a6f 363e 87d8 153e f5c8 443e c998 2b3e
000000e0: 9f1a 573e 6ce0 023e 2e11 c53d 928a 513e
000000f0: 191a 343e 43c5 ae3d ba9e e93d d591 b53e

layers.8.weight f4 [128, 64]
0.07485354 -0.03973696 0.08655119 -0.098081164 -0.07782954 -0.06789084 0.019365508 0.04971335
-0.024996556 -0.10880276 -0.110823944 -0.03966486 0.040187944 0.08432565 0.06384832 -0.00051320385
0.13117902 -0.10368653 0.007528085 0.052795775 0.0682641 0.07638916 0.006186737 -0.005699802
0.065279216 -0.06718831 0.09416307 -0.003911999 0.07588184 -0.14009902 0.11594346 -0.07760423
-0.004944859 0.0065543065 -0.070043564 -0.10330567 0.11982493 -0.021242483 -0.029581312 -0.07096319
-0.09290037 0.023218917 0.0202887 -0.015310885 0.0074702385 -0.032241262 -0.038059656 -0.08015534
0.030589208 -0.029732665 0.068214715 0.10301325 -0.026092228 -0.10229381 0.13164437 0.078972496
0.016257424 -0.04529535 -0.10909717 0.1164964 -0.038200475 0.086400785 0.04356131 -0.15270443
0.04510299 -0.12234056 -0.0020089042 -0.0011519612 0.03969146 0.110771015 -0.06061437 0.05525445
-0.10354331 -0.059959386 -0.035828564 -0.0005584028 0.06587392 0.018008642 -0.12460705 -0.023464557
-0.14543702 -0.0072647505 -0.043777715 0.061482042 0.022687253 0.08752755 -0.09227504 0.047997538
-0.00088884344 0.112719476 0.058495164 0.08674326 0.1037188 0.06216423 -0.107055016 0.0010214709
0.0072529176 -0.07642096 -0.039029624 -0.025127556 0.029365407 0.11800828 -0.09015024 -0.033109426
0.106993034 0.07809923 -0.07316083 -0.059025545 0.08348993 -0.07806362 -0.0128038125 -0.076657586
-0.012087164 -0.114088714 -0.02125247 -0.051900327 -0.08461191 0.09012617 -0.018283864 0.1081345
-0.024606742 -0.07471084 0.09627295 0.083489396 0.005903426 -0.0629039 -0.031086063 -0.02440167
0.010866142 -0.012042847 0.07683892 0.107058086 -0.03582356 -0.04850781 0.07441609 -0.057304267
-0.013962043 0.08299499 -0.0135440985 0.058430016 0.08393656 -0.034769595 -0.01734433 0.0016308548
0.052159157 0.047220252 0.028140413 0.04934037 0.09061468 -0.09043512 -0.073652044 -0.09561662
-0.021424953 0.09992497 0.012797324 0.08171919 0.05142938 -0.0053261067 -0.12931582 0.106812894
0.0938205 -0.021908391 -0.054061856 0.09360278 -0.09571517 -0.10200125 -0.098273456 -0.06554327
-0.09341998 -0.07925373 0.1095697 -0.0046124896 -0.09271778 -0.103228256 -0.029431453 -0.020102609
0.01529692 -0.12953438 0.081603035 0.0960137 0.09988943 -0.0076332274 -0.07700143 -0.03424381
-0.14951217 -0.04231745 0.12371344 -0.03359262 -0.08534337 0.06601096 -0.07704979 -0.07185345
-0.028472457 0.069785655 -0.107933715 0.01038237 -0.15650202 -0.112832904 0.01165425 0.0532552
0.07469646 0.10580518 0.10343885 0.033612356 -0.052783433 -0.060353786 -0.12715334 0.045016743
0.067458786 0.09737171 0.050649162 0.06629599 0.013879291 -0.072306804 0.12817997 -0.03572896
0.09416169 -0.1381319 -0.08676322 0.08484033 -0.067745864 -0.07932326 -0.02026276 -0.0411952
-0.061173193 0.0561181 -0.02426617 -0.062887974 -0.13533023 0.050712757 -0.0063167196 0.09490383
-0.042676657 0.054826465 -0.05231253 0.048235256 0.108808644 0.03188776 0.09531617 0.025529612
0.026839172 0.10118648 -0.029519973 0.037931222 -0.07925522 0.016795782 0.11716757 -0.070799686
-0.05984332 0.11912368 -0.08526705 0.075006075 0.06455772 0.12364068 0.013300421 0.012074233
00000000: d04c 993d 39c3 22bd c041 b13d c7de c8bd
00000010: 1865 9fbd 5a0a 8bbd 6aa4 9e3c 3aa0 4b3d
00000020: 94c5 ccbc fbd3 debd aaf7 e2bd 9f77 22bd
00000030: 1d9c 243d edb2 ac3d e8c2 823d 8788 06ba
00000040: cb53 063e 9a59 d4bd 27ae f63b 6240 583d
00000050: 0cce 8b3d eb71 9c3d 1dba ca3b 68c5 babb
00000060: 1cb1 853d 069a 89bd 91d8 c03d 3a30 80bb
00000070: f067 9b3d 1e76 0fbe c473 ed3d f7ee 9ebd
00000080: 7c08 a2bb 82c5 d63b 0073 8fbd ec91 d3bd
00000090: c666 f53d b704 aebc 8254 f2bc 2655 91bd
000000a0: 8d42 bebd 9935 be3c 7d34 a63c 82da 7abc
000000b0: e7c8 f43b 6a0f 04bd 71e4 1bbd 7c28 a4bd
000000c0: 3896 fa3c eb91 f3bc 28b4 8b3d 9cf8 d23d
000000d0: 5ebf d5bc 6b7f d1bd c8cd 063e 55bc a13d
000000e0: 4a2e 853c 9e87 39bd 566e dfbd aa95 ee3d
000000f0: 1a78 1cbd e5f2 b03d 586d 323d 8d5e 1cbe
00000100: eabd 383d b08d fabd d2a7 03bb 67fd 96ba
00000110: 8393 223d eadb e23d c646 78bd 7d52 623d
00000120: 840e d4bd f997 75bd f9c0 12bd c761 12ba
00000130: e8e8 863d dc86 933c fb31 ffbd be38 c0bc
00000140: 71ed 14be 250d eebb 4350 33bd 98d4 7b3d
00000150: 9eda b93c a541 b33d b2fa bcbd 1199 443d
00000160: 4601 69ba 78d9 e63d a098 6f3d 73a6 b13d
00000170: 866a d43d eb9f 7e3d a93f dbbd e0e2 853a
00000180: e2a9 ed3b 9882 9cbd 87dd 1fbd 4ed8 cdbc
00000190: b98f f03c 53ae f13d b0a0 b8bd c09d 07bd
000001a0: 2a1f db3d 7df2 9f3d 58d5 95bd c5c4 71bd
000001b0: c5fc aa3d d2df 9fbd 15c7 51bc a7fe 9cbd
000001c0: 3e09 46bc 58a7 e9bd a919 aebc 7095 54bd
000001d0: 0249 adbd 1294 b83d 0bc8 95bc 9f75 dd3d
000001e0: 1494 c9bc ff01 99bd c12a c53d 7dfc aa3d
000001f0: 8771 c13b c3d3 80bd 33a8 febc 03e6 c7bc
00000200: e707 323c 5d4f 45bc b95d 9d3d 4541 db3d
00000210: babb 12bd 20b0 46bd 7767 983d e1b7 6abd
00000220: 0ec1 64bc 47f9 a93d 11e8 5dbc 5054 6f3d
00000230: eee6 ab3d 906a 0ebd b215 8ebc 68c2 d53a
00000240: d7a4 553d 066a 413d b986 e63c 2119 4a3d
00000250: 3094 b93d 0c36 b9bd e2d6 96bd a5d2 c3bd
00000260: 6283 afbc 76a5 cc3d deab 513c 645c a73d
00000270: 9da7 523d 9f86 aebb 5e6b 04be b8c0 da3d
00000280: f624 c03d 3a79 b3bc f76f 5dbd d0b2 bf3d
00000290: 5106 c4bd 08e6 d0bd 9843 c9bd 8d3b 86bd
000002a0: f952 bfbd c84f a2bd 1466 e03d 5e24 97bb
000002b0: d2e2 bdbd 5669 d3bd 3b1a f1bc 3aae a4bc
000002c0: ef9f 7a3c a9a4 04be 7e1f a73d d5a2 c43d
000002d0: d492 cc3d 2720 fabb edb2 9dbd 3d43 0cbd
000002e0: b819 19be 1055 2dbd 795d fd3d 6a98 09bd
000002f0: 81c8 aebd c130 873d 48cc 9dbd e727 93bd
00000300: 123f e9bc c8eb 8e3d 5a0c ddbd d11a 2a3c
00000310: 1142 20be f014 e7bd 78f1 3e3c 2022 5a3d
00000320: 75fa 983d 63b0 d83d bfd7 d33d 1cad 093d
00000330: 7133 58bd 8835 77bd 7c34 02be 7a63 383d
00000340: d527 8a3d d26a c73d 7f75 4f3d 31c6 873d
00000350: f765 633c 9715 94bd 9c41 033e 8858 12bd
00000360: d8d7 c03d 7372 0dbe eab0 b1bd c4c0 ad3d
00000370: 58be 8abd 3c74 a2bd 16fe a5bc 4cbc 28bd
00000380: be90 7abd 18dc 653d d9c9 c6bc 69cb 80bd
00000390: 0294 0abe 2eb8 4f3d 7cfc cebb f05c c23d
000003a0: b8cd 2ebd b791 603d aa45 56bd 5592 453d
000003b0: 11d7 de3d bd9c 023d 2035 c33d 7a23 d13c
000003c0: d3dd db3c db3a cf3d dfd3 f1bc c55d 1b3d
000003d0: 9050 a2bd 4f97 893c 8df5 ef3d 6dff 90bd
000003e0: 451e 75bd 1ef7 f33d 7ea0 aebd c99c 993d
000003f0: d736 843d 5337 fd3d 02ea 593c 01d3 453c

layers.8.bias f4 [128]
0.047781557 0.04427992 -0.011166375 -0.057854008 -0.09628237 0.066626206 -0.1308225 -0.0776966
-0.05482009 0.0018986291 -0.0398545 0.09852722 -0.007215452 -0.018330632 -0.11270159 -0.0016183781
0.022936495 -0.11393171 -0.12174445 0.060670696 0.08872317 -0.090617135 -0.042337738 0.05828016
-0.084243156 0.024838759 0.02633077 0.1012923 -0.004578413 -0.06784218 -0.09435664 0.058037058
-0.1338769 0.06503977 0.105829775 0.027682144 0.04622417 -0.050604608 -0.026654942 0.076755665
-0.017989349 0.03473002 0.0028244709 -0.0424384 0.1093159 0.06847444 -0.05208227 -0.00018647403
0.013431433 -0.09788793 -0.0013527559 -0.14055385 0.044537622 -0.058866598 -0.116295904 -0.10729667
0.10115765 -0.09053397 0.05957603 0.123558946 0.06026955 -0.014254555 -0.11171422 -0.043234173
0.13282093 0.109711386 0.0355875 -0.036133416 -0.13684526 -0.053579673 -0.114572346 0.04148802
-0.056017183 0.016228335 -0.096604876 -0.06068437 0.09398114 -0.116794854 -0.040932268 0.14048474
-0.009201643 -0.11442543 -0.077287234 -0.021429071 0.11483978 0.09909101 0.14863853 -0.11722944
-0.0013056932 -0.059064496 -0.0029503622 -0.07162451 -0.02686001 0.087847926 0.0009638077 0.083015926
0.07491599 -0.048230354 0.08746296 0.06991701 0.04707052 0.05684714 -0.042523615 0.061927028
-0.011667851 0.13516298 -0.09301569 -0.009172537 -0.022015313 0.06064719 -0.13223533 -0.037457734
-0.057330485 0.04735505 0.00053668703 0.060772266 -0.09372089 0.104517594 -0.11903387 0.0549067
-0.018722652 0.094639204 -0.015480581 0.058952674 0.05180357 -0.09301698 0.12792742 -0.10797567
00000000: 98b6 433d dd5e 353d 2cf3 36bc 53f8 6cbd
00000010: b12f c5bd 5273 883d 55f6 05be 651f 9fbd
00000020: 088b 60bd 6cdb f83a 793e 23bd a4c8 c93d
00000030: 996f ecbb 1f2a 96bc 17d0 e6bd c21f d4ba
00000040: 51e5 bb3c 0755 e9bd 2755 f9bd d681 783d
00000050: 7eb4 b53d 7a95 b9bd 566a 2dbd 2db7 6e3d
00000060: ad87 acbd a77a cb3c a1b3 d73c 5672 cf3d
00000070: 8306 96bb d7f0 8abd 0e3e c1bd 44b8 6d3d
00000080: 0717 09be 9233 853d 48bd d83d aac5 e23c
00000090: 8e55 3d3d c746 4fbd 775b dabc 1332 9d3d
000000a0: 665e 93bc 1141 0e3d c21a 393b e3d3 2dbd
000000b0: 04e1 df3d 543c 8c3d 3854 55bd 3e88 43b9
000000c0: 830f 5c3c 7879 c8bd f54e b1ba 59ed 0fbe
000000d0: 156d 363d 1a1e 71bd 8c2c eebd 5bbe dbbd
000000e0: be2b cf3d e069 b9bd ff05 743d 790c fd3d
000000f0: 34dd 763d f08b 69bc 6dca e4bd 5116 31bd
00000100: 3602 083e 5db0 e03d 33c4 113d a200 14bd
00000110: 2a21 0cbe 5c76 5bbd e8a4 eabd 58ef 293d
00000120: 4672 65bd 49f1 843c c7d8 c5bd 2d90 78bd
00000130: 2f79 c03d 2432 efbd 98a8 27bd 3bdb 0f3e
00000140: 7dc2 16bc e157 eabd c548 9ebd 058c afbc
00000150: 1e31 eb3d 3af0 ca3d b334 183e fd15 f0bd
00000160: cb23 abba 9ded 71bd dd5a 41bb dfaf 92bd
00000170: 8609 dcbc 9de9 b33d 0aa8 7c3a 4104 aa3d
00000180: 8e6d 993d 318d 45bd c81f b33d a630 8f3d
00000190: 05cd 403d 8cd8 683d 3e2d 2ebd 32a7 7d3d
000001a0: 842a 3fbc 2a68 0a3e 037f bebd 6948 16bc
000001b0: 7559 b4bc 3069 783d b368 07be 486d 19bd
000001c0: 5fd3 6abd 5ef7 413d 75b0 0c3a 57ec 783d
000001d0: bdf0 bfbd 520d d63d 08c8 f3bd d9e5 603d
000001e0: 3f60 99bc 33d2 c13d 43a2 7dbc 5c78 713d
000001f0: fb2f 543d b07f bebd 68ff 023e 5922 ddbd

layers.11.weight f4 [128]
0.99195254 1.0204674 0.9921375 0.9925005 0.9948997 1.0072298 0.99222946 1.0039438
0.9907457 1.0332998 0.99015313 0.965882 0.9941911 1.0122654 0.9710872 0.9864818
1.0182189 0.9936735 1.0240185 1.0308231 1.0324019 0.99913704 0.98649746 1.0080277
1.0186261 0.997284 0.99808663 1.0219469 0.96494204 1.0056678 1.003466 1.033268
0.9954737 1.0104879 1.0023084 0.98461497 0.9793182 1.0094807 0.9937362 0.9864911
1.0003289 0.97119147 1.028971 1.0185285 0.97443 1.023777 0.97051704 1.0366715
1.0259303 0.9975576 1.0318975 0.97726256 1.0153583 0.97038364 0.9689122 1.0173581
0.99691254 0.9719116 0.9605844 0.9871499 0.9935506 1.0038044 1.0059528 0.99332374
0.9965908 0.9854667 0.9773834 0.9794917 0.98881215 1.0057817 1.0010197 1.0104601
1.0162978 1.0091114 1.0073117 0.9920895 1.0252486 1.0076455 1.0216675 0.9958823
0.9977079 0.99832016 0.9980454 0.98092157 1.011443 0.9861855 1.0062636 1.0138389
0.9699702 0.9870272 0.9883232 0.98048466 1.0162417 0.9910738 1.0027856 1.0244571
0.989708 0.99227047 1.0026869 1.0086622 0.98616606 1.0071971 1.0113361 0.979456
0.9971586 0.9902503 1.0020558 1.0170517 0.99341196 1.0079829 0.95884526 0.98961955
0.98390836 1.0035216 0.9918883 0.95786005 0.97954756 1.0134574 0.97530895 0.99973136
0.9989639 0.98789406 0.98542964 1.0149654 0.98448 0.9737699 0.98493946 1.0001094
00000000: 9af0 7d3f ad9e 823f b9fc 7d3f 8314 7e3f
00000010: bfb1 7e3f e8ec 803f c002 7e3f 3b81 803f
00000020: 83a1 7d3f 2b43 843f ad7a 7d3f 0b44 773f
00000030: 4f83 7e3f ea91 813f 2c99 783f 128a 7c3f
00000040: ff54 823f 6361 7e3f 0a13 833f 03f2 833f
00000050: bf25 843f 72c7 7f3f 198b 7c3f 0d07 813f
00000060: 5762 823f 014e 7f3f 9b82 7f3f 28cf 823f
00000070: 7106 773f b9b9 803f 9371 803f 2042 843f
00000080: 5dd7 7e3f ab57 813f a44b 803f ba0f 7c3f
00000090: 99b4 7a3f aa36 813f 7f65 7e3f ae8a 7c3f
000000a0: c70a 803f 01a0 783f 52b5 833f 245f 823f
000000b0: 3f74 793f 200b 833f ce73 783f a7b1 843f
000000c0: af51 833f ef5f 7f3f 3815 843f e12d 7a3f
000000d0: 43f7 813f 106b 783f a10a 783f ca38 823f
000000e0: a935 7f3f 33cf 783f dce8 753f dbb5 7c3f
000000f0: 5559 7e3f aa7c 803f 10c3 803f 774a 7e3f
00000100: 9320 7f3f 8c47 7c3f cc35 7a3f f8bf 7a3f
00000110: cb22 7d3f 74bd 803f 6a21 803f c256 813f
00000120: 0c16 823f 902a 813f 97ef 803f 94f9 7d3f
00000130: 593b 833f 87fa 803f 00c6 823f 24f2 7e3f
00000140: c969 7f3f e991 7f3f e77f 7f3f ad1d 7b3f
00000150: f776 813f a776 7c3f 3fcd 803f 79c5 813f
00000160: f84f 783f d1ad 7c3f c002 7d3f 0b01 7b3f
00000170: 3514 823f 03b7 7d3f 475b 803f 6921 833f
00000180: 815d 7d3f 7005 7e3f 0b58 803f d81b 813f
00000190: 6175 7c3f d6eb 803f 7673 813f a1bd 7a3f
000001a0: c945 7f3f 0b81 7d3f 5d43 803f c02e 823f
000001b0: 3f50 7e3f 9505 813f e276 753f b557 7d3f
000001c0: 6be1 7b3f 6573 803f 64ec 7d3f 5136 753f
000001d0: a1c3 7a3f f9b8 813f d9ad 793f 65ee 7f3f
000001e0: 19bc 7f3f a0e6 7c3f 1e45 7c3f 63ea 813f
000001f0: e206 7c3f fc48 793f fe24 7c3f 9603 803f

layers.11.bias f4 [128]
-0.017123511 -0.015460108 -0.02305291 -0.004801604 -0.024159633 0.037265506 -0.039990097 -0.0025439006
-0.008438918 0.0084764715 0.012615708 0.019965285 -0.020585828 0.0089595 0.005766925 -0.014992182
0.019813215 -0.018851385 -0.01046949 -0.0221607 0.00342221 0.008743055 -0.0035266466 -0.020008737
0.006832394 0.020742709 0.015872976 -0.057801943 0.021311214 0.01187961 -0.006303683 -0.0063160937
0.008597591 -0.015885796 0.0051854313 -0.026137909 -0.011429792 -0.016542565 0.0053384253 -0.006100274
-0.025348494 0.02106411 -0.005702251 -0.02366801 -0.018446987 0.0056116143 0.033108532 0.027514316
0.016056469 0.011128767 0.026898839 0.01290893 0.025301084 -0.012135854 -0.011692231 -0.028160576
0.04397985 0.0073517193 0.0025967613 -0.00033251083 -2.4060631e-05 -0.016762538 -0.0019079407 0.022431616
0.00371369 -0.017431539 0.0015981029 -0.009321255 0.0077935606 0.00035683598 0.0116596045 0.0006923346
0.02788512 0.012814911 -0.01981588 0.0054263445 -0.041918173 0.028885812 -0.006644646 -0.019159732
4.871863e-05 0.004142242 -0.00926094 -0.008399878 0.00025619712 0.024928892 0.0033453598 0.055505086
-0.03536471 0.023846323 0.007972766 -0.04082853 -0.027311161 -0.025549853 0.009055946 -0.017657578
-0.0029749067 0.024328278 -0.01248556 -0.006750139 -0.0010935522 0.016852094 -0.0009075838 0.01605871
-0.004988809 -0.0042287917 -0.009587922 0.014811806 0.019247904 -0.031956065 0.0145353265 -0.003651666
0.0033941702 -0.02711847 -0.012323528 0.03208579 0.02171895 -0.023748567 -0.030369833 0.0039509274
-0.0038252224 0.0023843877 0.015952613 -0.0020712123 0.02849089 0.021950524 -0.009932191 0.00085110834
00000000: 9b46 8cbc 654c 7dbc 75d9 bcbc c656 9dbb
00000010: 6cea c5bc b7a3 183d a8cc 23bd 92b7 26bb
00000020: 6343 0abc e6e0 0a3c 1db2 4e3c 3d8e a33c
00000030: 9ca3 a8bc deca 123c 79f8 bc3b c5a1 75bc
00000040: 534f a23c 386e 9abc 3988 2bbc 5b8a b5bc
00000050: 2847 603b 083f 0f3c 501f 67bb 5de9 a3bc
00000060: 46e2 df3b 9dec a93c 0b08 823c bbc1 6cbd
00000070: db94 ae3c b2a2 423c 208f cebb 3cf7 cebb
00000080: e9dc 0c3c ee22 82bc 8dea a93b 2b1f d6bc
00000090: 0644 3bbc 4684 87bc f5ed ae3b cfe4 c7bb
000000a0: a5a7 cfbc a48e ac3c f3d9 babb 6ae3 c1bc
000000b0: 231e 97bc a2e1 b73b d09c 073d b465 e13c
000000c0: db88 833c 6f55 363c f45a dc3c fa7f 533c
000000d0: 3844 cf3c 76d5 46bc c590 3fbc 02b1 e6bc
000000e0: 3724 343d b1e6 f03b 6d2e 2a3b d954 aeb9
000000f0: d0d5 c9b7 9751 89bc de13 faba 82c2 b73c
00000100: 6161 733b 96cc 8ebc 6f77 d13a 2db8 18bc
00000110: 2061 ff3b b715 bb39 ed07 3f3c ca7d 353a
00000120: 566f e43c a2f5 513c ea54 a2bc 7acf b13b
00000130: 64b2 2bbd f0a1 ec3c 55bb d9bb dff4 9cbc
00000140: 3b57 4c38 a5bb 873b 33bb 17bc a49f 09bc
00000150: 3252 8639 ad37 cc3c d33d 5b3b 4d59 633d
00000160: 96da 10bd 5d59 c33c 34a0 023c d13b 27bd
00000170: a8bb dfbc ed4d d1bc 645f 143c a0a6 90bc
00000180: a7f6 42bb 194c c73c 3c90 4cbc 4530 ddbb
00000190: 8655 8fba 670d 8a3c ebea 6dba 8e8d 833c
000001a0: 2a79 a3bb ad91 8abb a916 1dbc 38ad 723c
000001b0: c8ad 9d3c 5de4 02bd 9425 6e3c ca50 6fbb
000001c0: ba70 5e3b 8e27 debc 9fe8 49bc 646c 033d
000001d0: f0eb b13c 5b8c c2bc 28ca f8bc c876 813b
000001e0: 95b0 7abb 6343 1c3b 0eaf 823c 2dbd 07bb
000001f0: ba65 e93c 96d1 b33c a1ba 22bc ea1c 5f3a

layers.11.running_mean f4 [128]
0.15440746 0.28148988 0.16355242 0.2212116 0.13927166 0.238462 0.07424997 0.16519691
0.13290866 0.27574286 0.23681547 0.23303585 0.17053932 0.22810264 0.075490996 0.17142096
0.25318643 0.14100905 0.1376731 0.2979441 0.19957945 0.12974261 0.16167516 0.28874546
0.13425276 0.18112524 0.16380367 0.23474647 0.15195656 0.16842382 0.19816871 0.23256755
0.024644384 0.19835453 0.2699802 0.20100641 0.19706169 0.12257077 0.24422786 0.24624045
0.18427473 0.20734966 0.20563251 0.22819053 0.22128536 0.29013482 0.13919972 0.18837719
0.18233033 0.11030823 0.17413184 0.071033455 0.17807797 0.13835204 0.12319678 0.15322407
0.2264299 0.091195405 0.20294541 0.29558364 0.19829848 0.14771485 0.12350291 0.18409026
0.2947447 0.23750158 0.18136045 0.13046707 0.11874158 0.0917444 0.10812698 0.22041662
0.17455539 0.17656963 0.113978565 0.15787812 0.22620875 0.08822173 0.14263777 0.31722733
0.12616982 0.12669061 0.14501487 0.2078663 0.28717032 0.237004 0.32284853 0.10683313
0.16625838 0.14034985 0.16281472 0.18799032 0.1832846 0.2966958 0.17069583 0.22367857
0.24279003 0.100682005 0.24474792 0.18163535 0.18644385 0.2648142 0.14551559 0.26028872
0.21136059 0.23850329 0.15318936 0.14607276 0.16812406 0.24942888 0.10371657 0.20588249
0.10292215 0.2708727 0.12528458 0.21704145 0.09909903 0.25640726 0.09911225 0.26750168
0.1793981 0.23250431 0.20434226 0.2308117 0.27429748 0.12851211 0.2517904 0.070897095
00000000: fd1c 1e3e 711f 903e 497a 273e 4b85 623e
00000010: 3b9d 0e3e 622f 743e 5e10 983d 6129 293e
00000020: 3519 083e 2b2e 8d3e c17f 723e f3a0 6e3e
00000030: dca1 2e3e bd93 693e 069b 9a3d fa88 2f3e
00000040: a7a1 813e ad64 103e 2dfa 0c3e 218c 983e
00000050: 8e5e 4c3e 3fdb 043e 2c8e 253e 72d6 933e
00000060: 8e79 093e e578 393e 26bc 273e 6161 703e
00000070: 809a 1b3e 4b77 2c3e bdec 4a3e 3026 6e3e
00000080: 05e3 c93c 731d 4b3e d83a 8a3e a0d4 4d3e
00000090: 8aca 493e 6206 fb3d de16 7a3e 7526 7c3e
000000a0: 84b2 3c3e 7853 543e 5491 523e c7aa 693e
000000b0: a198 623e 8d8c 943e 5f8a 0e3e f3e5 403e
000000c0: cdb4 3a3e 48e9 e13d 9e4f 323e fd79 913d
000000d0: 125a 363e 28ac 0d3e 984e fc3d c5e6 1c3e
000000e0: 3ddd 673e a8c4 ba3d ecd0 4f3e bd56 973e
000000f0: c20e 4b3e 9042 173e 18ef fc3d 2882 3c3e
00000100: c7e8 963e 9d33 733e 8eb6 393e 2999 053e
00000110: c92e f33d 7de4 bb3d ae71 dd3d e5b4 613e
00000120: a6be 323e abce 343e 986d e93d cdaa 213e
00000130: 44a3 673e 98ad b43d a30f 123e 9f6b a23e
00000140: a932 013e 2fbb 013e c77e 143e e7da 543e
00000150: fd07 933e 2db1 723e 674c a53e 54cb da3d
00000160: a33f 2a3e dfb7 0f3e e7b8 263e 8980 403e
00000170: f5ae 3b3e 83e8 973e e3ca 2e3e ff0b 653e
00000180: f39d 783e 5e32 ce3d 339f 7a3e 9efe 393e
00000190: 23eb 3e3e ba95 873e 0a02 153e 9044 853e
000001a0: e96e 583e 353a 743e acdd 1c3e 1994 153e
000001b0: b728 2c3e 496a 7f3e 5a69 d43d dcd2 523e
000001c0: d9c8 d23d d4af 8a3e 9a4a 003e 1d40 5e3e
000001d0: 6ff4 ca3d d047 833e 5dfb ca3d fbf5 883e
000001e0: 23b4 373e 9c15 6e3e 193f 513e e759 6c3e
000001f0: b870 8c3e ae98 033e acea 803e 7f32 913d

layers.11.running_var f4 [128]
0.14031969 0.4492979 0.19511971 0.48615205 0.265934 0.3354307 0.15312232 0.34114072
0.18437389 0.56792533 0.47710723 0.19308244 0.22532386 0.43283394 0.15872176 0.26559418
0.36435646 0.35180032 0.33445328 0.46906403 0.17543499 0.305868 0.24383044 0.5681422
0.23353486 0.20563206 0.1852913 0.23047926 0.20707253 0.36830747 0.45843554 0.38567007
0.10521751 0.2473597 0.33018643 0.23633699 0.2645787 0.18151806 0.5069273 0.30622944
0.3355844 0.23291188 0.32372543 0.42988762 0.22422682 0.45851415 0.18276143 0.3020115
0.2681658 0.17481723 0.25319874 0.18226825 0.20722497 0.25418198 0.26571968 0.37468144
0.22474584 0.13280036 0.270021 0.34669665 0.22293411 0.17267042 0.29984778 0.28159896
0.31574777 0.22655466 0.16331746 0.17510581 0.33327168 0.12458832 0.2546958 0.25897676
0.3549109 0.2483966 0.25359002 0.23024037 0.25227988 0.14998323 0.24330196 0.3595416
0.13194346 0.28247416 0.3065733 0.3828626 0.3064005 0.22191413 0.4008239 0.21519592
0.20453171 0.22941086 0.225494 0.41822374 0.2986769 0.44379812 0.22738165 0.2739385
0.27201417 0.15316042 0.24212117 0.16748597 0.18063867 0.45484337 0.1861745 0.35901517
0.35496706 0.23189637 0.3196146 0.18092217 0.26804715 0.3534846 0.21512622 0.45052534
0.15859863 0.38403723 0.100348465 0.28359178 0.18370393 0.27624384 0.2164483 0.44924986
0.26190424 0.25054213 0.3051767 0.29862607 0.45545238 0.23181334 0.21743116 0.11470156
00000000: f7af 0f3e 600a e63e 76cd 473e ece8 f83e
00000010: 8028 883e 93bd ab3e 19cc 1c3e ffa9 ae3e
00000020: 82cc 3c3e 8e63 113f 6647 f43e 67b7 453e
00000030: 4cbb 663e 699c dd3e f587 223e f6fb 873e
00000040: ee8c ba3e 2c1f b43e 763d ab3e 2929 f03e
00000050: 3ba5 333e bb9a 9c3e b0ae 793e c471 113f
00000060: c323 6f3e 3691 523e 01bd 3d3e c102 6c3e
00000070: d20a 543e cc92 bc3e 10b8 ea3e 8c76 c53e
00000080: 477c d73d dc4b 7d3e 320e a93e 5302 723e
00000090: dc76 873e dfdf 393e fdc5 013f 1bca 9c3e
000000a0: b8d1 ab3e 7480 6e3e 57bf a53e 3b1a dc3e
000000b0: b79b 653e 5ec2 ea3e d025 3b3e 40a1 9a3e
000000c0: 074d 893e 4a03 333e 44a3 813e 87a4 3a3e
000000d0: c832 543e 2424 823e 690c 883e 3fd6 bf3e
000000e0: c623 663e d1fc 073e 3140 8a3e 3982 b13e
000000f0: d748 643e 84d0 303e a685 993e bd2d 903e
00000100: b1a9 a13e f2fd 673e b13c 273e f04e 333e
00000110: 96a2 aa3e 2928 ff3d 7d67 823e 9a98 843e
00000120: e2b6 b53e ae5b 7e3e 8dd6 813e 22c4 6b3e
00000130: d42a 813e 3495 193e 2624 793e d615 b83e
00000140: 301c 073e 74a0 903e 2df7 9c3e 9106 c43e
00000150: 87e0 9c3e 753d 633e ca38 cd3e 525c 5c3e
00000160: c370 513e aeea 6a3e e6e7 663e 6c21 d63e
00000170: 2eec 983e 8239 e33e bcd6 683e ab41 8c3e
00000180: 7145 8b3e 16d6 1c3e 9dee 773e 7181 2b3e
00000190: 58f9 383e 3be1 e83e 87a4 3e3e d6d0 b73e
000001a0: 3ebe b53e 3e76 6d3e 86a4 a33e a943 393e
000001b0: 7a3d 893e effb b43e 0c4a 5c3e 42ab e63e
000001c0: ae67 223e 87a0 c43e 7f83 cd3d f132 913e
000001d0: e21c 3c3e d56f 8d3e a0a4 5d3e 1404 e63e
000001e0: 5018 863e 0f47 803e 1f40 9c3e 84e5 983e
000001f0: 0e31 e93e 7a60 6d3e 46a6 5e3e a7e8 ea3d
